disease_model.pth (torch, 195827 bytes, 22 tensors)

_orig_mod.conv_block_1.0.weight f4 [12, 3, 3, 3]
0.14713551 0.1597351 -0.04508576 0.17678683 -0.0421665 0.038834635 -0.0936953 0.1130226
0.16965301 -0.1411868 0.16727689 0.036018826 0.14218384 0.026063627 0.092797145 -0.027172223
0.14835705 0.028445838 -0.089843385 0.049055204 -0.08866881 -0.022569172 -0.07816521 0.1276658
-0.15191436 -0.088721484 -0.054343045 -0.11571494 0.01816404 -0.19007894 0.17380342 -0.16348024
0.14857674 0.03202738 -0.062489416 0.11892453 0.029993495 0.15549262 0.021038584 -0.0606936
0.051708195 -0.05218851 0.08099408 0.17182371 0.111247614 -0.08413389 0.11109464 0.03443437
0.0977329 -0.1172993 -0.19050798 -0.07435512 -0.14761361 0.15791278 0.055431657 0.07971543
0.060864493 -0.0033478567 0.15061304 -0.1367384 0.012117375 -0.13135491 0.05934237 -0.0662764
0.05896984 -0.040095337 0.15961653 -0.114065535 -0.11477685 -0.11478378 0.17309785 0.06413421
0.18518524 -0.15882449 -0.19088665 -0.15056598 -0.12945907 0.077950016 0.06891173 0.15991147
-0.09938611 -0.1311955 0.10210981 -0.07778919 0.11680254 -0.045668527 0.11009029 -0.14952756
-0.09711989 0.0586735 0.0406854 -0.049066834 0.114713624 0.13082935 -0.13955967 -0.102742985
0.17621922 -0.06493892 -0.06822671 -0.18621367 -0.11021043 0.048074737 -0.025402099 -0.13969682
0.0045142425 -0.1314591 -0.16327402 -0.10597508 -0.16843465 -0.122540295 0.19237483 0.036349002
0.059305362 -0.17949519 -0.12639618 -0.06405813 0.030093636 -0.16934094 -0.08292156 -0.11521382
0.0005333289 -0.0716113 -0.013335976 -0.1304099 -0.13209681 -0.11227573 -0.06587517 -0.15189718
0.1613636 -0.03819442 0.16558343 0.059964 -0.16296616 0.13318224 -0.052951645 -0.073771134
-0.15974714 -0.1913263 0.05506202 -0.042039543 0.074925266 -0.15793675 0.14288056 -0.1412687
-0.033231 0.040196992 0.09935271 0.15536694 0.17531419 -0.15259793 0.048433386 -0.082777776
-0.021089606 -0.14404699 0.17529483 -0.14124884 0.10285519 0.06763458 0.0625378 -0.10404741
0.1749278 0.042290986 0.024756791 -0.16959757 0.08078833 -0.028871479 -0.08816606 0.16530435
0.042906515 -0.106478095 -0.097406484 -0.009190592 0.107456684 -0.049177505 -0.109807186 -0.065903164
-0.14377463 0.06863395 0.1489641 -0.18118028 0.044696666 0.09941813 0.034896854 -0.06853622
0.10044781 0.10113506 0.071962334 -0.0338176 -0.05096103 0.020588487 -0.033997096 -0.05735033
0.123015426 0.16539152 -0.01905205 -0.043088973 0.0028082875 -0.011490855 0.046267174 0.053930987
-0.1747941 -0.07102135 0.16206789 0.07496989 -0.009572 -0.11602927 -0.11774194 -0.17239042
-0.0627315 0.0649912 0.12271034 0.088853694 -0.17011511 -0.11573226 -0.030371828 0.18616651
0.027839348 -0.04983894 0.079619534 -0.07330069 -0.12456441 0.14046687 -0.0875074 -0.038579844
-0.19145018 0.1288012 0.14580685 0.07013809 -0.13419048 -0.18993668 -0.15630391 0.14351007
0.09239639 0.16194761 0.100818805 0.04870761 -0.0018846032 -0.14635946 -0.16488588 -0.18000793
0.07878175 -0.09448683 -0.038731076 -0.11075604 -0.03506894 -0.13545309 -0.1257499 0.063837774
-0.057195473 0.118807755 -0.061739676 -0.14117508 -0.03395569 -0.09328968 -0.058878485 -0.18321164
00000000: b1aa 163e 9991 233e d9ab 38bd 9b07 353e
00000010: c8b6 2cbd 1111 1f3d 52e3 bfbd 6578 e73d
00000020: 85b9 2d3e 4693 10be a24a 2b3e 7a88 133d
00000030: a498 113e 6383 d53c 6e0c be3d 4898 debc
00000040: e9ea 173e 3f07 e93c cfff b7bd 1cee 483d
00000050: fe97 b5bd fce2 b8bc 1515 a0bd d3ba 023e
00000060: 708f 1bbe 9cb3 b5bd d096 5ebd f4fb ecbd
00000070: c1cc 943c 0ea4 42be 86f9 313e 5d67 27be
00000080: 8024 183e 242f 033d e7f4 7fbd b48e f33d
00000090: ebb4 f53c 7539 1f3e 1c59 ac3c da99 78bd
000000a0: f9cb 533d 9ec3 55bd 39e0 a53d 8ef2 2f3e
000000b0: cad5 e33d 644e acbd 9685 e33d 0e0b 0d3d
000000c0: 3028 c83d 9e3a f0bd 8614 43be 7f47 98bd
000000d0: 0628 17be e3b3 213e 4e0c 633d d841 a33d
000000e0: 0c4d 793d b767 5bbb 4e3a 1a3e 2705 0cbe
000000f0: f487 463c e781 06be fc10 733d ecbb 87bd
00000100: 5c8a 713d 023b 24bd 8472 233e 319b e9bd
00000110: 2010 ebbd c213 ebbd 9040 313e cc58 833d
00000120: 33a1 3d3e e3a2 22be ca77 43be f82d 1abe
00000130: eb90 04be 42a4 9f3d 9821 8d3d d5bf 233e
00000140: f28a cbbd 1d58 06be f31e d13d f04f 9fbd
00000150: 2c36 ef3d ec0e 3bbd 0577 e13d c11d 19be
00000160: cbe6 c6bd a053 703d bca5 263d 4efa 48bd
00000170: faee ea3d 21f8 053e bbe8 0ebe ea6a d2bd
00000180: d072 343e b2fe 84bd 72ba 8bbd ccae 3ebe
00000190: 02b6 e1bd 04ea 443d 1018 d0bc af0c 0fbe
000001a0: 36ec 933b 379d 06be 4e31 27be 7609 d9bd
000001b0: 227a 2cbe 68f6 fabd e8fd 443e b1e2 143d
000001c0: 2eea 723d 96cd 37be 006e 01be e930 83bd
000001d0: ee86 f63c b667 2dbe c7d2 a9bd 39f5 ebbd
000001e0: 19cf 0b3a f2a8 92bd 237f 5abc 2c8a 05be
000001f0: 6344 07be d1f0 e5bd 90e9 86bd ef8a 1bbe
00000200: 803c 253e c171 1cbd b48e 293e d09c 753d
00000210: 9ae0 26be ed60 083e d3e3 58bd 5215 97bd
00000220: c194 23be 0beb 43be b688 613d a831 2cbd
00000230: 6b72 993d 2cba 21be 484f 123e bea8 10be
00000240: 3b1d 08bd 9aa5 243d 6f79 cb3d 8318 1f3e
00000250: 9085 333e a242 1cbe 1662 463d 6587 a9bd
00000260: 1cc4 acbc 0e81 13be 7d80 333e 89a3 10be
00000270: bea5 d23d 0084 8a3d d113 803d cf16 d5bd
00000280: 4620 333e 5039 2d3d c1ce ca3c fcaa 2dbe
00000290: 5a74 a53d e183 ecbc 6890 b4bd 8b45 293e
000002a0: bebe 2f3d 3011 dabd 0d7d c7bd 2394 16bc
000002b0: 4012 dc3d 5a6e 49bd 97e2 e0bd 3df8 86bd
000002c0: a839 13be f58f 8c3d 0c8a 183e 5387 39be
000002d0: da13 373d bc9b cb3d 01f0 0e3d b85c 8cbd
000002e0: 95b7 cd3d e61f cf3d fd60 933d 5384 0abd
000002f0: 83bc 50bd 30a9 a83c 8a40 0bbd 2ee8 6abd
00000300: 83ef fb3d 655c 293e 0b13 9cbc 107e 30bd
00000310: 3f0b 383b 2444 3cbc a682 3d3d bde6 5c3d
00000320: 39fd 32be a473 91bd 20f5 253e d089 993d
00000330: e1d3 1cbc c1a0 edbd b022 f1bd 1d87 30be
00000340: 5f79 80bd 1b1a 853d 8f4f fb3d edf8 b53d
00000350: a832 2ebe 0905 edbd 57ce f8bc 6fa2 3e3e
00000360: 580f e43c eb23 4cbd 910f a33d ac1e 96bd
00000370: a01b ffbd 8cd6 0f3e 1437 b3bd e605 1ebd
00000380: 840b 44be 76e4 033e 644e 153e 8fa4 8f3d
00000390: 3b69 09be c37e 42be 220e 20be 4ef4 123e
000003a0: 523a bd3d 98d5 253e 177a ce3d a281 473d
000003b0: ca04 f7ba 41df 15be d8d7 28be 0054 38be
000003c0: 5358 a13d 5082 c1bd 7aa4 1ebd 10d4 e2bd
000003d0: 73a4 0fbd 37b4 0abe 95c4 00be 61bd 823d
000003e0: cd45 6abd 7b51 f33d bee2 7cbd 3390 10be
000003f0: 1f15 0bbd a90e bfbd 912a 71bd d59b 3bbe

_orig_mod.conv_block_1.0.bias f4 [12]
-0.121780306 -0.15432285 -0.1315134 -0.1899247 -0.14850199 -0.04759241 0.12988017 0.032212727
-0.14637859 -0.15438807 0.09573916 -0.14315233
00000000: f467 f9bd cf06 1ebe 73ab 06be 9f7b 42be
00000010: e810 18be 42f0 42bd 4fff 043e 7ef1 033d
00000020: 45e4 15be e817 1ebe e512 c43d 8696 12be

_orig_mod.conv_block_1.2.weight f4 [12, 12, 3, 3]
-0.011847946 0.046159737 -0.044534113 -0.0104923695 -0.008375859 -0.022765243 -0.048789192 -0.0857787
-0.07778419 -0.05152482 0.092937775 -0.04647811 -0.06461781 0.023324395 0.026520615 0.05272264
0.07314262 0.053585242 -0.095407225 0.008534065 0.058288615 -0.008893644 -0.056703415 0.09173517
-0.035990845 -0.054785203 -0.08675218 0.0042982106 0.042640503 0.02130065 0.019028477 -0.07297587
-0.089863345 0.0016944612 0.08774128 0.055514283 -0.05602552 -0.012490833 -0.070935525 -0.046421215
0.017426196 0.052398242 0.07970987 -0.0883448 0.06433753 -0.067866765 0.036033127 0.08142999
0.0013512284 0.08754641 -0.08198869 -0.036754042 0.056123536 -0.020964343 -0.01969729 -0.040105797
0.06632852 0.04719869 0.030835323 -0.05407498 -0.07811064 0.01040776 0.028509444 -0.044428248
-0.026923545 0.06498729 0.0076652584 0.0043415134 -0.023681035 -0.08714041 -0.09047631 -0.04599702
-0.04891325 0.029979259 -0.028012145 -0.037645366 0.09174383 0.033517383 0.06859906 -0.04658377
-0.039304737 0.0353666 -0.06411236 -0.062902704 -0.004647638 -0.03519534 -0.07213587 0.05707675
0.077380605 0.015609948 -0.016754057 -0.08913066 -0.03504889 0.024497513 0.045373082 -0.012164531
-0.038042843 0.0536191 -0.0766336 0.060815956 -0.03733097 0.0014727628 -0.019015595 0.011666223
-0.029079055 0.06996782 -0.002501578 0.07511322 0.09251851 -0.046879973 -0.070197046 0.077201545
0.07540329 -0.07347237 -0.0074385125 -0.09489005 -0.078769736 0.01858515 0.025599191 0.020397887
-0.02618906 0.08877508 0.01375806 -0.056780934 -0.0054476657 0.023107983 0.033697307 -0.06803889
0.036064144 -0.049159613 -0.07995728 -0.052558836 0.092800334 0.08225873 0.08616803 0.05648518
0.07269317 -0.012879698 -0.052945703 0.048079476 -0.049862158 -0.064939 -0.030727932 0.020193717
0.04953633 -0.037374675 -0.05663482 0.01298009 -0.056718238 -0.062648416 0.05015749 -0.016164327
0.087929 0.093606055 0.028781442 0.03311659 0.022159062 0.0015069691 -0.0069986833 0.0013225281
0.035932817 0.08946724 -0.024937594 -0.040675845 -0.023302324 -0.046488654 0.016361982 0.07182703
0.07524581 0.044179372 -0.07081504 -0.05164444 -0.021141741 -0.017736599 0.007914292 -0.08833185
0.029949538 -0.073407404 -0.060885884 -0.07999982 0.08384278 -0.09111933 0.07258897 -0.0032347878
-0.011190857 0.0601867 -0.008893851 0.060347933 0.06957214 -0.083543554 0.037025858 0.018165268
0.020689512 0.014048033 0.026320528 -0.046290677 -0.012311141 0.09142534 0.06464875 -0.003615026
-0.09050263 0.0042173294 -0.06552671 0.078249395 -0.05841701 -0.006947603 -0.021356443 0.017123617
0.09055043 0.009143229 0.055730086 0.07469196 0.07768355 -0.03323146 -0.02152137 0.046374485
-0.026256705 0.045058724 -0.021022066 -0.065264866 0.039167766 0.014753036 0.042901777 0.09559824
0.06569601 0.09121953 0.005150236 -0.08277399 -0.06750449 -0.059772473 -0.084798165 -0.048232567
-0.088581674 -0.0887787 -0.057499714 -0.09486191 -0.05906413 0.036691446 0.08025677 -0.028623374
-0.027989823 0.05137968 -0.047474638 -0.045498334 0.05928709 -0.08384104 0.0117658945 0.08500347
0.016501296 0.026167804 -0.056040615 -0.0013275754 0.0052908813 0.023616925 0.037387855 0.08361262
00000000: e31d 42bc fe11 3d3d 6769 36bd 30e8 2bbc
00000010: e63a 09bc 2d7e babc 2dd7 47bd beac afbd
00000020: 514d 9fbd b10b 53bd 2956 be3d d55f 3ebd
00000030: 5856 84bd cd12 bf3c c341 d93c b2f3 573d
00000040: cccb 953d 337c 5b3d dd64 c3bd 77d2 0b3c
00000050: 0bc0 6e3d a6b6 11bc d741 68bd a6df bb3d
00000060: 236b 13bd 7366 60bd 20ab b1bd 01d8 8c3b
00000070: cfa7 2e3d b37e ae3c 9ce1 9b3c 5f74 95bd
00000080: 460a b8bd af18 de3a b3b1 b33d f262 633d
00000090: 047b 65bd 5aa6 4cbc a546 91bd 2c24 3ebd
000000a0: 62c1 8e3c 8a9f 563d ee3e a33d 1eee b4bd
000000b0: 65c3 833d bbfd 8abd 7997 133d c4c4 a63d
000000c0: b41b b13a 884b b33d b0e9 a7bd 688b 16bd
000000d0: cbe1 653d 6abd abbc 365c a1bc fa45 24bd
000000e0: 3fd7 873d 6a53 413d 5c9a fc3c ba7d 5dbd
000000f0: 79f8 9fbd 4f85 2a3c a38c e93c 65fa 35bd
00000100: c48e dcbc 0e18 853d d92c fb3b 4143 8e3b
00000110: bbfe c1bc ac76 b2bd a54b b9bd 5f67 3cbd
00000120: 4359 48bd 1097 f53c ba79 e5bc 0732 1abd
00000130: 30e4 bb3d 8649 093d aa7d 8c3d a0ce 3ebd
00000140: 01fe 20bd 91dc 103d 574d 83bd 22d3 80bd
00000150: 374b 98bb fd28 10bd f9bb 93bd 4fc9 693d
00000160: b979 9e3d dec0 7f3c ce3f 89bc 238a b6bd
00000170: 6d8f 0fbd 02af c83c 20d9 393d be4d 47bc
00000180: d0d2 1bbd b49f 5b3d 14f2 9cbd 271a 793d
00000190: 5ce8 18bd b809 c13a 98c6 9bbc b023 3f3c
000001a0: 3337 eebc 4a4b 8f3d 84f1 23bb f6d4 993d
000001b0: 587a bd3d 3705 40bd 78c3 8fbd d81b 9e3d
000001c0: 0a6d 9a3d af78 96bd c4be f3bb b755 c2bd
000001d0: 0752 a1bd e23f 983c 65b5 d13c 7819 a73c
000001e0: 718a d6bc b6cf b53d 7c69 613c 2093 68bd
000001f0: 5582 b2bb f44c bd3c 3006 0a3d f957 8bbd
00000200: ffb7 133d 975b 49bd a4c0 a3bd ef47 57bd
00000210: 1a0e be3d 4477 a83d dd78 b03d 015d 673d
00000220: 28e0 943d 5e05 53bc 98dd 58bd fcee 443d
00000230: 433c 4cbd bdfe 84bd 25b9 fbbc 4b6d a53c
00000240: 9be6 4a3d 3016 19bd eaf9 67bd 72aa 543c
00000250: 6251 68bd d04d 80bd f171 4d3d 0d6b 84bc
00000260: 1f14 b43d 88b4 bf3d 0fc7 eb3c 43a5 073d
00000270: ec86 b53c 7e85 c53a 3655 e5bb ae58 ad3a
00000280: 4a2e 133d 9a3a b73d ed49 ccbc b79b 26bd
00000290: 84e4 bebc e36a 3ebd 9009 863c 0d1a 933d
000002a0: 7a1a 9a3d 6ef5 343d 7a07 91bd 1f89 53bd
000002b0: 7231 adbc 584c 91bc f2aa 013c 54e7 b4bd
000002c0: bc58 f53c 9f56 96bd 7a63 79bd f2d6 a3bd
000002d0: c3b5 ab3d c59c babd 87a9 943d bcfe 53bb
000002e0: db59 37bc 5486 763d 84b7 11bc 652f 773d
000002f0: d77b 8e3d e218 abbd 6da8 173d 54cf 943c
00000300: 0d7d a93c b929 663c 269e d73c 4b9b 3dbd
00000310: abb4 49bc 353d bb3d 9066 843d 12ea 6cbb
00000320: 7159 b9bd 8631 8a3b de32 86bd 3841 a03d
00000330: ad46 6fbd b8a8 e3bb b5f3 aebc d446 8c3c
00000340: 8172 b93d 7bcd 153c 3b45 643d 19f8 983d
00000350: 8e18 9f3d b61d 08bd 964d b0bc 2cf3 3d3d
00000360: 4d18 d7bc 7f8f 383d 7836 acbc 96a9 85bd
00000370: 616e 203d b8b6 713c c6b9 2f3d 03c9 c33d
00000380: a18b 863d 4ed1 ba3d 50c3 a83b 6985 a9bd
00000390: cb3f 8abd fbd3 74bd a9aa adbd 838f 45bd
000003a0: 4f6a b5bd 9bd1 b5bd d284 6bbd f646 c2bd
000003b0: 3bed 71bd c549 163d a95d a43d 917b eabc
000003c0: ea4a e5bc 8073 523d c474 42bd 765c 3abd
000003d0: 05d7 723d dab4 abbd bdc5 403c 4d16 ae3d
000003e0: ba2d 873c dd5d d63c d88a 65bd 0a02 aeba
000003f0: 215f ad3b 4878 c13c 0224 193d 183d ab3d

_orig_mod.conv_block_1.2.bias f4 [12]
-0.025690008 0.023279702 -0.06837893 -0.076545194 -0.092572615 0.005371556 0.059754588 0.024716355
0.0058663543 0.033527296 -0.060468215 0.010144617
00000000: da73 d2bc 13b5 be3c 410a 8cbd bac3 9cbd
00000010: b696 bdbd e103 b03b 3ac1 743d f479 ca3c
00000020: 8c3a c03b eb53 093d 85ad 77bd 9c35 263c

_orig_mod.conv_block_2.0.weight f4 [12, 12, 3, 3]
-0.02390457 -0.04764522 0.08298189 -0.07444476 0.014101614 -0.08455415 -0.0032646006 -0.04275876
0.031672228 -0.054034017 0.061587837 -0.07808344 0.05779619 -0.07228228 0.05153673 -0.040517133
-0.0002241647 -0.017561404 0.06245295 0.0315356 -0.08479393 0.0088469805 -0.066382036 0.071934134
0.015809748 -0.024747236 -0.04909107 0.033306275 -0.0576289 0.045635905 0.052507628 0.05906326
0.025137626 -0.084232405 0.06921632 -0.029851267 -0.02844757 -0.010338315 0.070353486 0.07399
0.0148583045 0.04591396 -0.08968145 0.00022730774 -0.08512872 0.032750152 -0.06855548 -0.034295056
0.06726431 0.091961876 -0.057771634 -0.05340595 0.011917092 0.03782657 -0.015672395 -0.03005015
-0.06320481 0.041076135 0.09427763 -0.046580534 0.045385864 0.046995796 0.0773454 -0.010955588
0.0030308808 0.070696436 0.06082519 0.09504216 -0.027575219 0.038074963 0.06719165 -0.0653191
0.019115955 -0.021530617 0.061855797 -0.043217286 0.0067490875 0.057572477 -0.08815339 -0.08124878
-0.04928493 0.061720394 0.064521566 -0.06571882 0.018348893 -0.050987814 -0.044663113 0.08298616
0.04647757 -0.026315907 0.014164475 0.01864427 0.022539852 -0.032935787 -0.05666554 0.06370712
0.012930009 0.04027496 -0.036443282 0.046608478 0.07002929 0.05852152 0.026163183 0.09467418
-0.00021044549 0.020486029 0.09142629 0.093520835 -0.04062815 0.08667984 0.03551282 -0.010771205
0.08401852 -0.049847383 0.06252208 0.09535365 -0.06636662 -0.056781717 -0.09535076 -0.017316889
-0.087391935 -0.03222788 0.02921346 0.06801934 0.05360074 0.053412683 0.03992029 -0.059681978
-0.076402195 0.003988886 0.09137365 0.005418025 -0.008276302 -0.065311536 -0.04771206 -0.07417639
0.07704435 -0.015677914 -0.085006036 0.010322508 0.0069828765 -0.011888472 0.034445096 0.05174783
-0.09049101 -0.07371721 -0.004622643 -0.08921387 -0.08740696 0.0849581 -0.007318825 -0.047572736
-0.033006813 -0.07512506 0.07509073 -0.020865327 -0.054101374 -0.07297831 0.05624258 -0.013301322
-0.010109138 -0.025079444 -0.04645003 0.017117502 0.07403271 -0.05577013 0.0046104034 -0.07318043
-0.045119647 0.084463455 0.0010089247 0.09269542 -0.016859028 -0.0524469 -0.057493336 0.08528566
-0.07399581 0.05049836 0.023919838 0.028396709 0.054294016 -0.025174676 0.05954055 -0.076664664
-0.03385595 0.07044071 0.028557645 -0.012814531 -0.022471497 -0.05875641 0.058513653 -0.003059971
-0.0032556648 0.022756595 0.07100911 -0.049092416 -0.033139657 0.065205075 0.054345258 -0.04733661
-0.0951916 0.017850839 0.05060418 0.02298404 0.06825381 -0.07635208 0.04852495 -0.05982112
0.054156102 0.071563944 0.030476019 0.07785323 -0.06342689 -0.08606135 -0.09252088 0.06041311
0.03370859 -0.070462406 0.046599943 0.08779691 -0.094885945 0.06980368 0.014758313 0.008950942
0.08658264 0.087140456 0.04054454 0.07603077 0.04003197 0.015679061 -0.08458288 0.017973175
-0.06845895 0.02962444 0.016977362 0.0021617636 -0.06579163 -0.058331355 0.071123555 0.046863433
0.050733674 -0.028672837 -0.016569594 -0.024660332 0.06617332 -0.04153918 0.06060877 0.06634657
-0.088003196 0.0005876093 -0.0183264 -0.053195357 0.04154204 -0.0116908625 0.084245816 -0.060227636
00000000: 84d3 c3bc a227 43bd 69f2 a93d 7f76 98bd
00000010: 750a 673c ba2a adbd e9f2 55bb cf23 2fbd
00000020: bdba 013d c652 5dbd 8743 7c3d 36ea 9fbd
00000030: b3bb 6c3d bb08 94bd 2e18 533d 4bf5 25bd
00000040: c10d 6bb9 efdc 8fbc aace 7f3d 792b 013d
00000050: 71a8 adbd edf2 103c 4ef3 87bd 3452 933d
00000060: 7283 813c b7ba cabc b813 49bd 296c 083d
00000070: 480c 6cbd b7ec 3a3d 3d12 573d 51ec 713d
00000080: 6ced cd3c 0a82 acbd 49c1 8d3d a58a f4bc
00000090: e10a e9bc 0962 29bc 7d15 903d 1288 973d
000000a0: 3f70 733c 4710 3c3d e8aa b7bd 7559 6e39
000000b0: f757 aebd 0625 063d d166 8cbd f978 0cbd
000000c0: dfc1 893d 8256 bc3d f3a1 6cbd 33c0 5abd
000000d0: e83f 433c 09f0 1a3d 6563 80bc bb2b f6bc
000000e0: 8671 81bd 733f 283d a114 c13d 3bcb 3ebd
000000f0: 87e6 393d aa7e 403d 4467 9e3d 117f 33bc
00000100: bea1 463b 4bc9 903d d623 793d 77a5 c23d
00000110: 6de5 e1bc 7ef4 1b3d c79b 893d 05c6 85bd
00000120: 1099 9c3c fa60 b0bc 815c 7d3d 9c04 31bd
00000130: 7327 dd3b 1ed1 6b3d c489 b4bd c365 a6bd
00000140: ffde 49bd 86ce 7c3d e223 843d 9797 86bd
00000150: 6b50 963c 99d8 50bd abf0 36bd a6f4 a93d
00000160: 445f 3e3d 7594 d7bc 1d12 683c debb 983c
00000170: 7fa5 b83c ade7 06bd 201a 68bd e178 823d
00000180: 63d8 533c 5bf7 243d 8d45 15bd 88e8 3e3d
00000190: 846b 8f3d 43b4 6f3d 2c54 d63c 89e4 c13d
000001a0: 08ab 5cb9 51d2 a73c b53d bb3d da87 bf3d
000001b0: b469 26bd 3385 b13d e475 113d b579 30bc
000001c0: e711 ac3d c52c 4cbd 940b 803d c648 c33d
000001d0: 39eb 87bd f293 68bd 4247 c3bd 26dc 8dbc
000001e0: 8bfa b2bd 6201 04bd 1151 ef3c b94d 8b3d
000001f0: 738c 5b3d 42c7 5a3d 7583 233d 1775 74bd
00000200: c178 9cbd 33b5 823b 1c22 bb3d b089 b13b
00000210: 5499 07bc 0ec2 85bd b96d 43bd cbe9 97bd
00000220: 6ec9 9d3d f86e 80bc a517 aebd bd1f 293c
00000230: 9dd0 e43b dec7 42bc 4d16 0d3d 88f5 533d
00000240: 5a53 b9bd 0cf9 96bd 8a79 97bb c3b5 b6bd
00000250: 6c02 b3bd 83fe ad3d c1d2 efbb a1db 42bd
00000260: 2732 07bd 2bdb 99bd 2bc9 993d c3ed aabc
00000270: 6799 5dbd a775 95bd 9f5e 663d caed 59bc
00000280: cca0 25bc 6873 cdbc 6342 3ebd 013a 8c3c
00000290: 769e 973d 386f 64bd de12 973b 9fdf 95bd
000002a0: 61cf 38bd 2dfb ac3d e53d 843a 19d7 bd3d
000002b0: f21b 8abc 90d2 56bd 227e 6bbd 40aa ae3d
000002c0: 1d8b 97bd 5ed7 4e3d 89f3 c33c 37a0 e83c
000002d0: 6763 5e3d 1f3b cebc cbe0 733d 5d02 9dbd
000002e0: 89ac 0abd 3843 903d b9f1 e93c 0af4 51bc
000002f0: 2516 b8bc 90aa 70bd 03ac 6f3d cb89 48bb
00000300: fe5c 55bb 0a6c ba3c 396d 913d 2115 49bd
00000310: 73bd 07bd 3d8a 853d 2299 5e3d 08e4 41bd
00000320: d0f3 c2bd ec3b 923c 5446 4f3d 0749 bc3c
00000330: a7c8 8b3d 7b5e 9cbd 19c2 463d fe06 75bd
00000340: cad2 5d3d 1e90 923d d8a8 f93c 8471 9f3d
00000350: f5e5 81bd ef40 b0bd 967b bdbd bd73 773d
00000360: 0512 0a3d 984e 90bd 95df 3e3d dece b33d
00000370: 9053 c2bd 3bf5 8e3d dacc 713c f9a6 123c
00000380: 3d52 b13d b276 b23d 0812 263d 05b6 9b3d
00000390: 90f8 233d 6071 803c ca39 adbd 7b3c 933c
000003a0: 3534 8cbd f4ae f23c 1c14 8b3c 60ac 0d3b
000003b0: c3bd 86bd dcec 6ebd 3aa9 913d dff3 3f3d
000003c0: 1dce 4f3d 4ce3 eabc f5bc 87bc 7704 cabc
000003d0: e185 873d fd24 2abd e740 783d b6e0 873d
000003e0: 053b b4bd cb09 1a3a 3f21 96bc 60e3 59bd
000003f0: fc27 2a3d 088b 3fbc 1289 ac3d 41b1 76bd

_orig_mod.conv_block_2.0.bias f4 [12]
-0.06617147 0.07765608 -0.08795011 0.08315088 0.076976694 0.00596232 -0.0077129086 0.074836336
0.04243301 0.09098186 0.07773178 -0.063100494
00000000: e884 87bd 270a 9f3d 301f b4bd 024b aa3d
00000010: f5a5 9d3d 915f c33b 91bc fcbb cb43 993d
00000020: 3cce 2d3d b354 ba3d d731 9f3d d53a 81bd

_orig_mod.conv_block_2.2.weight f4 [12, 12, 3, 3]
0.059382346 0.04852916 -0.06832097 0.04621418 -0.049980447 -0.057330117 0.001795176 -0.01182427
-0.02587314 -0.06310511 0.052638754 0.0959431 -0.02132172 -0.06483393 -0.004961769 -0.083601296
-0.07814011 -0.032054704 0.06045866 -0.07371937 -0.015355913 -0.049966797 -0.08860299 -0.021661295
-0.0056052073 -0.016179364 0.07035354 0.038544126 0.059909217 0.037690308 0.010095694 0.052227028
-0.061386727 0.049029887 0.04583331 -0.040838562 -0.0033025006 -0.072791986 -0.08420154 -0.000106301006
0.017229607 -0.020756295 0.029728735 -0.07428595 -0.05289321 0.0664141 -0.093643524 0.015109392
0.07408102 0.0721387 0.03282414 -0.08765146 0.012387721 -0.03383834 -0.027049793 0.0737269
-0.032701354 -0.068913564 -0.07724351 0.060754932 0.004643107 0.0950381 0.01967835 -0.08967392
0.023806814 0.08805016 0.05968162 0.028876135 -0.072294265 -0.05769986 0.06533819 -0.064341635
0.02195215 -0.012328646 0.032243147 0.006296204 -0.07329176 -0.03835607 0.08392664 0.011327201
0.048791394 -0.048545804 0.07617566 -0.020598307 -0.03243398 0.019519685 -0.034478717 -0.038667988
-0.013769347 -0.0054935263 -0.05472835 0.032891028 -0.09325962 0.05906902 0.08924523 0.0155675635
-0.022483781 -0.0881326 0.045187518 0.078844905 0.08226524 0.008580397 0.03199113 0.09220375
0.014362486 -0.046454526 -0.09135878 0.042070642 0.037483834 0.085513696 -0.04898868 0.04133088
-0.03183647 -0.023915295 0.056146022 -0.08820738 0.07093106 0.044754125 -0.057188407 0.049103208
-0.024203708 0.008659971 -0.025755448 -0.094215214 -0.009965831 0.046950083 -0.01119548 -0.047382444
0.0030489473 0.017559843 -0.026848294 -0.07462099 -0.0515904 -0.015687859 0.03465476 0.08557039
0.0017858271 0.03445262 0.055365115 -0.041959096 -0.031929098 0.063826635 0.068895996 0.022801377
-0.07436103 0.05461603 -0.079529524 0.04809543 0.011404044 0.031082109 -0.09379516 -0.033830345
0.040866446 0.07406309 -0.027548319 0.08580866 -0.02147347 -0.05803779 -0.04166963 0.005987797
-0.017102394 0.046573296 -0.053253043 -0.027373193 -0.09536028 0.078543045 -0.018105986 -0.07585537
-0.0046432563 -0.00017564272 0.02672441 -0.010561757 0.060531627 -0.033199925 -0.028801173 -0.022850541
0.017179055 0.07709746 -0.0044276486 0.074038334 0.07558924 -0.050099563 -0.008267676 -0.0454239
0.04002712 -0.03382975 0.02935344 0.0057489267 -0.063168414 -0.064691536 -0.09398539 -0.053826507
0.026880883 0.005862592 0.07237105 -0.08461207 -0.0028118663 -0.086280175 0.000563268 0.03505831
-0.08631804 0.08498139 -0.029886631 0.08525887 -0.016151479 0.054589897 0.08747593 -0.03503299
-0.023391029 0.05047287 -0.08238124 0.0569583 -0.060440227 0.0893703 -0.06306256 -0.039597705
0.07180173 -0.041895114 0.08247942 0.06620471 0.087950796 -0.09326921 0.0010784729 -0.031649724
0.022921156 -0.07265483 0.039457463 -0.004558543 -0.04548449 -0.0865644 0.05033226 -0.034824345
0.07100218 0.017129444 0.029265918 -0.014593911 -0.013329472 -0.032688577 -0.08332135 0.060496334
-0.060596853 0.05608357 -0.032455027 0.06028201 0.082467 -0.058851827 0.07945548 0.002345241
-0.0735093 0.03928019 0.054486398 0.084823504 -0.09159857 0.08688759 0.072948895 0.0946625
00000000: e73a 733d 83c6 463d ddeb 8bbd 144b 3d3d
00000010: 4cb8 4cbd fcd2 6abd 1c4c eb3a 95ba 41bc
00000020: e8f3 d3bc 403d 81bd bc9b 573d d17d c43d
00000030: e3aa aebc a7c7 84bd 5696 a2bb 2837 abbd
00000040: ec07 a0bd cb4b 03bd 80a3 773d 2efa 96bd
00000050: 5e97 7bbc fca9 4cbd 7c75 b5bd 0773 b1bc
00000060: e3ab b7bb 968a 84bc 8415 903d 72e0 1d3d
00000070: 5e63 753d 2761 1a3d 6968 253c 02ec 553d
00000080: a670 7bbd 90d3 483d b5bb 3b3d 5646 27bd
00000090: c46e 58bb f713 95bd db71 acbd ebed deb8
000000a0: 1b25 8d3c 1b09 aabc ad89 f33c 3b23 98bd
000000b0: 8da6 58bd 1e04 883d 2dc8 bfbd 628d 773c
000000c0: cab7 973d 74bd 933d 9b72 063d 9c82 b3bd
000000d0: def5 4a3c 129a 0abd 8797 ddbc 21fe 963d
000000e0: dbf1 05bd 8e22 8dbd d831 9ebd 2ada 783d
000000f0: 3425 983b 56a3 c23d 7e34 a13c f6a6 b7bd
00000100: 8206 c33c a453 b43d b774 743d a58d ec3c
00000110: 040f 94bd b056 6cbd 07d0 853d 8cc5 83bd
00000120: ffd4 b33c 17fe 49bc 6411 043d 6350 ce3b
00000130: fe19 96bd 411b 1dbd bbe1 ab3d b995 393c
00000140: 7cd9 473d f7d7 46bd fc01 9c3d c8bd a8bc
00000150: 7ed9 04bd bfe7 9f3c 8e39 0dbd 5362 1ebd
00000160: d498 61bc 0a03 b4bb d62a 60bd beb8 063d
00000170: e6fe bebd 5bf2 713d 34c6 b63d 180f 7f3c
00000180: e82f b8bc dd7e b4bd 8c16 393d 7079 a13d
00000190: ae7a a83d cb94 0c3c 2209 033d 52d5 bc3d
000001a0: a250 6b3c 1a47 3ebd 501a bbbd 4452 2c3d
000001b0: a688 193d ce21 af3d 5ba8 48bd 924a 293d
000001c0: f566 02bd 02ea c3bc 5ff9 653d 12a6 b4bd
000001d0: 4e44 913d 1a50 373d 643e 6abd 7220 493d
000001e0: db46 c6bc 8de2 0d3c 17fd d2bc e8f3 c0bd
000001f0: ba47 23bc bb4e 403d 3f6d 37bc 1814 42bd
00000200: d9d0 473b a9d9 8f3c f4f0 dbbc e4d2 98bd
00000210: 7550 53bd d383 80bc 26f2 0d3d 873f af3d
00000220: 6a12 ea3a 311e 0d3d 88c6 623d 4ddd 2bbd
00000230: 16c8 02bd 8ab7 823d 5819 8d3d f4c9 ba3c
00000240: 984a 98bd 0fb5 5f3d 60e0 a2bd b7ff 443d
00000250: 07d8 3a3c e89f fe3c ad17 c0bd b091 0abd
00000260: 9363 273d 64ae 973d 03ad e1bc 73bc af3d
00000270: 21e9 afbc 09b9 6dbd c6ad 2abd 4835 c43b
00000280: 521a 8cbc a4c3 3e3d dd1f 5abd bf3d e0bc
00000290: 404c c3bd 2ddb a03d 0153 94bc 0f5a 9bbd
000002a0: 7526 98bb bc2c 38b9 26ed da3c 380b 2dbc
000002b0: 03f0 773d a5fc 07bd 70f0 ebbc 0f31 bbbc
000002c0: 17bb 8c3c 46e5 9d3d cf15 91bb 69a1 973d
000002d0: 88ce 9a3d 3335 4dbd 2675 07bc 690e 3abd
000002e0: 7af3 233d 1091 0abd a076 f03c 7e61 bc3b
000002f0: 715e 81bd ff7c 84bd 6a7b c0bd 2f79 5cbd
00000300: 4c35 dc3c fc1a c03b 4637 943d 1849 adbd
00000310: 4a47 38bb a9b3 b0bd 47a8 133a 4d99 0f3d
00000320: 83c7 b0bd b90a ae3d cfd4 f4bc 349c ae3d
00000330: 1b50 84bc a899 5f3d 9526 b33d c17e 0fbd
00000340: 8b9e bfbc a4bc 4e3d 7fb7 a8bd 1b4d 693d
00000350: 2c90 77bd c707 b73d f226 81bd 3431 22bd
00000360: c90c 933d 369a 2bbd f8ea a83d 5696 873d
00000370: 8c1f b43d ed03 bfbd 8c5b 8d3a 24a3 01bd
00000380: 26c5 bb3c 0ecc 94bd 269e 213d d55f 95bb
00000390: f24d 3abd ad48 b1bd 3329 4e3d f9a3 0ebd
000003a0: 9769 913d 0c53 8c3c 14bf ef3c 4d1b 6fbc
000003b0: dc63 5abc 75e4 05bd 62a4 aabd 01cb 773d
000003c0: 6834 78bd e3b7 653d 90ef 04bd 45ea 763d
000003d0: 75e4 a83d 9d0e 71bd 8eb9 a23d 9db2 193b
000003e0: 0b8c 96bd 44e4 203d 212d 5f3d f2b7 ad3d
000003f0: 0898 bbbd 1ff2 b13d 3b66 953d 6ade c13d

_orig_mod.conv_block_2.2.bias f4 [12]
0.08318516 -0.030199673 0.09382317 0.028386544 -0.0046484293 0.036732282 -0.0029923155 -0.047726057
0.052635975 0.062413465 -0.01205495 0.09051117
00000000: fb5c aa3d 4e65 f7bc 5d26 c03d e68a e83c
00000010: da51 98bb 9774 163d b91a 44bb 667c 43bd
00000020: d298 573d 43a5 7f3d 2082 45bc ec5d b93d

_orig_mod.conv_block_3.0.weight f4 [12, 12, 3, 3]
0.006110857 -0.05088905 -0.05243777 0.06474301 -0.03897956 0.060776442 -0.09347239 0.0033146713
-0.06648628 0.03413327 0.078146525 0.0378657 -0.033084735 -0.090269744 -0.045591444 -0.056755148
0.091886975 -0.051736657 0.037205745 0.07724618 0.034690846 -0.08443802 -0.010930765 -0.028559411
0.061998967 -0.009026295 -0.0050753425 0.08559903 0.022897905 0.044605553 -0.030975726 0.06292867
0.01383534 -0.01932905 0.018543843 -0.07574304 0.0035381936 0.04413006 -0.090103775 -0.051112823
0.06028706 0.0021821933 -0.0032776431 0.009819646 -0.04318769 0.07957068 -0.009540971 -0.03503649
0.050651874 -0.08009271 -0.017749045 0.009698364 -0.029862715 0.052370906 -0.082176104 -0.027741065
-0.040443182 0.08904023 0.038401987 -0.07178031 0.037293427 -0.0020406537 0.08808692 0.053103186
-0.056198087 0.08577403 -0.017210372 -0.02191135 0.028773952 0.09560063 0.029033883 -0.09284404
-0.030717447 0.08960348 -0.033914793 -0.046293374 -0.07669972 -0.053117502 -0.05261058 0.022981139
0.038444363 0.09183479 0.06314947 0.0014218205 0.051893774 0.055001006 -0.0829965 0.048554692
-0.06582441 0.0743066 -0.04185244 0.019965526 -0.0010238714 0.04464297 0.014966865 -0.06980117
0.03897987 0.0567628 -0.050110575 -0.06242183 -0.06552293 -0.04681881 -0.012131667 0.00719479
-0.0006786884 -0.025450483 0.05971325 0.005085242 -0.055873323 -0.025465958 -0.056574058 -0.033946913
-0.09076954 0.016813431 -0.074558705 0.037216526 0.06591798 -0.07158447 -0.050780978 -0.076030925
0.025679637 0.018619068 -0.049666326 0.0581277 0.039928276 -0.08694303 -0.0052341577 -0.041423853
-0.016684474 0.053578567 -0.010349993 -0.06682961 0.067688026 -0.08795409 -0.033046857 0.03707681
0.08505227 0.0933905 -0.022605212 0.032109972 -0.08450786 -0.018723499 -0.029931426 0.02731577
-0.06304689 0.02078916 0.04971322 0.07499273 -0.016270455 0.08791181 -0.090913996 -0.027267694
0.036480345 0.024674647 0.045315992 -0.06385255 0.05924888 -0.090309575 -0.06597942 -0.006544091
-0.0934833 -0.09146468 -0.0854221 0.07736386 0.021107445 -0.03070265 -0.003954737 -0.08387154
-0.090879805 -0.06710534 -0.09309181 0.06330767 -0.033672128 -0.025975391 -0.08286378 0.015936892
-0.014437047 -0.06550883 0.06169571 0.081109025 -0.06858723 0.054519214 -0.0156247225 -0.0009084624
0.040958054 -0.017543532 0.08175697 0.059203982 -0.062462747 -0.058558952 -0.095339775 0.030807987
-0.07237921 -0.08065381 -0.06167709 -0.09513499 -0.078350574 0.08582936 0.053749908 0.085257895
-0.04667695 -0.039466847 -0.033762276 0.0018793266 -0.069067016 0.014106788 -0.06167052 0.015205495
0.0881419 0.01625232 0.070190795 -0.068532355 -0.0135796415 -0.059416898 -0.01067587 -0.03827802
-0.05463546 -0.09294768 -0.03567956 0.012886304 -0.016927958 -0.08961873 0.07228217 0.07134961
-0.0580142 0.009781781 0.063894294 -0.09137995 -0.08502446 0.053391945 -0.0019058473 0.030641716
-0.04001566 0.017446615 0.06382038 -0.023541218 -0.031081213 -0.09162444 -0.014848325 0.060974497
-0.09093929 -0.007433064 0.07014178 -0.027464041 -0.035552107 -0.029024523 -0.03898626 0.011516814
-0.092645854 0.036771167 -0.024302198 -0.012251229 -0.006492219 0.05375463 -0.05977159 -0.08756323
00000000: 953d c83b 0971 50bd fdc8 56bd fc97 843d
00000010: 08a9 1fbd b8f0 783d 746e bfbd f53a 593b
00000020: f529 88bd 54cf 0b3d 490b a03d 1019 1b3d
00000030: dc83 07bd 58df b8bd 18be 3abd 1678 68bd
00000040: 3d2f bc3d d1e9 53bd 0d65 183d 3f33 9e3d
00000050: fd17 0e3d d7ed acbd f416 33bc 6df5 e9bc
00000060: a1f2 7d3d 06e3 13bc 0f4f a6bb 8b4e af3d
00000070: 6394 bb3c 50b4 363d cec0 fdbc bfe0 803d
00000080: 9fad 623c f557 9ebc 42e9 973c 2b1f 9bbd
00000090: 0ae1 673b b9c1 343d 5488 b8bd ae5b 51bd
000000a0: 90ef 763d 2103 0f3b bacd 56bb 95e2 203c
000000b0: 93e5 30bd f4f5 a23d bc51 1cbc 6c82 0fbd
000000c0: 5778 4f3d a607 a4bd 7266 91bc e3e5 1e3c
000000d0: a7a2 f4bc e082 563d f24b a8bd 3b41 e3bc
000000e0: c0a7 25bd b95a b63d 674b 1d3d 8e01 93bd
000000f0: fec0 183d 7dbc 05bb ea66 b43d ba82 593d
00000100: f72f 66bd 4baa af3d c4fc 8cbc 6e7f b3bc
00000110: 5ab7 eb3c 43ca c33d 77d8 ed3c 0425 bebd
00000120: 28a3 fbbc 0882 b73d 3dea 0abd 1f9e 3dbd
00000130: be14 9dbd bd91 59bd 317e 57bd f142 bc3c
00000140: d677 1d3d e113 bc3d 8254 813d 615c ba3a
00000150: 918e 543d bc48 613d 12fa a9bd 49e1 463d
00000160: f3ce 86bd 0f2e 983d 776d 2bbd be8e a33c
00000170: 6c33 86ba 8cdb 363d 9537 753c eaf3 8ebd
00000180: 5ba9 1f3d 1c80 683d bf40 4dbd 08ae 7fbd
00000190: e330 86bd 15c5 3fbd e6c3 46bc 46c2 eb3b
000001a0: 02ea 31ba 887d d0bc e195 743d 1aa2 a63b
000001b0: 6ddb 64bd fc9d d0bc 33ba 67bd eb0b 0bbd
000001c0: 61e5 b9bd 52bc 893c 3cb2 98bd 5b70 183d
000001d0: 0200 873d e19a 92bd b7ff 4fbd 1ab6 9bbd
000001e0: 1a5e d23c 0487 983c eb6e 4bbd 5017 6e3d
000001f0: d58b 233d 300f b2bd 4c83 abbb 0fac 29bd
00000200: e1ad 88bc 3375 5b3d 0493 29bc f6dd 88bd
00000210: 05a0 8a3d 4621 b4bd 245c 07bd dadd 173d
00000220: e22f ae3d 8543 bf3d 912e b9bc bf85 033d
00000230: 7512 adbd 0662 99bc c032 f5bc 52c5 df3c
00000240: ba1e 81bd 074e aa3c 17a0 4b3d ca95 993d
00000250: 9e49 85bc 1b0b b43d 1e31 babd 8060 dfbc
00000260: 6a6c 153d 7c22 ca3c 439d 393d 20c5 82bd
00000270: f4ae 723d 3af4 b8bd 3820 87bd d06f d6bb
00000280: 2c74 bfbd d651 bbbd c8f1 aebd f270 9e3d
00000290: 85e9 ac3c 2084 fbbc bd96 81bb d8c4 abbd
000002a0: 311f babd 866e 89bd eba6 bebd 74a7 813d
000002b0: c9eb 09bd 58ca d4bc 7cb4 a9bd 168e 823c
000002c0: 5d89 6cbc 7e29 86bd a4b4 7c3d 7d1c a63d
000002d0: 7677 8cbd 8a4f 5f3d d6fe 7fbc e125 6eba
000002e0: a2c3 273d 74b7 8fbc 3370 a73d e07f 723d
000002f0: f0d8 7fbd 83db 6fbd 8041 c3bd 0861 fc3c
00000300: 8d3b 94bd d32d a5bd 1ea1 7cbd 22d6 c2bd
00000310: 4476 a0bd 4ec7 af3d dd28 5c3d b19b ae3d
00000320: 5430 3fbd fda7 21bd 504a 0abd bd53 f63a
00000330: 0273 8dbd 2820 673c 3a9a 7cbd 7820 793c
00000340: be83 b43d 9623 853c 31c0 8f3d b15a 8cbd
00000350: 257d 5ebc 225f 73bd d8e9 2ebc 6ac9 1cbd
00000360: 6fc9 5fbd 5a5b bebd bb24 12bd 1421 533c
00000370: 80ac 8abc 068a b7bd ad08 943d bf1f 923d
00000380: 4ca0 6dbd c343 203c 03db 823d 6925 bbbd
00000390: 4e21 aebd 83b1 5a3d a0cd f9ba 5604 fb3c
000003a0: 76e7 23bd 34ec 8e3c 42b4 823d 83d9 c0bc
000003b0: 079e febc 98a5 bbbd 6446 73bc 65c0 793d
000003c0: 613e babd 0f91 f3bb 7ea6 8f3d 45fc e0bc
000003d0: 169f 11bd d6c4 edbc 0eb0 1fbd 05b1 3c3c
000003e0: 1cbd bdbd 5d9d 163d 6715 c7bc 61b9 48bc
000003f0: aebc d4bb d12d 5c3d 0ed3 74bd 5a54 b3bd

_orig_mod.conv_block_3.0.bias f4 [12]
-0.084935874 -0.053627294 0.0099069625 0.058642782 0.056701694 0.025660848 0.09128172 -0.08241498
-0.06056665 0.041420963 -0.0876465 0.09075187
00000000: dcf2 adbd 4ba8 5bbd d050 223c 6a33 703d
00000010: 0940 683d b336 d23c e9f1 ba3d 2fc9 a8bd
00000020: bc14 78bd 07a9 293d 0280 b3bd 1edc b93d

_orig_mod.conv_block_3.2.weight f4 [12, 12, 3, 3]
0.013267471 -0.035463702 0.08586078 0.044864453 0.08092638 0.07249373 -0.016747003 0.087351546
0.012707599 0.009317633 0.033436157 -0.07533229 -0.057535205 0.09105297 -0.062970474 0.05199388
0.05815545 -0.07812032 -0.011028119 -0.0010295839 0.07138867 -0.026331896 0.0869105 -0.080744006
0.040199127 0.05253907 -0.034664694 -0.03164486 -0.06129003 0.025529 0.032246348 -0.03382202
0.07781709 -0.014744123 -0.014993386 0.075153746 0.016859878 0.0515103 0.056717847 -0.062985696
-0.0012188081 0.08498188 -0.05950121 0.012602606 0.071478575 0.010624537 -0.021576203 0.03479645
-0.07959232 0.079057544 0.07559096 -0.026946165 -0.034810133 -0.018822253 0.09574125 -0.03693698
0.028813917 -0.09135532 0.029085778 0.058303323 0.031146104 -0.0045723887 0.007022279 0.083328746
0.041817524 -0.022235103 -0.077288575 0.07012976 -0.035825137 0.05999423 -0.019339006 0.0015970616
-0.07588647 -0.03665818 0.007939448 -0.09299192 -0.01980218 0.055911507 0.067631334 0.07087864
-0.029345054 0.007574558 -0.07721598 0.04984571 0.01703724 0.080542915 -0.014969527 0.092028946
0.04767319 0.0821196 -0.006262296 -0.07550072 -0.07546431 -0.09072952 0.015994087 -0.07441034
-0.031432785 0.04889625 0.08747714 -0.024133472 0.06662153 -0.0072915815 -0.019256163 -0.011387583
-0.0436315 0.026336497 -0.00052088295 -0.046884034 0.061204743 -0.042987432 -0.06517116 0.033404075
-0.0059088655 -0.052970834 -0.07855152 -0.028830033 -0.07367632 0.052336413 -0.011985734 0.049561415
0.046839092 0.0077505903 -0.0148155065 -0.049627602 0.021663165 -0.08367223 -0.046889596 0.07673618
-0.018677007 0.077626966 0.05698195 -0.020284794 -0.07745088 0.07727765 0.008106189 0.09093631
-0.0870271 0.019829378 -0.08290653 -0.011682867 -0.08434242 -0.087581776 0.0048542293 0.09486609
0.0073730713 -0.008914923 0.08969534 0.008808244 -0.053728767 0.06118827 0.06866125 0.083436586
0.07567321 0.08944737 -0.035688188 0.013836039 -0.035112806 -0.012808486 0.07607665 -0.076030366
0.05258354 -0.05559717 0.0005276852 -0.011456741 -0.043342434 0.008205596 -0.048743594 0.087155335
-0.034834683 0.060905397 -0.022920607 -0.075760856 0.07469769 -0.026570067 -0.039862934 0.007213935
-0.0009803621 0.027152905 -0.023346854 -0.02776278 0.052648067 0.04410438 0.085052654 0.010619536
-0.024979647 -0.020500265 -0.019608997 -0.03040973 -0.032839913 -0.027111666 0.0290195 0.038073715
0.073239364 -0.093639605 0.07461904 -0.019386623 -0.09402966 0.06290667 -0.054555416 -0.04336161
0.031935807 0.01576188 0.065593995 -0.06714175 0.0522755 0.0501549 0.059561443 -0.032027747
0.016342195 0.028323375 0.09072826 -0.058473445 -0.08835292 -0.08702588 0.0127442945 -0.07313239
-0.017812882 -0.04498189 0.017431129 -0.06818678 0.059339732 -0.09453028 -0.05271787 0.01985607
-0.094645664 0.023717687 -0.035999335 -0.048598673 0.068977 -0.031070454 0.022747338 -0.037155155
0.045014422 0.08762888 0.09237005 -0.058206473 -0.095651776 -0.06728827 0.02710725 0.038629595
0.050538726 0.04178504 0.09360972 -0.072969824 -0.07543854 -0.030133015 0.07468695 -0.073888436
0.07214425 0.016011063 0.059521727 0.09533475 0.09365852 0.09237668 -0.023613736 -0.04106088
00000000: cf5f 593c 6342 11bd c7d7 af3d cac3 373d
00000010: bbbc a53d 9877 943d 0331 89bc 5ee5 b23d
00000020: 8933 503c fca8 183c 5af4 083d d147 9abd
00000030: 09aa 6bbd fb79 ba3d aaf6 80bd 89f7 543d
00000040: 6934 6e3d 8cfd 9fbd 49af 34bc 1af3 86ba
00000050: 3934 923d fdb5 d7bc 22fe b13d 1d5d a5bd
00000060: d7a7 243d 3533 573d 91fc 0dbd 0a9e 01bd
00000070: 410b 7bbd 3222 d13c bf14 043d f588 0abd
00000080: 915e 9f3d 5691 71bc d2a6 75bc 35ea 993d
00000090: ba1d 8a3c 77fc 523d f950 683d a5fe 80bd
000000a0: 6ac0 9fba fb0a ae3d 8ab7 73bd 297b 4e3c
000000b0: 5c63 923d 8a12 2e3c 94c0 b0bc b986 0e3d
000000c0: 4c01 a3bd ece8 a13d 6fcf 9a3d 34be dcbc
000000d0: 1295 0ebd 2031 9abc fd13 c43d 3b4b 17bd
000000e0: 2a0b ec3c 7f18 bbbd 4c45 ee3c 77cf 6e3d
000000f0: 1d26 ff3c fad3 95bb 251b e63b 43a8 aa3d
00000100: da48 2b3d 6426 b6bc 7949 9ebd 31a0 8f3d
00000110: 61bd 12bd 82bc 753d d66c 9ebc 7f54 d13a
00000120: 5e6a 9bbd e326 16bd 7514 023c 8c72 bebd
00000130: 2e38 a2bc 7703 653d 4c82 8a3d d228 913d
00000140: 0a65 f0bc ff33 f83b 6923 9ebd 042b 4c3d
00000150: af91 8b3c aff3 a43d bf42 75bc ac79 bc3d
00000160: f644 433d 522e a83d f233 cdbb 1fa0 9abd
00000170: 088d 9abd 66d0 b9bd 0806 833c 7364 98bd
00000180: aabf 00bd 6f47 483d 3727 b33d 8fb3 c5bc
00000190: de70 883d 38ee eebb 1abf 9dbc fc92 3abc
000001a0: f2b6 32bd a3bf d73c dd8b 08ba 7909 40bd
000001b0: d3b1 7a3d 9713 30bd 7578 85bd b6d2 083d
000001c0: 289f c1bb f2f7 58bd 9fdf a0bd f62c ecbc
000001d0: 9ce3 96bd b55e 563d d05f 44bc e900 4b3d
000001e0: 59da 3f3d aaf8 fd3b bdbc 72bc 5046 4bbd
000001f0: f376 b13c 595c abbd 4e0f 40bd dc27 9d3d
00000200: 8600 99bc e3fa 9e3d e865 693d 4c2c a6bc
00000210: 919e 9ebd bf43 9e3d d2cf 043c d13c ba3d
00000220: 443b b2bd 3871 a23c e6ca a9bd 7f69 3fbc
00000230: b8bb acbd 135e b3bd 3a10 9f3b 2749 c23d
00000240: ce99 f13b e60f 12bc 31b2 b73d 7450 103c
00000250: b212 5cbd 8da0 7a3d 459e 8c3d cde0 aa3d
00000260: 8efa 9a3d 2f30 b73d c72d 12bd 8eb0 623c
00000270: 72d2 0fbd afda 51bc 13ce 9b3d cfb5 9bbd
00000280: d761 573d dcb9 63bd 5b54 0a3a 0eb5 3bbc
00000290: d687 31bd c470 063c 5da7 47bd 7f7e b23d
000002a0: d0ae 0ebd f077 793d ffc3 bbbc 8228 9bbd
000002b0: 1afb 983d 78a9 d9bc 5147 23bd df62 ec3b
000002c0: 7e7f 80ba c56f de3c e741 bfbc c56e e3bc
000002d0: 80a5 573d cba6 343d 1630 ae3d 90fd 2d3c
000002e0: 1ea2 ccbc 2cf0 a7bc 0ca3 a0bc d31d f9bc
000002f0: 2583 06bd 4919 debc 4dba ed3c 2ff3 1b3d
00000300: 85fe 953d 1fc6 bfbd ded1 983d b2d0 9ebc
00000310: 9f92 c0bd 36d5 803d 8075 5fbd f29b 31bd
00000320: 1fcf 023d 0f1f 813c 2556 863d 9d81 89bd
00000330: d61e 563d 396f 4d3d b3f6 733d 872f 03bd
00000340: 11e0 853c 6c06 e83c bdcf b93d da81 6fbd
00000350: 60f2 b4bd a03a b2bd 72cd 503c 6fc6 95bd
00000360: 52ec 91bc ee3e 38bd bacb 8e3c 83a5 8bbd
00000370: 380e 733d 1799 c1bd b1ee 57bd 32a9 a23c
00000380: 96d5 c1bd 984b c23c 0a74 13bd 670f 47bd
00000390: d043 8d3d 7787 febc a058 ba3c 0130 18bd
000003a0: 0b61 383d c576 b33d 822c bd3d e969 6ebd
000003b0: 14e5 c3bd 6fce 89bd 0610 de3c 113a 1e3d
000003c0: b201 4f3d ca26 2b3d 74b6 bf3d 3471 95bd
000003d0: 857f 9abd 83d9 f6bc 79f5 983d d252 97bd
000003e0: 5dc0 933d a229 833c 0ecd 733d de3e c33d
000003f0: 0ad0 bf3d fc2f bd3d 9871 c1bc 742f 28bd

_orig_mod.conv_block_3.2.bias f4 [12]
0.042901583 0.028660987 -0.052497786 -0.079270095 -0.0782055 -0.011645691 0.02752041 -0.060990512
0.017728202 0.055430956 0.0565957 -0.035957135
00000000: 92b9 2f3d 72ca ea3c eb07 57bd 5c58 a2bd
00000010: 352a a0bd 91cd 3ebc 7c72 e13c 30d1 79bd
00000020: bc3a 913c 920b 633d e5d0 673d ca47 13bd

_orig_mod.conv_block_4.0.weight f4 [12, 12, 3, 3]
0.0220582 -0.0853171 0.069227606 -0.07690287 0.005340745 -0.03022859 -0.07978396 -0.08340774
-0.061816763 -0.069856204 0.07343207 -0.014780922 -0.06424289 0.0003470756 -0.04343896 -0.013934081
0.08275341 -0.084923245 -0.083592504 0.023582432 0.06706973 -0.091420695 0.030231219 0.095335625
-0.015459381 -0.05677908 0.04720679 0.054351535 -0.009989542 -0.0784803 0.0037318228 -0.062315278
-0.08214768 0.06005928 0.06608741 0.03863235 -0.0785161 0.08160492 0.07049394 0.08269994
-0.0063958406 -0.017820945 -0.08629976 0.07100798 -0.005045633 -0.096214525 0.09408524 -0.012441451
0.057874355 -0.014203316 -0.015137908 0.08464547 0.07989355 -0.044910494 0.0030064248 0.06536062
0.0046245814 -0.017340532 0.08596966 0.0856852 -0.025793647 0.07285499 -0.009530441 0.0028592986
0.07718904 -0.00746563 -0.009571897 -0.020909375 -0.080339864 0.074506946 -0.07549249 -0.07385787
0.013023749 -0.010133605 0.0037718792 0.0075706574 0.09537011 -0.093427554 -0.057854522 0.01775032
-0.085663095 -0.076020524 0.0737321 0.03725915 -0.029847745 0.02539314 0.016829811 -0.009480119
0.0799063 -2.5683388e-05 0.0682665 -0.07490064 -0.03909701 0.016275238 0.05140081 -0.039151866
0.069419146 -0.079829775 -0.036705233 0.072340794 -0.07189854 -0.090245895 -0.024287801 -0.08016841
0.028624406 -0.016918046 -0.028324556 0.05321427 0.0055983937 -0.08675256 -0.09118427 0.060433358
0.041497163 0.0528783 -0.081724264 -0.018594831 0.08221231 0.07772394 0.06541744 0.089329176
-0.03015348 -0.07449277 0.054093413 0.06135297 -0.029059153 -0.008982934 -0.004633907 -0.08535896
-0.03985601 -0.030491149 0.035922367 -0.028075993 0.043428455 0.086645454 -0.020512046 -0.023454657
-0.06043883 -0.0073436825 -0.088058405 0.06504119 0.08300575 0.025663888 0.09100638 0.048469096
0.063785136 0.088876255 -0.06615795 -0.0075492873 0.03615035 -0.0257564 -0.06825821 -0.030214034
-0.04770068 -0.03374936 -0.07330416 -0.02902606 0.0551355 -0.042233758 0.040988553 -0.07913318
-0.0606349 0.009973345 0.089111 -0.088865384 0.041884467 0.01682933 -0.07862605 -0.069865964
0.04848075 -0.04808069 0.06743369 -0.06654346 0.072692074 -0.049090236 0.038979515 0.028790941
-0.07550616 -0.05046429 -0.023308942 0.00030530998 0.047522724 -0.039554585 0.014157581 -0.052197512
-0.045739155 0.06279408 -0.026354402 -0.08431573 0.0040419507 -0.013717395 0.027355561 -0.049086403
0.0041445466 -0.047471724 -0.058154866 0.021996371 0.029741868 0.017801708 0.088884205 0.008920188
0.008182665 -0.012580065 -0.09303045 0.037635297 0.07501252 0.009535282 -0.07504563 0.08639937
0.021556864 0.069600224 0.04179231 0.015178011 -0.028350996 0.019755205 0.030961549 -0.0058335704
-0.061462585 -0.05057018 -0.088195026 -0.037634548 -0.015512468 0.0786998 -0.051472366 -0.094682835
0.052741624 0.08296573 -0.07505317 -0.0009609992 0.030592725 0.062034834 -0.01727384 0.04382661
0.07393344 0.05631018 0.04688323 0.0585187 -0.08622774 0.020459658 0.07420599 -0.0762408
-0.08434796 -0.07946245 0.02954457 0.089303195 -0.008727833 -0.038251832 0.005694623 -0.079340704
0.016657347 -0.06326308 -0.06476656 -0.070192836 -0.027242333 0.06271038 0.019544382 0.06696622
00000000: 66b3 b43c bbba aebd 34c7 8d3d 407f 9dbd
00000010: 6b01 af3b f3a1 f7bc c665 a3bd add1 aabd
00000020: 9333 7dbd c510 8fbd 8e63 963d ae2b 72bc
00000030: c791 83bd b3f7 b539 0ded 31bd c64b 64bc
00000040: 9f7a a93d 3dec adbd 8c32 abbd f22f c13c
00000050: db5b 893d c63a bbbd 76a7 f73c 533f c33d
00000060: 5849 7dbc 2e91 68bd e85b 413d b79f 5e3d
00000070: 2dab 23bc 48ba a0bd 9991 743b 4e3e 7fbd
00000080: 0b3d a8bd b800 763d d658 873d f43c 1e3d
00000090: 0dcd a0bd 7b20 a73d 205f 903d 965e a93d
000000a0: 3394 d1bb 3bfd 91bc eebd b0bd a26c 913d
000000b0: d655 a5bb 1f0c c5bd c3af c03d 3ad7 4bbc
000000c0: a90d 6d3d 06b5 68bc fd04 78bc 9b5a ad3d
000000d0: 3b9f a33d 11f4 37bd 7007 453b cadb 853d
000000e0: cd89 973b bb0d 8ebc dc10 b03d b97b af3d
000000f0: 334d d3bc ff34 953d 9125 1cbc 1263 3b3b
00000100: 4a15 9e3d 3ea2 f4bb 72d3 1cbc 234a abbc
00000110: 3a89 a4bd 1997 983d ce9b 9abd cc42 97bd
00000120: 9061 553c 6c07 26bc a231 773b 4713 f83b
00000130: 6751 c33d f256 bfbd ddf8 6cbd 1e69 913c
00000140: 2270 afbd a6b0 9bbd db00 973d 0d9d 183d
00000150: 4283 f4bc 4605 d03c acde 893c 8052 1bbc
00000160: eaa5 a33d a872 d7b7 4fcf 8b3d 8265 99bd
00000170: 3024 20bd a653 853c a889 523d b55d 20bd
00000180: a02b 8e3d cb7d a3bd 3a58 16bd 6927 943d
00000190: 8b3f 93bd d7d2 b8bd 36f7 c6bc 562f a4bd
000001a0: bb7d ea3c b797 8abc e608 e8bc 35f7 593d
000001b0: bb72 b73b 54ab b1bd d2be babd f888 773d
000001c0: eef8 293d eb96 583d 0d5f a7bd 3054 98bc
000001d0: ed5e a83d bb2d 9f3d 94f9 853d 37f2 b63d
000001e0: 6e04 f7bc aa8f 98bd 0e91 5d3d 404d 7b3d
000001f0: 760d eebc 282d 13bc 08d8 97bb aed0 aebd
00000200: 0e40 23bd 93c8 f9bc 5523 133d a0ff e5bc
00000210: 09e2 313d 2c73 b13d e108 a8bc fb23 c0bc
00000220: b58e 77bd 46a3 f0bb f757 b4bd 5134 853d
00000230: ebfe a93d 133d d23c 8e61 ba3d 8887 463d
00000240: c8a1 823d c104 b63d d27d 87bd 0360 f7bb
00000250: 6412 143d 16ff d2bc f6ca 8bbd 6c83 f7bc
00000260: ca61 43bd c53c 0abd 7e20 96bd 0fc8 edbc
00000270: c3d5 613d 4efd 2cbd 9de3 273d 9410 a2bd
00000280: 4d5c 78bd 3e67 233c d47f b63d 0eff b5bd
00000290: 0c8f 2b3d aadd 893c b206 a1bd e315 8fbd
000002a0: c093 463d 42f0 44bd ad1a 8a3d f047 88bd
000002b0: 95df 943d d812 49bd fca8 1f3d fbda eb3c
000002c0: f9a2 9abd a5b3 4ebd 65f2 bebc 0312 a039
000002d0: 30a7 423d fd03 22bd 33f5 673c 0fcd 55bd
000002e0: fb58 3bbd 2f9a 803d 30e5 d7bc baad acbd
000002f0: 5772 843b edbe 60bc c518 e03c d30e 49bd
00000300: face 873b b671 42bd cc33 6ebd bc31 b43c
00000310: 38a5 f33c e3d4 913c ec08 b63d fb25 123c
00000320: 9610 063c 9e1c 4ebc c086 bebd 7827 1a3d
00000330: 2aa0 993d df39 1c3c 86b1 99bd 27f2 b03d
00000340: 0598 b03c 908a 8e3d 6a2e 2b3d 31ad 783c
00000350: 5940 e8bc abd5 a13c 13a3 fd3c 8927 bfbb
00000360: 31c0 7bbd ad22 4fbd 989f b4bd af26 1abd
00000370: 0228 7ebc 5c2d a13d b0d4 52bd 13e9 c1bd
00000380: 9a07 583d f0e9 a93d 7ab5 99bd 91eb 7bba
00000390: 989d fa3c 3d18 7e3d de81 8dbc 8883 333d
000003a0: 6a6a 973d 81a5 663d a108 403d 4eb1 6f3d
000003b0: 2b98 b0bd 039b a73c 4ff9 973d 2324 9cbd
000003c0: a0be acbd 36bd a2bd 7407 f23c 98e4 b63d
000003d0: 2fff 0ebc f4ad 1cbd f699 ba3b 617d a2bd
000003e0: fd74 883c 1390 81bd 55a4 84bd 43c1 8fbd
000003f0: 502b dfbc 4d6e 803d 8a1b a03c 9625 893d

_orig_mod.conv_block_4.0.bias f4 [12]
0.005634688 -0.02742472 -0.070201054 -0.051211413 -0.008029059 0.01041579 0.003692466 -0.08836359
0.08520167 -0.056049127 -0.023561073 0.08926136
00000000: 30a3 b83b cea9 e0bc 92c5 8fbd 0fc3 51bd
00000010: 508c 03bc fda6 2a3c 4dfd 713b f8f7 b4bd
00000020: 377e ae3d c593 65bd 2703 c1bc a9ce b63d
