disease_model_state_2_test.pth (torch, 981627 bytes, 50 tensors)

conv_block_1.0.weight f4 [40, 3, 3, 3]
000000 23 0e 0b 3e 49 e6 15 3e 8c 91 72 bd 18 79 29 3e
       0.13579611 0.14638628 -0.059220836 0.165501
000010 ae 17 5b bd 3a 3a d9 3c cb 16 d1 bd 78 d1 cf 3d
       -0.05348938 0.026517022 -0.102094255 0.10147375
000020 58 0e 22 3e 4a 79 14 be aa 03 26 3e d9 0a fa 3c
       0.15825784 -0.14499393 0.16212335 0.03052275
000030 5c 76 0d 3e a9 48 ba 3c 7a 20 b6 3d 48 92 ec bc
       0.13814682 0.022739725 0.08892913 -0.028878346
000040 90 80 13 3e c8 6b ca 3c ed 54 d1 bd c2 9d 0f 3d
       0.14404511 0.024709597 -0.102212764 0.03506256
000050 04 46 d3 bd 03 8c 11 bd 60 49 b9 bd 8e 3d ea 3d
       -0.10316089 -0.035533916 -0.09047198 0.11437522
000060 3c 05 26 be ec a2 d0 bd d9 81 89 bd 86 1b f9 bd
       -0.16212934 -0.10187325 -0.067142196 -0.12163453
000070 01 5b 28 3c cd 33 4b be ef 11 2c 3e 11 f0 2d be
       0.010275603 -0.19843979 0.16803716 -0.1698611
000080 f6 9d 0f 3e b8 95 e2 3c ba ba 8a bd 35 f7 e1 3d
       0.14025101 0.027659282 -0.067738965 0.11033479
000090 b5 9b 01 3d 62 0f 1f 3e c7 50 a0 3c a5 74 6f bd
       0.031642634 0.15533212 0.019569768 -0.05846085
0000a0 a2 de 5a 3d 1e d6 5a bd 61 90 ab 3d d8 e0 31 3e
       0.053434975 -0.053426854 0.083771475 0.17370927
0000b0 cb d2 de 3d c7 25 b5 bd 54 65 d6 3d 4a 24 de 3c
       0.10880049 -0.08845096 0.104685456 0.027116913
0000c0 92 40 bf 3d a7 7c fa bd 0a 42 4a be 94 6a 9f bd
       0.09338488 -0.12230807 -0.19751754 -0.07784
0000d0 c1 eb 1b be 2d 59 19 3e 8f c5 91 3d 85 7e b5 3d
       -0.15226652 0.14975424 0.071177594 0.08862022
0000e0 7a 6a 77 3d dc e1 42 3b 66 0f 1b 3e 62 5e 11 be
       0.06040428 0.0029736673 0.15142593 -0.1419616
0000f0 7b bf 5a 3c a9 6e 07 be 90 d7 74 3d b4 e1 5b bd
       0.013351317 -0.13225807 0.05977589 -0.053682044
000100 de c7 86 3d 89 69 2c bd 2c ee 27 3e ea 03 eb bd
       0.065810904 -0.042092834 0.16399449 -0.11475356
000110 6b 64 f7 bd a2 82 e9 bd 94 df 30 3e 59 7d 88 3d
       -0.120797 -0.11401869 0.17272788 0.06664533
000120 46 e1 50 3e c0 d9 15 be 71 f3 40 be 3e 39 10 be
       0.20398435 -0.14633846 -0.18842866 -0.14084336
000130 3e ee 00 be 7f b2 99 3d 0f 65 95 3d 3f f2 25 3e
       -0.12590882 0.075047486 0.07294666 0.16205691
000140 7e a2 c3 bd e8 ab e9 bd 7a 56 f3 3d a7 34 4e bd
       -0.09552477 -0.11409742 0.118817285 -0.050343182
000150 95 e4 07 3e 02 7c 01 bd 3d ae 09 3e 55 36 0c be
       0.13270791 -0.031612404 0.13445373 -0.13692601
000160 2e 19 b0 bd ef 1e a4 3d a5 a4 7e 3d b5 71 fb bc
       -0.08598553 0.080137126 0.062168736 -0.030693868
000170 3c 8b 10 3e 0f e5 19 3e 83 2d 00 be a9 35 a5 bd
       0.14115614 0.15028785 -0.12517361 -0.080668755
000180 b0 d6 41 3e a1 90 65 bd 97 f1 52 bd 5e a4 2c be
       0.18929553 -0.056046132 -0.05149993 -0.16859576
000190 a4 f5 c0 bd 5a e7 95 3d 8a f4 07 bc 12 16 01 be
       -0.09421852 0.073195174 -0.008298049 -0.12606075
0001a0 ca db e1 3c d9 60 ef bd 76 4a 1b be f5 c4 ad bd
       0.027570624 -0.11688394 -0.15165123 -0.08484832
0001b0 28 1d 49 be 1b da 1f be e4 00 27 3e 71 8c b7 3b
       -0.19640028 -0.15610544 0.16308933 0.0056014587
0001c0 d6 da c3 3c 2a 28 53 be 20 17 1e be 05 5c c8 bd
       0.02390806 -0.2062079 -0.15438509 -0.09783176
0001d0 c4 f0 ab 3b 71 ac 46 be 98 f6 e3 bd 7c 4c 0d be
       0.0052472074 -0.19401719 -0.111310184 -0.13798708
0001e0 06 2d d1 bc 07 7a ce bd 2c 59 09 bd d5 97 1c be
       -0.025534164 -0.100818686 -0.033532307 -0.15292294
0001f0 27 b8 22 be 92 ce 04 be e4 28 a1 bd 65 e8 2d be
       -0.15890561 -0.12969425 -0.078691274 -0.16983183
000200 02 61 15 3e fe 46 66 bd 28 76 13 3e 2f 9e 40 3d
       0.14587787 -0.056220047 0.14400542 0.047025856
000210 9d 25 37 be 27 cc e5 3d d9 ae 85 bd 49 a0 9f bd
       -0.17885442 0.112205796 -0.0652749 -0.07794244
000220 25 55 28 be 7f 92 46 be c0 96 5a 3d 02 e6 32 bd
       -0.1643873 -0.19391821 0.053366423 -0.043676384
000230 05 77 96 3d 7f 05 1f be 62 84 15 3e c5 55 0e be
       0.0734692 -0.1552944 0.14601281 -0.13899906
000240 89 f4 e7 bc 1e 58 3b 3d c7 ae da 3d 44 96 25 3e
       -0.028314846 0.045738332 0.106778674 0.16170603
000250 b9 74 3b 3e 9f 1c 14 be 0e 7b 69 3d e3 8e 95 bd
       0.18306245 -0.14464043 0.05700212 -0.07302644
000260 e1 44 45 bc 63 56 18 be 8d 1b 2f 3e 68 8d 12 be
       -0.012040348 -0.14876704 0.17100354 -0.14311755
000270 e4 90 ce 3d bd 9b 87 3d 06 45 7d 3d ed b3 d3 bd
       0.100862294 0.066215016 0.061833404 -0.103370525
000280 bb d9 34 3e ac 42 33 3d 80 c5 15 3d b6 8b 23 be
       0.17661183 0.043764755 0.036565304 -0.15971264
000290 94 60 ba 3d 57 21 98 bc 64 f8 a7 bd d8 25 2e 3e
       0.09100452 -0.018570585 -0.082016736 0.17006624
0002a0 ef ad 51 3d 9b 28 d5 bd 1c 88 c8 bd 5a cb d9 bb
       0.051191267 -0.104081355 -0.09791586 -0.006646556
0002b0 b1 29 de 3d 5a a3 3d bd 0e 22 dd bd 6d 56 8a bd
       0.10847796 -0.046298362 -0.10797511 -0.06754766
0002c0 a3 1b 15 be 92 55 90 3d f0 cc 14 3e ba 93 3e be
       -0.14561324 0.07047571 0.14531302 -0.1861104
0002d0 32 6a 5a 3d a2 ba db 3d 51 02 34 3d 5e 31 7b bd
       0.053323932 0.10728957 0.04394752 -0.061326377
0002e0 10 28 d7 3d 93 25 d7 3d 23 de 9e 3d 6e 22 08 bd
       0.10505688 0.105052136 0.07757213 -0.03323596
0002f0 10 95 54 bd aa 16 e5 3c 43 f8 b6 bc 39 93 65 bd
       -0.05189997 0.027964909 -0.022335177 -0.056048606
000300 99 6d 0c 3e c3 94 38 3e d0 81 52 bc d0 b5 19 bd
       0.13713683 0.18025498 -0.0128483325 -0.037526906
000310 b7 58 07 3c 85 79 3b bc 4c ba 3d 3d 56 ad 69 3d
       0.008260897 -0.011442547 0.046320245 0.05705007
000320 7a c7 39 be f7 45 85 bd 98 4f 2b 3e 17 4c 94 3d
       -0.181425 -0.06507485 0.16729581 0.072410755
000330 0e 57 3c bc df ff f3 bd 1d 69 00 be 3c 01 2f be
       -0.011495365 -0.11914038 -0.12540098 -0.17090315
000340 25 01 6c bd 47 a4 78 3d e0 e6 04 3e e4 07 c4 3d
       -0.05761828 0.060703542 0.12978697 0.095718175
000350 29 22 2e be c9 42 ec bd 69 6b f8 bc f0 5f 3a 3e
       -0.17005219 -0.11536176 -0.030324655 0.1820066
000360 d0 9b 1f 3d 12 b8 17 bd ab 2e bd 3d d4 f1 8a bd
       0.038966954 -0.037040778 0.09237417 -0.06784406
000370 64 d6 f2 bd 32 29 18 3e 0e d9 ab bd 01 2b 08 bd
       -0.11857298 0.14859465 -0.08391009 -0.033244137
000380 d9 42 3e be 8f 53 16 3e 31 c3 2a 3e e7 f1 b9 3d
       -0.18580188 0.14680313 0.16676022 0.09079342
000390 2a 4c f8 bd 5f 34 33 be f0 8a 0f be 2f de 1b 3e
       -0.12123902 -0.17500447 -0.14017844 0.15221475
0003a0 37 bf d5 3d 32 4d 32 3e 01 76 f2 3d a6 d1 8a 3d
       0.10436862 0.1741226 0.11838914 0.067782685
0003b0 4a d6 91 3c e3 1b 09 be 77 e8 19 be 18 3c 27 be
       0.017802376 -0.13389544 -0.15030085 -0.16331518
0003c0 11 24 b5 3d 5e 5c a7 bd cd 08 c8 bc 4f 19 de bd
       0.0884477 -0.081719145 -0.024418259 -0.10844671
0003d0 98 1c d3 bc c0 ff ee bd 4f 1e ed bd 0b 78 ac 3d
       -0.02577047 -0.11669874 -0.115780465 0.08421334
0003e0 27 f4 03 bd 00 d2 01 3e c8 5d 12 bd 67 62 e1 bd
       -0.032215264 0.12677765 -0.035733968 -0.11005097
0003f0 d1 a8 bc bc b4 c2 9c bd a3 45 06 bd e8 25 27 be
       -0.023029717 -0.07654324 -0.032781255 -0.16323054

conv_block_1.0.bias f4 [40]
000000 55 3d e1 bd 3e 3f 94 bd df c9 09 be 29 02 30 be
       -0.10998026 -0.07238625 -0.13455914 -0.17188324
000010 ee e3 9b bb 99 39 0d 3e c4 13 41 3e f4 31 f7 3d
       -0.004757396 0.13791503 0.18855196 0.12070075
000020 89 cc df bd 02 0f 59 be 34 69 78 3d 27 ef e4 3d
       -0.10927684 -0.21197131 0.060647205 0.11178427
000030 bb 01 2e be 79 e5 c9 3d b8 04 4d 3e ee ec 20 bc
       -0.16992848 0.098582216 0.20021331 -0.009822113
000040 32 89 e5 bd 7d 2a 39 3e 60 94 b3 3d 9d 43 31 3e
       -0.112078086 0.18082614 0.08768535 0.17310949
000050 31 50 0a be 28 34 e8 3d ef a3 03 be 89 f4 20 3e
       -0.13507153 0.11338073 -0.12855504 0.15718283
000060 3c b7 9c bd e4 71 ec 3d 13 8b 5d 3d 66 22 97 3d
       -0.07652137 0.115451604 0.05408771 0.07379608
000070 5f ce e9 bc 24 79 e7 3d 0d f1 c9 bd 7d 90 33 be
       -0.028540788 0.113024026 -0.0986043 -0.17535587
000080 fe 09 d5 bd 7c 49 1f 3e 22 d4 9b bd bf e7 71 3d
       -0.104022965 0.15555376 -0.076088205 0.0590589
000090 e7 8f 8e bd b1 0a f0 3d 8b a7 10 3e c7 bc 9f 3d
       -0.06961041 0.11720789 0.14126413 0.07799678

conv_block_1.2.weight f4 [40, 40, 3, 3]
000000 04 17 92 bc 44 dd 14 bd 6b 49 4b 3c 95 43 99 bc
       -0.01783324 -0.036343828 0.012407641 -0.018708983
000010 52 9c 4e 3d 2c 75 14 bd 8b 99 2b 3d fa 8b 89 3d
       0.050442047 -0.036244556 0.041894477 0.067161515
000020 76 7a 23 3d 8b b3 da 3c eb f6 34 bd 47 2a 77 3d
       0.03991171 0.02669694 -0.04418079 0.060343053
000030 5c 24 05 3c 1d 46 05 bd e9 f9 89 3d 22 ed a2 ba
       0.0081263445 -0.03253757 0.0673712 -0.001243029
000040 11 69 b2 3c 93 d9 77 3d 9b 1f e2 bc 88 cf 11 bd
       0.021778615 0.06051023 -0.027602961 -0.035598308
000050 22 00 ab bb 0a 72 0b 3c 9b b7 93 3c ad dd 47 bd
       -0.0052185217 0.008511076 0.018031886 -0.04879539
000060 a1 84 b4 3c 11 3b 88 bc ba 6f fa bc eb f6 46 bd
       0.022035899 -0.016629728 -0.030570854 -0.048575323
000070 20 d1 0e 3d f7 e6 80 3c 91 f7 27 bd cb 9c 5a 3d
       0.034867406 0.015735133 -0.041007582 0.053372186
000080 59 23 bc 3c 40 63 16 3c 9f 96 a9 bc 6a 3f 25 3c
       0.022966074 0.0091789365 -0.020701705 0.01008592
000090 da 53 5f 3d 1a b6 45 3d 67 c1 d0 bc 09 5f 4b 3d
       0.054523326 0.04826937 -0.025482846 0.04965118
0000a0 1d 99 7c 3c 96 cc 1f 3d 88 6c 24 3d 5a 3a 4b 3d
       0.015417364 0.039013468 0.040142566 0.049616195
0000b0 82 99 02 bd 5e 8f dc 3c a6 4c 2c bd de ee f9 bb
       -0.031884678 0.026923832 -0.042065285 -0.007627352
0000c0 12 aa 31 bd 52 57 b0 bc 9e c7 02 bc 8e f3 cd ba
       -0.043375082 -0.021526013 -0.007982163 -0.0015712844
0000d0 44 bb 11 bc 23 2d df 3b 3e 47 56 3d 81 41 05 3d
       -0.008894745 0.0068108006 0.052314036 0.032533173
0000e0 a3 06 cd 3c f5 62 6b 3c c2 94 05 3d 27 fa 4a bc
       0.025027579 0.014366855 0.03261257 -0.0123887425
0000f0 f4 28 84 bc 6d 6a b4 bb 48 02 72 bd 41 8e 85 bd
       -0.01613281 -0.005505851 -0.059084207 -0.065212734
000100 2c c5 bf bb d8 09 28 bd da 64 c4 bc 10 7d d4 bc
       -0.005852362 -0.041025013 -0.023973871 -0.02593854
000110 bf ee a0 bc 6a c9 f4 3c 2f 05 fd bc b4 0b a4 3c
       -0.019645093 0.029881198 -0.03088626 0.020025112
000120 22 3e 6b 3d ea 4a ea bc 1f 88 0e bd e5 e3 03 bd
       0.0574323 -0.028600175 -0.034797784 -0.03219976
000130 38 df 3c bc d5 b2 23 bc 08 a7 30 bb 13 95 ac bb
       -0.011527829 -0.009991367 -0.0026955027 -0.0052667945
000140 f1 be bf bc 36 fa 8f bc 1a 75 91 bc e9 73 38 3d
       -0.023406478 -0.017575365 -0.017756034 0.045032416
000150 66 69 61 bc 71 6d 04 bd d8 15 96 3c 44 88 40 bb
       -0.013758039 -0.032330934 0.018320963 -0.0029378096
000160 2d d0 2f 3d 14 25 1a 3d 53 2e 35 3d 9b 67 13 bd
       0.04292314 0.037633017 0.04423363 -0.035987478
000170 78 db 04 3d 0c 4e 15 3d 5f c8 b7 bc f8 b1 32 3d
       0.032435864 0.036451384 -0.022434412 0.043626755
000180 65 ab fe 3c 88 a5 c6 ba bd c2 6b 3c 35 ae cc bc
       0.031087587 -0.0015155533 0.014389691 -0.024985412
000190 b0 9c 49 bd ad 24 ba 3c 09 97 88 3b 1a cb 0c bd
       -0.049221694 0.022722567 0.0041683954 -0.03437338
0001a0 3f 4d 12 3d c1 2b 3b bd ad 5f 43 3d 73 1e 7a 3d
       0.0357182 -0.045696024 0.047698665 0.061064195
0001b0 ed f5 d7 3c 40 ea 85 bc 7b 64 31 3d 88 0a be 3c
       0.026362384 -0.01634705 0.043308716 0.023198381
0001c0 84 3c 01 3d 24 33 12 3d 93 a9 48 3d 3d 2a 2b bc
       0.031551853 0.035693303 0.048989844 -0.010447082
0001d0 c0 f6 2d 3b 9a 88 90 3b 1c b6 84 ba 7e 5c 3f 3d
       0.002654478 0.0044108154 -0.0010125074 0.046719067
0001e0 b9 e0 43 bd 66 c0 53 bc 6c 56 cd 3b ed 9d 2e bd
       -0.047821734 -0.012924289 0.006266406 -0.04263108
0001f0 a5 53 8b 3c cc 9d da bb c1 7e 56 bd f2 6b 9c bb
       0.017007658 -0.006671643 -0.052366976 -0.0047736103
000200 4f 1d 6c bc c2 da 83 39 d8 c7 85 bc 53 d8 0b bd
       -0.014411285 0.00025149254 -0.016330644 -0.03414185
000210 83 d6 f6 bc 5c f4 3b bc 30 5b 1b 3c 63 35 3c 3d
       -0.030131584 -0.011471834 0.00948219 0.04594935
000220 a7 77 3b bc 34 c9 e7 3c b1 66 33 3c 00 6e 38 bd
       -0.011442102 0.028294183 0.0109497765 -0.04502678
000230 7d 2c 03 3c eb ea 19 3d e0 b6 24 bd bb 1d 30 bd
       0.008006212 0.03757755 -0.040213466 -0.042997103
000240 cc 97 6e 3d 5b c4 34 3d be 0e 3a bd 6a ea 4d 3d
       0.058250234 0.04413257 -0.045424215 0.050272383
000250 0d e6 fc ba 1e 3f 6e bd 69 2d e8 3c 5e d4 ee 3c
       -0.0019294635 -0.058165662 0.028341966 0.029153999
000260 cf 11 6f bc a5 cf 9b 3c ef 2d 1f bd ee db 1d 3d
       -0.014591648 0.019019911 -0.038862165 0.03853982
000270 ef f3 43 3d 25 a4 0b 3d 84 b5 3d 3c a5 02 b8 3c
       0.047840055 0.034092087 0.011578921 0.022462199
000280 a7 94 0d bd 0f 59 3d bc 63 f5 33 3c 04 49 a7 bc
       -0.034565594 -0.011556878 0.010983798 -0.020420559
000290 b5 35 df bc 1d 3e 3b 3d 4a 8b 39 3d ab a7 21 bd
       -0.02724729 0.045713533 0.045298852 -0.03946654
0002a0 9a b3 fc 3c 6a 43 f2 3c 54 6e 5f 3d 06 63 ed 3c
       0.03084736 0.029573161 0.054548576 0.028977882
0002b0 ad c5 46 3d b8 43 14 3b d6 3a 29 3d 16 64 5f 3d
       0.048528362 0.0022623371 0.041315876 0.05453881
0002c0 71 ea da bc 76 b3 0a bd d8 28 06 3d 9f 8c 49 3d
       -0.026723118 -0.033862554 0.032753795 0.049206372
0002d0 18 1c a6 bc 51 19 f5 3b 02 f3 68 3a 11 bd 96 3c
       -0.020277068 0.0074798246 0.00088863086 0.0184007
0002e0 57 a3 03 bd 14 2f e5 3c f4 74 39 3d ff b5 39 bd
       -0.032138195 0.02797655 0.04527755 -0.04533958
0002f0 5a 8f 31 3b 24 13 38 39 98 23 a1 3c 8d 80 3d 3d
       0.00270935 0.00017554738 0.019670293 0.046265174
000300 f8 10 bd 3c 08 52 55 bb 16 0e 46 3d 73 e3 95 bc
       0.02307938 -0.0032550115 0.048353277 -0.018296933
000310 dc fd c3 bb 38 b4 fe 3b ed b4 54 bd f5 75 36 3b
       -0.00598119 0.0077729486 -0.051930357 0.0027841304
000320 04 1b 1e bd 52 99 c7 3a 4c c1 39 39 1a 11 87 3c
       -0.038599983 0.0015228188 0.00017714984 0.016487647
000330 7b be 5f bd fe a9 67 bd 95 d0 25 3d dd f1 42 3d
       -0.054625016 -0.0565586 0.040482122 0.04759394
000340 1c ef 11 bd 71 96 c6 3c af 65 19 bd 6d 0b 4f 3c
       -0.035628423 0.024241658 -0.03745049 0.012637001
000350 4c 6d 50 3d c1 9e 1d 3d 2c c2 0b bd c7 21 f7 3c
       0.050885484 0.038481478 -0.034120724 0.030167473
000360 f8 04 09 3d 0b b3 c4 bb 2f f0 50 3d df 07 8a bc
       0.033452004 -0.006002789 0.051010307 -0.016849456
000370 31 de 8f bc d9 c8 af bc 4e 16 d8 ba bb 6d 9a ba
       -0.017562004 -0.021458076 -0.001648614 -0.001178197
000380 20 89 7c 3c e7 ed 8f bc e8 70 a6 bc 65 2b 78 3c
       0.0154135525 -0.017569495 -0.02031751 0.015147065
000390 c2 b0 19 bd da f9 f2 bb 86 b5 b0 bb d1 8d 80 bc
       -0.037522085 -0.0074150385 -0.005392733 -0.015692623
0003a0 39 f9 98 3c 0f fa b1 ba 5e aa a6 3c 05 c3 76 bb
       0.018673526 -0.0013578552 0.02034491 -0.0037652862
0003b0 8d 24 01 bd 5c 4c 99 3c 6d 4b c8 bb 12 93 99 bc
       -0.031529 0.018713169 -0.006112507 -0.018746886
0003c0 61 e2 3e bd ba 5a 0d bb 5d 44 67 bd 96 56 5d 3c
       -0.04660261 -0.002156897 -0.05646168 0.013509413
0003d0 10 e9 e2 3c 12 2b 2a bd 30 43 07 bd 70 d1 19 bd
       0.027699023 -0.04154498 -0.03302306 -0.03755325
0003e0 f3 1b 4f 3d 8d 26 40 3d e8 f5 c2 3b c9 91 7f 3d
       0.050563764 0.046911765 0.0059497245 0.06239489
0003f0 54 9e 37 bc 6c f4 36 bd 3b 94 92 3b a8 99 e7 3c
       -0.011207182 -0.044666693 0.004473237 0.028271511

conv_block_1.2.bias f4 [40]
000000 f8 9c 81 bd 96 d4 ee 3c ad e0 0e bc 34 1f 9f 3b
       -0.063287675 0.029154103 -0.008720559 0.0048560146
000010 d7 8e 61 ba d2 95 6e 3b 5b f7 d6 3b fc 8c b2 3c
       -0.00086043536 0.0036405218 0.006560249 0.021795742
000020 99 1c 69 3d f7 ab d6 3c a2 cf 9a 3c 3f c6 99 bd
       0.05691204 0.026205046 0.018897835 -0.075085156
000030 2d 1c 74 bc 9f cc e0 3c 6a 43 b0 3c fc d0 5e bc
       -0.014899296 0.027441321 0.02151652 -0.01359963
000040 65 f3 a9 bc 30 c7 2c 3d d8 b4 1d bd 8e a7 c7 3b
       -0.020745942 0.042182148 -0.038502544 0.006092972
000050 ca 18 90 3d 34 9b 31 bd d8 0a b4 bc ce 52 da 3c
       0.07035978 -0.043360904 -0.021977827 0.026650812
000060 98 a5 58 bb b3 32 b1 bb 57 1f 3d bd bf 0e b6 bb
       -0.0033057686 -0.005407655 -0.046172466 -0.005555957
000070 c9 e0 4d 3c e3 09 08 3d 2a 63 68 3c 7c 84 7a 3d
       0.0125658 0.033212554 0.014183799 0.061161503
000080 3f 04 21 bd 6d ed ea bc 87 07 d9 3b 6d 50 17 3d
       -0.03931069 -0.028677667 0.006623212 0.036941934
000090 7e 58 63 3c 5e ca 85 3d d0 4c 89 3c b0 91 95 3c
       0.013876079 0.06532739 0.01676026 0.018257946

conv_block_1.4.weight f4 [40]
000000 f7 32 80 3f 37 07 83 3f 21 84 81 3f 0f 71 80 3f
       1.0015553 1.0236577 1.0118448 1.0034503
000010 f4 7d 7f 3f a3 2d 81 3f 83 be 81 3f 2c a9 80 3f
       0.99801564 1.0092052 1.0136265 1.0051627
000020 45 66 83 3f cf 2a 82 3f 06 97 81 3f 00 93 7e 3f
       1.0265585 1.0169314 1.0124214 0.99443054
000030 84 5d 81 3f e8 54 7f 3f 30 8e 82 3f 8c 8d 83 3f
       1.0106664 0.9973893 1.0199642 1.0277572
000040 3d 0b 82 3f 59 4e 81 3f 78 10 7f 3f d8 8b 80 3f
       1.015968 1.0102035 0.99634504 1.0042677
000050 51 0a 81 3f d7 95 7d 3f 5b 8e 80 3f 4d 83 7f 3f
       1.0081273 0.9905676 1.0043443 0.99809724
000060 6a 84 7e 3f 5d b1 80 3f e7 61 82 3f 73 ba 7f 3f
       0.994208 1.0054127 1.0186127 0.99893874
000070 5f 1c 80 3f 50 32 80 3f f1 43 83 3f 44 2e 81 3f
       1.0008658 1.0015354 1.0255109 1.0092244
000080 38 b9 82 3f d6 fc 7f 3f 6f b9 81 3f 18 06 7f 3f
       1.0212774 0.9999517 1.0134715 0.99618673
000090 a2 b5 80 3f 22 0a 83 3f 8a ba 81 3f 5d 47 81 3f
       1.005543 1.0237467 1.0135052 1.0099903

conv_block_1.4.bias f4 [40]
000000 50 15 cd 3b f0 91 15 bc df dc 0e bb be 27 b7 bb
       0.006258644 -0.0091290325 -0.002179913 -0.0055894544
000010 e7 dc fb bb 5e e7 16 bc ca d7 e4 bc 06 be c8 3b
       -0.0076862457 -0.009210436 -0.027934927 0.006126168
000020 db 59 e1 bc 2b aa b3 3a 76 ad cd bb 5e 07 83 bb
       -0.027508667 0.001370733 -0.0062767817 -0.003998681
000030 5d 0e a6 bc 30 7b 1c bc c5 57 2a bc 84 3c 2b bc
       -0.02027052 -0.009550855 -0.010396902 -0.01045144
000040 74 04 bf 3b b6 b7 95 ba 8f 3c fe 3a b5 f0 07 bc
       0.0058293883 -0.0011422548 0.001939671 -0.008297135
000050 2b 27 ac bc 95 35 33 bc 2e a2 fc bb 9a 1c 93 bc
       -0.02101477 -0.010938068 -0.007709763 -0.017957974
000060 7d 9a 1a bc 6d 67 f5 38 9a cf 6f 3b e4 9b 1d bc
       -0.009436247 0.00011701775 0.0036592246 -0.009619687
000070 d8 d1 2d bc ff af 12 b9 d9 f3 c6 bc 01 5b 6e 3a
       -0.010609113 -0.00013989209 -0.024286197 0.000909254
000080 60 8c 9e 3b 36 9c c7 3b 56 00 e7 3b 1e bf 12 bc
       0.0048385113 0.00609162 0.0070496006 -0.008956699
000090 79 98 b5 bb 11 09 e1 bb 63 d9 f8 3b 84 a4 ea 39
       -0.005541858 -0.006867536 0.007594274 0.00044754532

conv_block_1.4.running_mean f4 [40]
000000 a5 7d 88 bd 3a 8b 45 bd da a5 74 bb 6a 3b 4f bd
       -0.0666459 -0.04822848 -0.00373303 -0.05059377
000010 54 a0 1b bc 1d bc 20 ba 4d e2 3f bb f2 45 ce bb
       -0.009498674 -0.00061315467 -0.0029279173 -0.006294959
000020 89 75 ef 3c 57 f4 c3 3c b8 de d4 3c 0b 7b cf bd
       0.02923085 0.023920221 0.025985107 -0.101308905
000030 10 fa 0b bd fb b8 84 3d 06 28 33 bd a3 77 fd bc
       -0.034174025 0.06480595 -0.04373934 -0.030940836
000040 01 9e 0d ba 4a bc 73 bc d9 79 c8 bc 0b a5 f0 3d
       -0.00054022676 -0.014876435 -0.024472164 0.117502294
000050 8d a7 f6 3d 20 31 d5 bc 63 f9 66 3d 53 e8 11 3e
       0.120436765 -0.026024401 0.056390177 0.14248781
000060 55 bc 28 ba 02 3a 1c bd f7 03 6b bd 7b 9a b8 bc
       -0.0006436755 -0.038141258 -0.057376828 -0.0225346
000070 bf 2d 82 3c bb 8e c2 bc 51 03 c0 3c 85 87 d9 3d
       0.015890954 -0.0237497 0.023439081 0.106215514
000080 bf 2d 01 bc b8 19 15 bd 7c 33 dc bc 76 26 a6 3d
       -0.007884442 -0.03640148 -0.026880018 0.081128046
000090 4f c7 30 3b ff 16 32 bc c6 cc 8b bd bc 16 0d bc
       0.0026974266 -0.0108697405 -0.06826167 -0.008611377

conv_block_1.4.running_var f4 [40]
000000 11 fd f2 39 af bd 51 39 d5 0c ea 39 7f fe d8 39
       0.00046346386 0.00020002456 0.0004464152 0.00041388345
000010 3f 8e 94 3a 72 32 3c 3a 07 0f 85 39 7c 75 88 39
       0.0011333897 0.0007179148 0.00025378933 0.00026027474
000020 06 b5 95 39 33 e7 c0 39 1a 11 97 3a db 4f 7b 39
       0.00028554368 0.0003679335 0.0011525482 0.00023966974
000030 0f 8b db 39 a0 44 a6 3a 13 f4 07 3a ef b2 f4 38
       0.00041874542 0.0012685247 0.0005186211 0.00011668156
000040 f1 aa 64 3a 5e 1e d3 39 f6 dd 32 3a 2e 6a 90 3a
       0.0008722982 0.00040267681 0.0006823236 0.0011017972
000050 6f 5a 69 3a e6 71 8c 39 9a 59 f6 39 28 59 7a 3a
       0.000890172 0.00026787742 0.00046987535 0.00095500285
000060 86 69 dc 39 c9 f3 16 3a b6 e5 97 39 05 c7 15 39
       0.0004204029 0.0005758373 0.00028972112 0.00014283888
000070 1f fe 01 3a 26 7f 7f 39 37 1b a3 39 95 73 44 3a
       0.00049588265 0.00024366062 0.0003111006 0.00074940297
000080 48 b3 4c 3a c5 96 f6 39 83 70 c7 39 c6 87 00 3a
       0.00078086974 0.00047033108 0.00038040066 0.00049030443
000090 77 e5 c2 39 04 aa 7d 39 05 44 6c 39 d9 34 0e 3a
       0.00037173528 0.00024191296 0.00022532053 0.0005424745

conv_block_2.0.weight f4 [40, 40, 3, 3]
000000 33 b7 86 3b 20 6a 11 3d 48 2c 02 3d d7 18 05 3d
       0.0041111945 0.0355016 0.03178051 0.032494392
000010 af 0f 40 bd 98 56 33 bc ac 89 ab bc a9 a1 3e bc
       -0.046889957 -0.0109459385 -0.02093967 -0.0116352225
000020 58 1f 05 3d e9 4f 27 bd 17 1f 21 bd d3 46 e4 bc
       0.032500595 -0.040847693 -0.03933629 -0.027865803
000030 56 9f fd 3b 0b d7 d2 bc 77 65 28 3c c2 9a 22 bd
       0.0077399416 -0.025737306 0.010278097 -0.03969837
000040 cb de d1 bc 66 c7 0a 3d b7 4b 1e 3d 62 30 7f bc
       -0.025618931 0.033881567 0.038646426 -0.0155755
000050 fb 37 be 3b 66 f4 c8 bb 62 e5 28 bd b2 10 48 bc
       0.0058050132 -0.00613265 -0.04123438 -0.012211012
000060 44 7d 0e 3d 8a d5 a5 3b 45 14 62 3d 5f 36 76 bd
       0.03478743 0.005060856 0.05519511 -0.060110446
000070 44 c2 62 bd bc 13 83 bd 1b 1d 37 bd 96 f4 91 ba
       -0.055361047 -0.064002484 -0.04470549 -0.0011135514
000080 52 07 cb 3c 0b e9 44 bd 7b f7 36 bd c3 b3 a6 bc
       0.024783764 -0.04807381 -0.04466961 -0.020349389
000090 f9 ce e2 3c b8 c2 ce 3c 2d 09 ff bb ec f4 32 3d
       0.027686583 0.025239334 -0.0077830763 0.043690607
0000a0 f9 85 8b 3c 63 d1 42 3d 31 dc 51 ba b7 28 03 bd
       0.017031657 0.047562968 -0.00080055284 -0.03202125
0000b0 a9 db 98 3a ec f0 05 3c 41 07 33 3c 70 b9 f8 bb
       0.0011662144 0.008175116 0.010927022 -0.0075904652
0000c0 af 73 f9 bb 3b 7a cd 3a 2b 99 86 bc 55 d7 17 3c
       -0.0076126675 0.0015676686 -0.016430458 0.009267648
0000d0 3c c4 1b bd e1 92 59 bc 39 a6 01 3d 4b 59 8c 3c
       -0.03802894 -0.013279648 0.031652663 0.017132422
0000e0 b0 1f f5 3c 88 89 13 bd 81 69 97 bc a5 14 01 bd
       0.029922336 -0.036019832 -0.018482925 -0.03151383
0000f0 b7 4f f7 bc cb 01 48 bc cb b2 e0 3b c3 b6 13 bc
       -0.030189378 -0.012207459 0.0068572513 -0.009015742
000100 f4 b7 e8 bb 99 2d 12 bd d5 4f 47 bb 9d 28 81 3c
       -0.007102007 -0.035688017 -0.0030412574 0.015766436
000110 7a 3a 2c 3d 83 07 0c 3d d9 bb 27 bd 5a 5d ed bc
       0.042047955 0.03418685 -0.04095063 -0.028975178
000120 15 c5 3b 3d 86 d9 19 3d f0 67 d1 3c e1 da d6 bc
       0.04584225 0.037560962 0.025562257 -0.026227416
000130 d5 03 43 3d b9 7d 55 bd b3 12 3f bd 94 62 dc b9
       0.047611076 -0.05212185 -0.046648692 -0.00042035116
000140 d9 2f 66 3c 3a 94 30 bd 76 14 68 3c e2 b4 19 3c
       0.014049494 -0.04311011 0.0141650345 0.009381505
000150 39 4e ab bb f9 83 21 bd 63 57 c2 bc aa 85 86 3c
       -0.0052278307 -0.0394325 -0.02372331 0.016421158
000160 58 21 d2 3c 68 e7 3e 3d 34 1c 41 bc d2 a8 61 3d
       0.025650665 0.046607405 -0.011786509 0.05509264
000170 10 5a dc 3c 21 47 04 bd d6 02 4b bd e7 fb 24 3d
       0.026898414 -0.032294396 -0.04956325 0.040279295
000180 84 37 69 3c 9e 4c 8f 3b 0f 5b e6 bb 6c ee b3 3c
       0.014234427 0.004373147 -0.007029898 0.021964274
000190 e0 9a c1 bc 91 b1 39 bd 4b 91 2b 3d ed 6b 9d bc
       -0.02363342 -0.045335356 0.04188661 -0.019216502
0001a0 20 9b f8 3c ff 71 0d bd 9c d4 21 bc 14 e3 f0 bc
       0.030347407 -0.034532543 -0.00987735 -0.029405154
0001b0 98 80 b4 3b a6 d0 e7 bb 10 d4 7c 3c 99 d3 d1 bc
       0.0055084936 -0.0070744334 0.015431419 -0.025613593
0001c0 c0 ee 0a bd e2 58 65 3d 76 89 fd bc 10 8c db 3c
       -0.033919096 0.05599297 -0.030949336 0.026800185
0001d0 41 1c fe bc 1d 8d 2b 3b 11 13 c4 bb 30 58 e8 bc
       -0.031019332 0.002617664 -0.005983718 -0.028362364
0001e0 86 70 49 bc 60 8f 0d bb f1 9d b1 bb 13 87 04 3d
       -0.012294894 -0.002160035 -0.0054204394 0.03235538
0001f0 b1 0e 15 bd 23 8d 9f 3c 3f bb 5a 3d 8e d5 1c bd
       -0.036390964 0.019476479 0.053401228 -0.0382896
000200 b3 97 3b bd 0d 5e e0 3c 76 08 28 bc 22 32 96 3a
       -0.04579897 0.027388597 -0.0102559235 0.0011459033
000210 4f d6 25 bd d8 3a 1b 3d 0f 79 52 3a 8a ab 2f bb
       -0.040487584 0.037897915 0.00080289034 -0.0026805126
000220 61 f5 e8 bc 89 f8 de 3b be ba 08 3c 47 3b 7d bc
       -0.028437318 0.00680453 0.008345304 -0.015456027
000230 6b 50 4b 3c f8 da e5 bc e1 a5 43 3c 79 45 79 bd
       0.01240931 -0.028058514 0.011941404 -0.06085727
000240 d5 a3 17 bc 6f 03 e2 bc 88 82 fc 3c a5 14 e5 bc
       -0.009255369 -0.027589528 0.03082396 -0.027963946
000250 dd 24 44 3d 96 21 a9 3c 71 d3 24 3d 8c 4e e4 bc
       0.047886718 0.020645898 0.04024071 -0.027869485
000260 1e 66 12 bd f5 81 86 bc cb bc 25 bd d6 20 e5 bc
       -0.035741918 -0.01641939 -0.04046325 -0.027969759
000270 3a 61 33 3d e4 c8 d4 3c d9 6c 94 bc c7 6e 2c 3d
       0.043793894 0.025974698 -0.018118309 0.042097833
000280 80 c0 d5 bc 29 52 b2 bc 86 73 8c 3c a8 0a 91 3c
       -0.026092768 -0.021767693 0.01714493 0.017705277
000290 ec 4d ad bc 09 a0 27 bd 0e 06 bb 3b e2 f2 41 3d
       -0.02115532 -0.040924106 0.005707509 0.04735077
0002a0 4f 1a 3b 3d 2f 7a 20 3d 07 a7 38 bd aa 0f 2f 3d
       0.045679387 0.039179023 -0.045081165 0.042739548
0002b0 81 d2 87 3c 81 37 12 bd 30 ef ca 3b 86 b7 3e bd
       0.016579868 -0.035697464 0.006193064 -0.04656174
0002c0 88 f6 76 3c 6a ca bd bc 66 73 f6 bc 4d 07 0e 3c
       0.015073426 -0.023167808 -0.030084323 0.008668733
0002d0 19 4e fa 3c 37 8a e2 3c 15 bb 13 bd 2c 72 b3 3c
       0.030554818 0.027653797 -0.036067087 0.021905027
0002e0 64 a4 6a 3c a2 f6 2f bd b8 3c a0 bc 83 0a 90 bc
       0.01432142 -0.042959817 -0.019560203 -0.017583137
0002f0 f8 9f 50 bd 31 e1 4c bd 08 82 1b bd 3a ca 27 3d
       -0.050933808 -0.050019447 -0.037965804 0.040964343
000300 d6 eb 9b bb 92 4a 78 3c 70 06 15 bd cc 11 7b bc
       -0.0047583384 0.015154498 -0.036383092 -0.015324067
000310 1d 9d 55 3c 64 5f 54 bc b8 3e 21 bc 39 5f 85 bb
       0.013037947 -0.012962196 -0.0098416135 -0.0040701893
000320 c6 62 09 3d b4 c3 38 bd 71 06 53 bd 3b 84 55 bd
       0.033541463 -0.045108512 -0.051519815 -0.052128058
000330 1f 82 8f 3c 87 ee 04 bd ef 70 bc bc e9 41 f3 bb
       0.017518101 -0.03245404 -0.02300307 -0.0074236286
000340 71 9e 02 3d 14 64 44 3b 73 dc c8 3b 5d f1 81 bc
       0.031889383 0.0029966878 0.006129795 -0.015862161
000350 f6 39 e4 3c d7 5a f2 bc b6 41 1b 3d d0 c0 25 3d
       0.02785967 -0.029584331 0.037904464 0.040467083
000360 f2 ae 68 bd 04 5e f8 bc 94 aa b4 bc 4c 68 00 bd
       -0.056807466 -0.030318268 -0.022053994 -0.031349465
000370 5e 37 cd 3a ab db ae bc 03 a3 20 3d 05 b0 0f bc
       0.001565676 -0.02134498 0.03921796 -0.008769994
000380 ba 7b fe bc 33 9b ca bc a4 89 3f bd d4 7f fa bc
       -0.031064857 -0.024732208 -0.046762124 -0.030578531
000390 9b 75 ac 3c eb e8 ee 3c 55 dd 43 bc 3a df 1c 3b
       0.021052172 0.029163798 -0.011954625 0.0023936764
0003a0 c2 e2 ea 3c 3b 3b 02 3c ed a3 90 3b 89 ac 2c bd
       0.02867258 0.007948692 0.0044140727 -0.04215673
0003b0 8c 36 12 3d 70 01 09 bc ba d1 18 3c 80 cd 06 bc
       0.03569655 -0.008362159 0.009327346 -0.008227706
0003c0 05 48 cb 3c cb 8f 2c bd ef a3 4c 3c 25 b3 35 bd
       0.024814615 -0.04212932 0.012490257 -0.0443603
0003d0 b6 40 15 3d a9 ef bf bc 9e fc 8d 3c b6 d5 40 3c
       0.036438666 -0.023429709 0.017332371 0.011769703
0003e0 cd 77 0f bc 38 d8 7d bc d9 70 39 3d d3 92 d3 bc
       -0.00875659 -0.015493445 0.045273636 -0.025826847
0003f0 88 10 ae bc ee 6c da 3c 67 62 e2 3c f2 96 cd 3b
       -0.021248117 0.02666327 0.027634813 0.0062740976

conv_block_2.0.bias f4 [40]
000000 8b c0 76 bc 6e f9 8b 3c 94 32 f2 bc 6c 8f ee bb
       -0.015060554 0.01708671 -0.029565133 -0.007280281
000010 10 9b 6c 3c 5f e0 47 3d 6d 1c ec 3c 03 2a dd 3c
       0.014441267 0.04879796 0.028822148 0.026997572
000020 d8 5c 0b 3d ff 34 72 3b bb 7a 4e 3d 2b b8 95 bb
       0.03402409 0.0036957858 0.050410014 -0.0045690737
000030 51 fb 43 bd 5c 8b 61 3d 7c 7a 3b 3d 68 56 88 3b
       -0.047847096 0.055064544 0.045771107 0.004160691
000040 28 74 53 3d 8e 84 65 3c 3a 78 f5 3c d3 dd 3a bc
       0.051624447 0.014008654 0.029964555 -0.011405426
000050 6a 2f 45 bc 15 45 34 bc 8f 0a 59 bb f0 0c b0 ba
       -0.01203523 -0.011002799 -0.0033117866 -0.001343159
000060 f1 32 f6 3c 5c ba 76 3c 74 29 25 bd 55 b1 8f 3d
       0.030053588 0.01505908 -0.040322736 0.07016245
000070 7c 16 1a bd 7d d9 bc bb d1 d8 9d 3b 7d d7 ad 3c
       -0.0376191 -0.0057632313 0.0048171063 0.021220917
000080 b7 dc 96 bb db f4 34 bb 98 45 4f bd 67 ec 44 3d
       -0.004603948 -0.0027611766 -0.05060348 0.048077013
000090 b0 83 31 3d d7 ad 5c 3c 2b c1 ff bc 03 f2 15 bd
       0.043338478 0.013469181 -0.03122004 -0.036607753

conv_block_2.2.weight f4 [40, 40, 3, 3]
000000 19 bc 12 3d b9 3a 9b 3c 72 c3 1d bd e2 e9 8f 3c
       0.035823915 0.0189489 -0.03851647 0.017567579
000010 7a 7c 5b bd 7a ac d1 3c 11 62 8a bc ec 9a 3d bd
       -0.053585507 0.025594939 -0.016892465 -0.046290323
000020 92 a2 13 3b 5c c7 e1 bc b5 ae b4 bc eb e2 29 bd
       0.002252732 -0.027560882 -0.022055963 -0.04147617
000030 f6 5c 82 bd e7 d7 5e 3c df 4d de 3c 27 eb aa 3c
       -0.06365387 0.01360128 0.027136741 0.020864083
000040 e2 6a 8b bd 87 6f 13 bd a7 7e 31 bd 13 a3 4c bd
       -0.06807496 -0.035995033 -0.043333676 -0.049960207
000050 36 a6 c4 bc 65 76 b0 3c 18 13 24 3d d7 ed 2d 3c
       -0.024005037 0.02154083 0.04005727 0.0106157875
000060 9a 79 3e bd c9 9f 47 3d ef fd 3f 3d de 16 43 3d
       -0.046502687 0.048736367 0.04687303 0.04762923
000070 c0 73 4b bd 7c 76 fc bc 3e dd c8 bc 2c 30 3c 3d
       -0.049670935 -0.030818217 -0.024519559 0.045944378
000080 1a 4d 45 3d 90 18 bd 3a 10 a4 2a 3d 91 9d c5 3b
       0.048169233 0.0014426876 0.04166037 0.0060307463
000090 e4 f8 9a bc 78 7c 7e 3c a0 19 00 bd 1d d6 82 3c
       -0.018917508 0.015532605 -0.031274438 0.015971238
0000a0 0b a1 b1 3c 35 b4 49 3d 43 19 59 bd f7 92 4f bc
       0.021683237 0.049244124 -0.053002607 -0.0126693165
0000b0 e8 16 0a bc c9 31 b1 3c c3 59 35 3d 66 77 d7 bb
       -0.008428313 0.021630185 0.044275057 -0.0065755127
0000c0 f8 e0 8b 3b 1a 60 6e bd c7 4b 1a 3b 47 33 54 bc
       0.0042687617 -0.05819712 0.0023543702 -0.012951679
0000d0 ca 07 20 3d 98 ef a9 3b 6e e6 00 bc ee b8 f5 bc
       0.03906993 0.0051860325 -0.007867439 -0.029995408
0000e0 75 5c b5 3c 33 9d 1f bd 96 67 b5 3c 4e 29 cd 3b
       0.022138814 -0.038968276 0.02214412 0.0062610274
0000f0 7e fd d3 bc ab f6 4a 3d e7 88 91 3c 9b 45 9b bc
       -0.02587771 0.049551647 0.017765475 -0.018954089
000100 bd 26 05 3c aa 4d a8 bc 1c 80 21 bd d1 fc 06 3d
       0.008126912 -0.020544846 -0.039428815 0.03295595
000110 c4 a2 25 3d 0d 6b c8 bc fa cb 84 3c d6 c2 2e bd
       0.04043843 -0.024465108 0.016210545 -0.04266628
000120 73 3b 01 bd 63 a3 60 bd 38 b6 de 3c d6 8f 2b bd
       -0.031550836 -0.054843318 0.027186498 -0.04188522
000130 3d 28 84 bc 1c da ab 3c 55 db 2d bd 53 70 3a bd
       -0.016132468 0.020978026 -0.0424455 -0.045517277
000140 97 1f 0e 3d 61 dc 20 bc 8f cf 28 bd d2 df 12 3b
       0.034698095 -0.009818167 -0.04121357 0.002241124
000150 c8 12 24 3c 69 68 02 bd d4 8b b8 bc fa 15 0f bc
       0.010014243 -0.031837855 -0.022527613 -0.008733267
000160 24 85 3c 3c 24 60 32 3c 99 40 09 bd 32 82 35 3d
       0.011506353 0.0108871795 -0.03350887 0.044313617
000170 12 7f cd 3c c2 21 76 3d 23 86 1a bd 99 16 f0 3c
       0.025085006 0.060090788 -0.03772558 0.02930765
000180 82 92 89 3d 7d 61 8e bc bc 4e 95 3d 54 58 1a bd
       0.06717397 -0.01738047 0.07290408 -0.037681893
000190 06 c3 d0 3c ef ad 08 bd 1d 90 bf 3b ec 5b 34 bd
       0.02548362 -0.033369 0.005846037 -0.044032976
0001a0 40 a9 a1 bc 9d 0c c7 bc 99 28 20 3d 9a 7e 5d bd
       -0.019734025 -0.024298007 0.039101217 -0.054075815
0001b0 9b f0 29 3d dc fc 06 bd 36 6d d6 bb fe bf ef bc
       0.041489225 -0.03295599 -0.0065437807 -0.029266354
0001c0 aa a7 2c 3d a9 29 81 3a 9d c1 bf 3c 4c 98 4e 3c
       0.042152084 0.0009854335 0.023407752 0.012609553
0001d0 34 69 0f bb 7d 7c f2 3b 6c 09 50 bd 8b f1 f3 bc
       -0.0021882774 0.007400094 -0.050790235 -0.029778263
0001e0 b3 3f b4 bc 2e 5f 78 bd 25 0a 91 3c d2 8e 54 bd
       -0.02200303 -0.060637645 0.017705033 -0.051894017
0001f0 bc 39 31 bc f4 d3 3c bc fe cd 24 bc ad 33 6e 3b
       -0.010816988 -0.011525143 -0.010058878 0.003634672
000200 59 fe 83 3c aa 00 91 bc b8 d0 ef bc 58 dc 2c 3d
       0.016112493 -0.017700512 -0.02927433 0.042202324
000210 ec 35 b1 3a 6d 31 d7 bc c6 1a e2 bc bf 19 57 3c
       0.0013520098 -0.026268685 -0.027600657 0.013128697
000220 6e fe 81 bd e5 57 3d bc 1c 52 27 3d 53 a3 34 bd
       -0.06347357 -0.0115566 0.04084979 -0.04410107
000230 d9 0c f4 3c 95 fa ff 3c 92 1e c6 3c 7d 57 82 3c
       0.029791282 0.031247417 0.024184499 0.015910858
000240 4c 81 6d bc 29 bb 35 3c e0 9f 1b bd 20 75 84 3d
       -0.014496159 0.011091986 -0.037994266 0.06467652
000250 14 31 c9 38 84 2c 04 3c 0f 6f 22 3d f2 ca 2b bd
       9.5935684e-05 0.008067254 0.039656695 -0.04194159
000260 15 74 71 bd ed 92 fc bc bf 6b e2 3c e0 24 07 3d
       -0.058948595 -0.030831778 0.027639268 0.03299415
000270 d8 3d a5 3c c6 43 c5 bc 7b 26 6b 3c 65 cd 34 bd
       0.020171091 -0.024080168 0.014352436 -0.044141192
000280 81 78 d7 3b 14 cb 5a 3c 3f 24 e5 bc bc e1 58 bd
       0.0065756445 0.013354082 -0.027971385 -0.052949652
000290 e9 8f 06 bd c3 37 6b bc fd e0 6f 3b cc 3a 04 bb
       -0.032852087 -0.014356556 0.003660261 -0.0020176647
0002a0 08 de f9 3c aa 7f de bc b0 03 d1 3c a3 ad 05 bd
       0.03050138 -0.027160484 0.025514454 -0.032636296
0002b0 62 b8 04 3d 4e 98 b7 bc a9 74 f0 3c 70 43 62 3b
       0.032402404 -0.022411492 0.029352503 0.003452506
0002c0 52 f2 2b bb 48 71 53 3d d7 81 e5 3c 2a 54 32 bd
       -0.0026236963 0.051621705 0.028016014 -0.043537296
0002d0 d9 ba 9d 3c f6 dc 44 b9 9e b6 4d 3c 24 0e 83 bb
       0.019254135 -0.00018774331 0.012555746 -0.0039994884
0002e0 3c 11 40 3d 0b ce f8 3c 13 61 bb 3b e7 e9 08 bd
       0.046891436 0.030371686 0.0057183593 -0.03342619
0002f0 84 f9 39 3d e9 86 7a bd c5 c6 96 3c 9b a5 bc bb
       0.045403972 -0.061163817 0.018405328 -0.0057570464
000300 62 3d 57 3b cd e4 e1 ba e9 aa 65 bd 87 d6 20 bd
       0.0032842983 -0.0017234326 -0.056071196 -0.03926709
000310 e4 3a ec bc 61 26 8c bd 22 d9 01 3d 74 57 10 bd
       -0.028836675 -0.06843258 0.031701215 -0.03523965
000320 32 1c f1 bc bc ec af bc cd b3 c9 3c 22 4d 52 bb
       -0.02943239 -0.021475188 0.024621869 -0.0032089432
000330 77 ff ff 3c a0 79 05 3d ec 1e 03 3c 54 f7 43 3d
       0.031249745 0.032586694 0.008002978 0.047843292
000340 61 03 f4 3c 5b 9c 10 3d 6f 0b 6b 3d 3b 69 ce 3c
       0.029786767 0.035305362 0.05738395 0.025196662
000350 58 e4 3c 3d 61 d1 01 3d 79 1b 8a bc 37 67 bd 3b
       0.046116203 0.03169382 -0.016858803 0.0057801264
000360 17 cf 1d bd d8 7f f9 3c f3 7b 0c 3c 3f ed 5f bd
       -0.038527574 0.030456468 0.008574474 -0.054669615
000370 33 f7 0d 3d e0 3b cd 3c 3c ef 81 bb 9b 39 50 bd
       0.034659576 0.025052965 -0.0039652865 -0.050836187
000380 01 ce 18 bd 19 8c 81 bd ff f4 34 bd f1 ef 3a 3d
       -0.037305836 -0.0632555 -0.04417896 0.045638982
000390 de 6f 82 bc f5 d8 1c 3d 01 7b d1 3c 23 81 3b 3d
       -0.015922483 0.038292844 0.025571348 0.04577745
0003a0 6f 7d 7b 3c c3 34 0d bd 92 05 0f 3d a7 84 7b bd
       0.01534973 -0.034474146 0.03491742 -0.061405804
0003b0 4c 4c f2 ba bb 99 c8 3b 6a dc e3 3c a0 69 2c bd
       -0.0018485873 0.0061218417 0.027815063 -0.04209292
0003c0 82 d4 dc 3b 3d db a7 bb 67 d6 3e bd fa 9e 1c 3d
       0.0067392 -0.005122571 -0.04659119 0.03823755
0003d0 d5 c8 a7 3c 53 df 77 3d 67 42 0a bd e5 0b bd 3c
       0.020481506 0.060515713 -0.033754732 0.02307696
0003e0 7e 1d 7f 3d 82 80 e1 bc e9 e1 5f 3d 1b 00 b1 bb
       0.062283985 -0.027527098 0.054658804 -0.005401624
0003f0 e6 2b ff 3c 9f aa 80 bc 7b 11 1a 3d d7 eb 7d bd
       0.031148862 -0.015706358 0.037614327 -0.061992493

conv_block_2.2.bias f4 [40]
000000 62 24 ef bb 94 aa 5f bc 5a b3 8c 3d bc c7 98 bd
       -0.0072980383 -0.013651509 0.06870146 -0.07459971
000010 d1 f2 48 bd 71 73 4b 3d 49 52 84 3d f2 c2 b3 bc
       -0.049059693 0.04967064 0.06461007 -0.021943543
000020 c2 de 4a bd 29 c5 88 39 07 f1 ff 3b 64 f6 5c bd
       -0.049528845 0.00026086837 0.007810715 -0.053945914
000030 a9 e0 87 bd ae c1 fe 3b 08 38 a4 bb 2c 28 1c bd
       -0.066346474 0.0077745533 -0.0050115623 -0.03812425
000040 4f 50 35 3d 0b 45 cc 3b 53 0a c0 b9 97 fe 58 3d
       0.04426604 0.0062338165 -0.00036628786 0.05297717
000050 19 af 31 bd 7a 2e 24 bd 10 b4 d6 bc d7 24 d9 3b
       -0.043379877 -0.040083386 -0.026208907 0.006626706
000060 80 cb c4 bc 59 6b d5 bc 74 ca 7d bd f2 9f 18 bd
       -0.024022818 -0.026052164 -0.061960652 -0.03726191
000070 de 75 63 bd ae 8b 92 3c 2a 68 b1 3c f5 13 6b bd
       -0.05553233 0.01788887 0.021656115 -0.05739208
000080 e0 e9 96 bd a7 5b a5 3c bb 9d 35 bd 7e 08 b3 bc
       -0.07368827 0.020185305 -0.044339877 -0.021854635
000090 76 2b 15 3d 66 ed b4 3c 94 49 c2 bc 71 50 29 3c
       0.0364184 0.022085857 -0.023716725 0.01033412

conv_block_2.4.weight f4 [40]
000000 a0 8b 81 3f 8c 4f 82 3f ac 91 7e 3f 70 17 84 3f
       1.0120735 1.0180526 0.9944103 1.0319653
000010 96 43 82 3f a2 3c 81 3f b7 a2 7f 3f 2f e7 7c 3f
       1.0176876 1.0096629 0.9985766 0.9879026
000020 23 30 82 3f eb bf 81 3f 22 0e 82 3f 27 47 83 3f
       1.017094 1.0136694 1.0160563 1.0256089
000030 da 37 82 3f 8f b7 80 3f 73 27 80 3f 10 93 81 3f
       1.0173295 1.0056018 1.0012039 1.0123005
000040 d1 4c 7f 3f 23 2f 86 3f 09 e9 83 3f 28 eb 7f 3f
       0.9972659 1.0483135 1.0305492 0.99968195
000050 c8 4e 80 3f 32 6c 81 3f 29 84 80 3f b2 47 7e 3f
       1.0024042 1.0111144 1.0040332 0.9932815
000060 56 2a 82 3f 29 6c 83 3f 58 97 82 3f 17 1d 7f 3f
       1.016917 1.0267383 1.0202436 0.9965376
000070 db 9e 80 3f 08 df 80 3f e4 5e 81 3f 8f d1 7f 3f
       1.0048479 1.0068064 1.0107083 0.99929136
000080 9b 2b 82 3f 8f 2d 7f 3f 9a 43 82 3f c5 6a 81 3f
       1.0169557 0.9967889 1.017688 1.0110708
000090 53 6f 85 3f 11 c1 80 3f 05 27 82 3f f7 b5 81 3f
       1.0424598 1.0058919 1.0168158 1.0133656

conv_block_2.4.bias f4 [40]
000000 a4 07 e3 ba 00 12 4f bc b0 19 a0 bb 95 43 3a bc
       -0.0017321003 -0.012638569 -0.0048858747 -0.011368652
000010 23 7b 72 bb bc 2e 5d 3c 14 33 3d 3a da 96 27 bc
       -0.0036999665 0.013499912 0.0007217389 -0.010228837
000020 8a cf 5d 3b 1e 0e 07 3c c2 b4 7c bc 14 5c 95 bb
       0.0033845627 0.008243112 -0.015423955 -0.0045580957
000030 25 5c 82 bc 74 05 83 3b f2 04 37 3c ca c4 16 bb
       -0.015913079 0.003998453 0.011170613 -0.002300548
000040 16 08 f1 bb b5 51 78 bc 6a 3f 83 bc 8c 58 11 3c
       -0.0073557002 -0.015156199 -0.01602145 0.008871209
000050 5f 2c d6 39 ea ac 24 bc 77 51 14 bc c4 eb d1 bb
       0.0004085032 -0.010050992 -0.009052626 -0.0064062793
000060 96 07 77 3c 40 be c6 bb a3 12 fd 3b 97 5b d4 bb
       0.015077492 -0.00606516 0.007723169 -0.006480645
000070 ee 94 8e ba f5 f8 bf 3b 9f 19 24 3c 75 76 c4 3a
       -0.0010878125 0.0058585354 0.010015874 0.0014988916
000080 a3 a6 0a bc e0 98 66 3b 79 83 b9 bc 52 b7 9c 3b
       -0.008462581 0.0035186335 -0.022645699 0.0047825957
000090 c2 6d 92 bc 8c 70 da 3b 19 31 10 3b 14 44 e1 bb
       -0.017874602 0.0066662487 0.002200192 -0.0068745706

conv_block_2.4.running_mean f4 [40]
000000 0a 98 f8 3d 69 c5 63 3c 96 a9 ef 3d ad 66 cf bd
       0.12138374 0.013902047 0.11702268 -0.10127006
000010 79 52 83 3e 72 e2 b4 bd 14 32 f7 3a 0e 3a 44 3e
       0.2564886 -0.088322535 0.0018859529 0.19162771
000020 95 69 48 be 08 0b 7c 3e 36 41 bf 3e 2b 74 85 bb
       -0.19571526 0.24613583 0.3735444 -0.004072686
000030 35 4a c2 3c af 6f 9e 3d 21 84 06 be 59 4b 3b 3d
       0.023717025 0.07736146 -0.1313634 0.045726154
000040 78 0b 86 3d 4b 2b 13 bd 7d 69 da 3c 8f 3c a7 3e
       0.06545156 -0.03592996 0.026661629 0.3266339
000050 9f bf e2 bd 39 61 ca 3e c1 bd b5 3e f7 cc 77 3d
       -0.11071705 0.395273 0.35496333 0.060498204
000060 81 f8 89 bd 80 4d a7 3e 5f 75 3c be 5b 38 22 3f
       -0.067368515 0.32676315 -0.18404149 0.6336724
000070 b4 76 e5 3e a9 af 8e ba 38 5c bb 3e 6c 9d 10 3f
       0.44817126 -0.0010886091 0.36593795 0.56490207
000080 f2 11 58 bc c6 20 38 bc 94 44 20 bd ef d3 80 bd
       -0.013187872 -0.011238283 -0.0391279 -0.06290423
000090 c6 e4 ec 3e df f8 42 be 90 fe 40 be 30 43 6b bd
       0.4626829 -0.1904025 -0.18847108 -0.057437122

conv_block_2.4.running_var f4 [40]
000000 87 81 e4 3d 5a 31 af 3d d8 67 65 3e 2b 1a 02 3d
       0.11157518 0.08554335 0.22402894 0.031763237
000010 b5 47 6c 3e 18 dc d3 3c b1 f0 66 3d 19 c2 3a 3e
       0.23074229 0.025861785 0.056381885 0.18238105
000020 75 5c 39 3c 3b ab b3 3e 79 0d 45 3e 17 d8 74 3d
       0.011313547 0.35091576 0.1924342 0.05977639
000030 9f 6d 9d 3d 09 95 fd 3d 2e 36 06 3d 35 f1 57 3d
       0.07686924 0.12381942 0.032766514 0.052720267
000040 3c 68 cf 3d a7 76 fa 3c 38 d9 93 3d ee 29 55 3e
       0.10127303 0.030574156 0.072191656 0.20816776
000050 72 d4 0e 3d b5 14 5e 3e e0 59 c4 3e 7a 73 13 3e
       0.034870572 0.21687587 0.3834982 0.1439952
000060 e1 a4 6c 3d 67 9a 07 3f d3 51 55 3c 99 b6 3d 3f
       0.05777443 0.52969974 0.013019997 0.74106747
000070 1b bc b0 3e b3 eb 11 3e 4f 91 8c 3e 69 9d 93 3e
       0.34518513 0.14250068 0.27454612 0.28831032
000080 08 0f 28 3d 7f a0 74 3d 46 09 a0 3d a4 29 66 3d
       0.04102996 0.059723374 0.07814269 0.056192055
000090 84 98 82 3e b3 5d 9e 3c c1 a8 42 3c 8a c8 e4 3c
       0.25506985 0.019331789 0.011881054 0.027927656

conv_block_3.0.weight f4 [40, 40, 3, 3]
000000 27 a8 19 3d 27 30 04 3b 5d 2d 84 3d 15 a5 29 bd
       0.03751388 0.0020170303 0.06453965 -0.0414172
000010 24 90 64 3d 43 0a 48 bd d5 9d d5 3b 2f 7d 16 bd
       0.055801526 -0.04883791 0.006519059 -0.036740478
000020 26 42 99 3c 38 3c a8 bc ca fa fa 3c 1c 9a 53 3b
       0.0187083 -0.020536527 0.030637164 0.0032287901
000030 96 74 2c bd d0 ab 80 3d e8 e3 68 3b 14 d3 2f 3d
       -0.042103373 0.06282771 0.0035536233 0.04292591
000040 5b 65 a2 3c 8e 66 43 bd 89 16 51 bd e0 b3 1f bd
       0.01982372 -0.047705226 -0.05104688 -0.0389899
000050 83 ce 9d 3c 98 7d 39 3d 32 32 d6 bb b8 67 09 bc
       0.019263512 0.04528579 -0.0065367455 -0.008386545
000060 52 11 54 3d ac 18 2a bc 1b d2 77 3d 5c 0d 34 3d
       0.05177433 -0.010381859 0.060503107 0.043958053
000070 ac ea 93 3d b5 e4 e5 3c 37 83 06 3d 04 50 86 3d
       0.072224945 0.028063158 0.03283998 0.065582305
000080 47 a4 4c 3d f4 f8 28 bd ed 40 10 3b 9d 9a 2e 3d
       0.049961355 -0.041253045 0.0022011355 0.04262792
000090 88 48 ec bc 1b 36 e5 3c 78 38 23 bd 99 12 44 3d
       -0.02884318 0.027979901 -0.039848775 0.0478693
0000a0 df b4 09 bc 1c df 34 bc e9 8c 2c 3d f0 c1 b2 bb
       -0.008404939 -0.011039522 0.04212657 -0.005455248
0000b0 4c ca 33 bd 38 78 dd 3c 21 8a 0e 39 d9 5b 5c 3d
       -0.043894097 0.027034864 0.00013593632 0.05379853
0000c0 e0 b4 4d bd 56 93 23 bd e1 66 11 3d a2 66 e2 bc
       -0.050221324 -0.039935432 0.035498504 -0.02763683
0000d0 ff 04 41 bc 15 33 88 3d c9 39 61 bc ad f4 cc bc
       -0.011780976 0.06650368 -0.013746687 -0.025019014
0000e0 5c 86 d2 3c 92 33 fe 3c e6 50 f8 bb 99 1f 1b 3d
       0.025698833 0.03103045 -0.007578003 0.03787193
0000f0 1e b4 3d 3c 7b 8f 82 3c 77 9e b9 bc e3 e6 68 bc
       0.011578588 0.015937557 -0.02265857 -0.014215204
000100 f6 04 9f bc 66 5a 03 3d 8e f1 30 bb 4b b9 2b 3c
       -0.019411545 0.032068633 -0.0026999447 0.010481189
000110 c0 7b e4 3b 4d eb 2f 3b c1 a1 ad bc f8 59 23 3d
       0.00697276 0.002684313 -0.021195294 0.039880723
000120 5b 59 44 3d 5b 4d 26 3d 79 6a e1 3b 95 db 2e 3d
       0.04793678 0.040601116 0.0068791476 0.04268988
000130 d2 d1 a3 bb 7d f0 06 bd eb 81 f4 bc 91 a4 e4 3c
       -0.0049993778 -0.03294419 -0.029847106 0.027910503
000140 a7 6b 71 bc 57 1a a8 3c 0a 47 0c bd 68 c1 65 bc
       -0.014735139 0.020520372 -0.034247436 -0.014023162
000150 60 ac f9 bc 5a ea dd bc 5f e8 75 3d a0 77 fc 3c
       -0.030477703 -0.027089287 0.06003606 0.03081876
000160 2d b9 17 3c 19 26 74 bc 17 49 2f 3d e6 1d 62 3d
       0.009260458 -0.014901661 0.042794313 0.055204295
000170 e6 90 e1 3c 40 df ed bc a0 96 84 bc d3 03 55 3d
       0.027534913 -0.029037118 -0.016185105 0.0520056
000180 bf ce 51 bd ca f2 7e 3b f6 21 dd 3c b3 b2 80 3d
       -0.05122256 0.0038902038 0.026993733 0.06284084
000190 91 9c 00 3d 6f 54 94 bc c0 82 64 3c ae a0 42 bd
       0.031399313 -0.018106667 0.013947189 -0.047516517
0001a0 9a 24 9f bc 4a a3 cd bc f2 af 00 3d 16 7c 80 bd
       -0.019426633 -0.025102276 0.031417795 -0.062736675
0001b0 61 03 c5 3b 87 61 06 3d aa 3f bc bb ab 91 66 3d
       0.0060123657 0.032807853 -0.005744894 0.056291264
0001c0 8a 56 ec bc c7 8f 6c 3c 07 f8 be bc bd 36 cc 3c
       -0.028849859 0.014438576 -0.023311628 0.024928445
0001d0 13 4e 40 bd 98 3f 40 bd 3c 91 1b ba 24 e1 30 3d
       -0.046949457 -0.046935648 -0.00059344224 0.04318346
0001e0 e5 ad 1f bd 92 50 19 3d ae ba e0 3b 96 2c 51 3c
       -0.038984198 0.037430353 0.0068581915 0.012766978
0001f0 1c 0a 3c ba 51 4d 46 3d cd 8c 8b bb 9e fd 63 bd
       -0.0007173137 0.04841358 -0.004258728 -0.05566179
000200 35 16 e8 3c e2 f1 ba bc a9 1c 55 bd e6 fc f2 bc
       0.028330902 -0.022820417 -0.052029286 -0.029661607
000210 85 4d 71 bd ac 5d ee 3c e7 3d 24 3d 0e 12 6f bd
       -0.05891182 0.0290974 0.040098097 -0.058366828
000220 93 9d 3c 3d 97 e2 13 bd 33 65 55 bd f6 4c da bc
       0.046048712 -0.036104765 -0.052098464 -0.026648026
000230 09 b6 d9 bb 2f 5c 37 bc d3 e3 f6 3c 7e c6 b4 bc
       -0.0066440147 -0.011191412 0.030137932 -0.022067305
000240 e1 39 9b 3b 28 e2 90 bc af 02 c6 3c 05 55 23 bd
       0.0047371243 -0.017685965 0.024171202 -0.039876003
000250 ab f2 2f 3c fd 4e e3 3c d5 ec d8 3c 52 bb 0c bd
       0.010739009 0.027747625 0.026480118 -0.03435833
000260 64 ec 0a bd ee 7d 80 3c 82 d5 9a 3d f6 bd 43 3c
       -0.033916846 0.015685048 0.07560255 0.011947146
000270 91 52 1f bd b7 b9 2f 3c 8e 4f 8f 3c 7f 74 3f 3c
       -0.0388971 0.01072543 0.01749399 0.01168549
000280 76 bb d2 bd e3 32 d4 bc c8 e3 21 bd 05 78 32 bc
       -0.102896616 -0.02590317 -0.03952387 -0.010892873
000290 18 07 09 bd 7c 3a 93 3c b8 49 98 bc 95 6f 8b bc
       -0.03345403 0.017972223 -0.01858984 -0.01702098
0002a0 b4 5b f8 3c 56 ee 37 3d e9 db 08 3c 49 71 0e bd
       0.030317165 0.04490503 0.008353212 -0.034776006
0002b0 0e 6a fc 3a be 48 bd 3c bd 7c 45 bd 7c 0d 54 3d
       0.0019257681 0.023105975 -0.048214663 0.051770672
0002c0 2f 51 14 3c 26 54 5d bc 38 a0 4c 3d 00 e6 c4 3a
       0.009052559 -0.013508832 0.049957484 0.0015022159
0002d0 64 f4 aa 3c 6e 51 61 bd f1 d3 0e 3d 63 fb 12 bd
       0.020868488 -0.055009298 0.03487009 -0.035884272
0002e0 0b 0c f6 bb 19 11 40 bc 23 00 05 b9 12 64 f6 bc
       -0.00750876 -0.011722826 -0.0001268392 -0.030077014
0002f0 85 dc e8 bc d4 bf 7d bc 12 9e 1d bd b6 c8 78 bc
       -0.028425464 -0.01548763 -0.038480826 -0.015184572
000300 b7 66 2f 3d 4f 17 0c 3d 67 ab b7 bc ae 32 1d bd
       0.042822566 0.034201916 -0.022420598 -0.03837841
000310 d4 62 60 bd 5d 99 48 bd 07 f7 72 bc 06 70 f6 3c
       -0.05478175 -0.048974384 -0.014829404 0.030082714
000320 01 2a f7 bb 06 28 49 bd f8 fa 66 3d b6 57 95 3c
       -0.007542849 -0.049110435 0.056391686 0.0182303
000330 6d 26 5a 3d 09 3e b1 3c 4f bc 65 3d 5d 33 c7 bc
       0.053259302 0.021636026 0.05608779 -0.024316484
000340 40 b6 0f bd 62 44 ca 3c 52 3c f5 3a 1e bf 62 bc
       -0.035085917 0.02469081 0.0018709993 -0.013839511
000350 ab fc e0 3b e1 21 6f 3a 96 cf a5 3c 2a 0c 9a 3a
       0.006866058 0.0009122175 0.020240586 0.0011752893
000360 8a 23 01 bd 93 e2 08 bd be b8 96 bb ad ce 63 3c
       -0.031528033 -0.033419203 -0.0045996597 0.013904256
000370 e1 67 e1 3c 50 7a 0a bb 21 6b 62 3c bf fe 19 3d
       0.027515354 -0.0021130033 0.013819487 0.03759646
000380 51 85 6b 3d 8b 6e bf bc 29 a7 de bc 6e 61 67 bc
       0.057500187 -0.02336814 -0.027179318 -0.01412235
000390 b0 37 23 3d b8 9b 7f bd 06 1e 6f bc 32 2a 00 3d
       0.03984803 -0.062404364 -0.0145945605 0.03129024
0003a0 00 b1 4c bd 47 c3 41 ba f1 f8 e7 ba b9 fb c1 3c
       -0.049973488 -0.00073914643 -0.0017698092 0.023679601
0003b0 ce d2 b6 bc 6b b3 29 3b 70 22 88 3d 0d e5 2d 3d
       -0.022317316 0.0025894295 0.066471934 0.042454768
0003c0 af 94 e1 bb 4d 32 83 3c 1c 94 81 3d 20 33 cd 3b
       -0.0068841795 0.016015196 0.06327078 0.006262198
0003d0 db 73 0d 3d eb c1 4d bb 18 19 72 3d b0 c3 8f 3c
       0.034534317 -0.0031396102 0.059105963 0.017549366
0003e0 68 a2 16 3d 03 ac a6 bc ce 54 54 3d de a8 b9 bb
       0.036775976 -0.020345693 0.05183869 -0.0056658825
0003f0 57 40 9a bc 36 fc 90 3d 66 44 01 3d e2 ed 6b 3d
       -0.018829508 0.070793554 0.03155937 0.05759991

conv_block_3.0.bias f4 [40]
000000 f4 ad 5a 3d 6a 3d 59 ba 46 f2 9f 3a 53 4e 35 bd
       0.05338855 -0.00082870445 0.001220294 -0.04426415
000010 21 6f 6c bd b9 6e 2c 3d fa 6f 35 3b be 4c 04 bd
       -0.05772317 0.04209778 0.0027685151 -0.03229975
000020 3d 53 31 3d ab f3 11 3d 8f f6 e7 3c 39 0b 06 3c
       0.043292273 0.03563277 0.02831581 0.008181387
000030 fe 5f 86 3d 3e 41 11 b9 0b 8a 6a 3d 35 ef 75 3d
       0.06561278 -0.00013852582 0.057260554 0.06004258
000040 85 20 c7 3c 06 70 31 3d b0 e6 b3 3b 26 b4 c8 3b
       0.024307499 0.043319725 0.0054901466 0.006124991
000050 1e 28 02 3d c5 f4 e1 bc f9 e2 5c 3d 6e d3 19 bd
       0.03177654 -0.027582536 0.053927395 -0.03755515
000060 1e a8 88 bd 45 6a 81 3d 42 a3 d8 bb b1 57 25 3d
       -0.06672691 0.063190974 -0.0066112587 0.040366832
000070 88 1a 21 bc a8 aa 84 3c 31 db eb bb 7d a5 29 3a
       -0.009832986 0.016194656 -0.0071977605 0.0006471498
000080 00 ca 7f 3c 97 7e a8 3c 98 c9 81 3d 5f 92 14 bb
       0.015612125 0.020568175 0.06337279 -0.0022670252
000090 b4 1d 1e 3d 2f d2 d5 3b 85 29 41 3c fd 6f 6f 3b
       0.038602546 0.0065253 0.011789684 0.0036535256
