disease_model_state_2_test.pth (torch, 981627 bytes, 50 tensors)

conv_block_1.0.weight f4 [40, 3, 3, 3]
00000000: 321c 0f3e 4c10 1a3e 12da 5fbd 0583 2d3e
00000010: 0e70 4cbd 2723 f93c 6531 cbbd 9e64 d63d
00000020: e956 253e 8991 11be 5fb1 283e 2fc3 083d
00000030: 046b 103e 5957 cc3c a7e1 ba3d 777f dbbc
00000040: 68b9 153e 9cd2 da3c 9180 c8bd 06bf 213d
00000050: 3e90 c9bd 3587 fcbc d164 b0bd d981 f33d
00000060: 4223 22be 0ade c7bd 7307 81bd 2efc f5bd
00000070: a42f 4a3c c71b 49be 0139 2d3e 1ab2 2bbe
00000080: ac3b 113e bd0c e73c 074f 88bd 26e4 e33d
00000090: e1e1 003d fb45 1f3e ee00 a43c 8bdd 71bd
000000a0: 783a 5c3d 9181 5abd 5154 aa3d 49dc 313e
000000b0: 1b1b df3d f764 b2bd 9546 da3d 8f09 ee3c
000000c0: 406f c13d fbf5 f5bd c99e 48be c1bb 9dbd
000000d0: 1c63 1abe 0d91 1a3e fbb2 893d 7963 b23d
000000e0: b964 7a3d 7330 fb3a 2828 1c3e 1776 0ebe
000000f0: e552 653c 02d3 05be cf08 7f3d 26e8 63bd
00000100: d90d 873d a3d9 24bd 0a51 283e fe82 e6bd
00000110: 5454 f0bd ff29 e7bd 438e 323e 7599 8c3d
00000120: f92d 4b3e 7184 18be ecff 40be bdf0 12be
00000130: 36e6 00be 63fd 9d3d dc61 923d dde1 253e
00000140: a48a c1bd 3e3a eebd baaf ee3d 2992 60bd
00000150: 2f15 063e 23a9 09bd cc8e 053e 678f 0dbe
00000160: 723f b5bd fddb 9b3d 6e61 6e3d 87ea 0bbd
00000170: 7ae9 0b3e 4892 163e bd27 03be f6e6 acbd
00000180: ebee 3f3e d737 70bd cfc0 5ebd 4c87 2fbe
00000190: 1be1 c5bd 739b 8c3d 0a60 32bc 2553 03be
000001a0: 3cfc bd3c c1ab f3bd a97a 1ebe b2eb b6bd
000001b0: 4046 41be 37e7 16be bd1b 323e 5cbd 763c
000001c0: dc25 0e3d f993 48be 9b4a 14be 635e b2bd
000001d0: 743b 833c 1718 3dbe d1b3 d0bd c98f 02be
000001e0: 1fa4 77bc 7756 b7bd 5b61 bdbc 5c1f 12be
000001f0: 266c 17be 9eef f3bd a187 a1bd 4b86 2dbe
00000200: 24ed 173e 54cc 5ebd 874c 163e 5202 483d
00000210: 8a67 35be ec21 eb3d 289a 80bd d5b8 9bbd
00000220: 89ba 26be 8274 45be 4b08 603d 9387 2ebd
00000230: 7829 973d 7232 1fbe 1275 153e 8ba3 0ebe
00000240: 7a7e e7bc 72a3 383d 3696 d83d 451f 253e
00000250: ef5a 3a3e c5d8 15be 682d 653d 3412 98bd
00000260: fc91 5abc da54 16be 9c78 303e c490 11be
00000270: 1be9 d03d 4c33 893d fa01 7e3d 7d25 d3bd
00000280: 8621 353e ec0f 343d 6eb4 053d e826 27be
00000290: 4d69 b33d acd2 b1bc 33f6 acbd ccbc 2c3e
000002a0: 1629 4b3d c23d d6bd 0535 c8bd 591d 03bc
000002b0: a9f9 db3d 9043 43bd 7dd7 debd 7ff4 8abd
000002c0: 07b4 14be 3080 903d 99ce 153e 7d46 3dbe
000002d0: ce78 4f3d 70b6 d53d 1441 273d 6501 82bd
000002e0: 2ee3 d23d adc0 d43d 1dd7 9c3d f88c 08bd
000002f0: 1263 53bd a517 e23c 10f9 c3bc 14a0 61bd
00000300: 3dde 0b3e 8d49 363e 4033 4ebc 3927 16bd
00000310: 96a2 ff3b 28d1 1cbc d053 3f3d 1f2a 693d
00000320: efd0 37be 4840 83bd f44b 2b3e fd29 983d
00000330: 7769 18bc 0e28 f1bd 814e fabd fd1d 2fbe
00000340: 2aaf 70bd f88c 7d3d 6ead 043e 8399 c03d
00000350: 497a 2dbe 91d7 eabd e54b fcbc a514 3c3e
00000360: 1391 0e3d a066 23bd 4293 b83d 5a4a 91bd
00000370: 3618 f6bd f5d8 163e 931b b1bd 1896 0ebd
00000380: 84ec 3fbe 49ae 113e fefd 263e a098 b33d
00000390: 5122 00be 1e1d 36be 6516 12be 3dbc 183e
000003a0: 33ce d03d 98e1 2f3e cfa3 e73d b5a9 813d
000003b0: f37b 5b3c e282 0dbe 5749 1dbe 73d0 2abe
000003c0: e730 ae3d 4044 adbd 83cc e4bc 112b edbd
000003d0: edb1 09bd e70e ffbd 356b fdbd 2bf8 9a3d
000003e0: 7c6c 28bd 7b90 f13d 0ebc 42bd 3754 f8bd
000003f0: dc1b f6bc f483 acbd b839 25bd ac27 30be
0.139756 0.1504528 -0.054651327 0.16944511 -0.04991155 0.03041227 -0.09921531 0.1046841
0.16146435 -0.14215674 0.16473912 0.033389267 0.14103323 0.024943994 0.09125071 -0.026794178
0.14621508 0.026711755 -0.09790147 0.039488815 -0.09841965 -0.03082619 -0.08612979 0.11890001
-0.15833762 -0.097591475 -0.06300249 -0.1201099 0.01234046 -0.19639502 0.16916277 -0.16767159
0.1418292 0.028204316 -0.06655698 0.111275 0.031465415 0.15554039 0.020019975 -0.05904917
0.053766698 -0.05334622 0.08316863 0.17369188 0.10893842 -0.08710664 0.10657994 0.029057292
0.094450474 -0.12009808 -0.19591822 -0.07701827 -0.1507687 0.15094395 0.06723591 0.08710379
0.061131213 0.0019164219 0.15249693 -0.13912235 0.013996814 -0.13068774 0.06226426 -0.055641316
0.06594438 -0.040246617 0.16437164 -0.112554535 -0.11734834 -0.11287307 0.17437081 0.06865207
0.19841756 -0.14894272 -0.18847626 -0.14349647 -0.12587819 0.07714345 0.071475714 0.16199441
-0.09450272 -0.116322026 0.11654611 -0.05482689 0.13094018 -0.033608567 0.13042754 -0.13824235
-0.08849992 0.07610319 0.058198385 -0.03415921 0.13663283 0.1470424 -0.12808128 -0.0844249
0.18743484 -0.058647003 -0.054383095 -0.17141455 -0.09662076 0.06865587 -0.010887155 -0.12824686
0.023191564 -0.11897994 -0.15476479 -0.08931674 -0.18874454 -0.14736639 0.17393394 0.015059795
0.034704074 -0.19587697 -0.14481585 -0.08709409 0.01601956 -0.18466221 -0.10190547 -0.12750162
-0.015114813 -0.08952039 -0.023117712 -0.14269775 -0.14787349 -0.11910938 -0.07887197 -0.1694576
0.14836556 -0.05439408 0.1467763 0.048830338 -0.17715278 0.114810795 -0.06279403 -0.07603613
-0.16282095 -0.19282725 0.05469541 -0.042609762 0.073809564 -0.15546587 0.1459544 -0.13929574
-0.02825855 0.04507775 0.105755255 0.1612521 0.18198751 -0.14633472 0.055951506 -0.07425347
-0.013340469 -0.14680806 0.17233509 -0.1421538 0.10200711 0.06699237 0.062013604 -0.10309885
0.1768857 0.043960497 0.032642774 -0.16323435 0.08760319 -0.021706901 -0.08445396 0.16868895
0.04959973 -0.10460998 -0.09775738 -0.0080026025 0.10740978 -0.047671854 -0.10880945 -0.06784915
-0.145218 0.070557 0.14629592 -0.1848392 0.050652318 0.10435188 0.040833548 -0.06347922
0.10297237 0.103883125 0.07658217 -0.033337563 -0.051608153 0.027599165 -0.023922473 -0.055084303
0.13658996 0.17801495 -0.012585461 -0.0366585 0.007801364 -0.009571351 0.04671079 0.056924935
-0.17950796 -0.06408745 0.16728193 0.07429884 -0.0093024885 -0.11775218 -0.12222005 -0.17101283
-0.0587608 0.061902016 0.12956783 0.0940428 -0.1694118 -0.11466897 -0.030797908 0.1836725
0.034806322 -0.039892793 0.09012462 -0.070942596 -0.120163366 0.147312 -0.086478375 -0.03481111
-0.18742567 0.14226641 0.16307828 0.08769345 -0.1251309 -0.17784545 -0.14266355 0.14915557
0.101955794 0.17175901 0.11310541 0.06331197 0.013396251 -0.13819459 -0.15360008 -0.1668108
0.08505421 -0.08460283 -0.02792955 -0.1158048 -0.03361695 -0.12454014 -0.12373964 0.075668655
-0.041119084 0.117951356 -0.047542624 -0.12125438 -0.030042581 -0.084236056 -0.040338248 -0.17202634

conv_block_1.0.bias f4 [40]
00000000: 4444 d8bd 5e5d 95bd b350 0bbe b5c0 2dbe
00000010: 8771 4e3b da03 063e bdcd 3f3e c6b8 f23d
00000020: ca8d dcbd 88b8 55be 081e 843d 015c dd3d
00000030: 8871 2abe 10fa bc3d d174 443e 5b6f a2bb
00000040: 5187 e9bd d341 2f3e 2cc4 b93d 0a39 213e
00000050: 291f 07be 94c0 e73d ce4d 03be ca7b 2e3e
00000060: 942c a0bd 1aaa ee3d 16dc 3b3d 7a21 8b3d
00000070: 440a 13bd 72f1 d53d 2add babd beec 36be
00000080: 3114 c6bd d692 1c3e f2e3 82bd 946f 833d
00000090: a006 8ebd c077 063e d8f6 053e d5bf 9a3d
-0.10559896 -0.07293199 -0.13605003 -0.16968043 0.0031500773 0.13087407 0.18730827 0.11851649
-0.107692316 -0.20871174 0.064510405 0.10808564 -0.16644871 0.09227383 0.19185187 -0.0049571223
-0.11402763 0.17114954 0.0907062 0.15744415 -0.1319548 0.11316028 -0.12822649 0.1703941
-0.078210026 0.11653538 0.045864187 0.067934945 -0.035898462 0.10446443 -0.09124215 -0.17863747
-0.0967182 0.15290388 -0.06391133 0.06417766 -0.06934857 0.13131618 0.13082445 0.0755612

conv_block_1.2.weight f4 [40, 40, 3, 3]
00000000: dbd8 b5bc 5eec 29bd 34a3 f13b 7f9f c7bc
00000010: f063 383d 19dc 28bd f281 103d 42f2 793d
00000020: 3567 0b3d 3fa4 c43c d535 45bd 2948 663d
00000030: 0688 af3a b457 1fbd 7929 813d 4ac1 eabb
00000040: 4e29 693c 5850 5e3d a9de 04bd b9a6 2bbd
00000050: c1a1 bcbb 6c96 0cb8 70f6 283c 7cd2 4ebd
00000060: 78f5 4c3c a20e b4bc b638 02bd 74cd 4fbd
00000070: 2c09 063d 6b6d 2a3c df10 2fbd 5a3b 5b3d
00000080: 5f84 a23c 299e 2a3c cc9a b4bc 7c54 e93b
00000090: 0733 573d 1c4e 383d c758 efbc 9bbd 483d
000000a0: 6c90 613c 6308 143d be7c 213d 8e55 453d
000000b0: 4451 0cbd a748 143d b7df 28bd 64b6 44ba
000000c0: 94f8 1bbd a47f 98bc 8f46 b0ba 1186 9aba
000000d0: 349a 29bc f8c6 063c be1e 603d 7888 1a3d
000000e0: 557a f83c 8882 9e3c ee55 173d 89aa 0abc
000000f0: 6650 09bc 759f 8f3a 9bc6 55bd 4486 84bd
00000100: e39a 53bc 99b8 15bd 76bd a5bc 0897 d0bc
00000110: cf1f 42bc 958d e33c 94e1 0abd 6eed ba3c
00000120: a90d 643d ac4a e4bc 8aa4 13bd 2a64 16bd
00000130: 0a76 8bbc 3baf 69bc b033 d2ba ceb6 aebb
00000140: 7618 c9bc 7242 70bc e6fa a7bc bf99 583d
00000150: 0c88 0bbc 03c8 0cbd 2244 bf3c e88b de39
00000160: c8ac 1e3d 8ad0 1d3d 8ed9 303d a62f 17bd
00000170: 2e27 033d ffba 153d c820 b0bc 5f30 393d
00000180: cfa7 063d 78d3 c83a c827 8e3c 62da 8bbc
00000190: afbf 40bd 3d31 c03c 3b86 1f3c ff6c 04bd
000001a0: f04a 153d 68b3 2cbd 60fa 4a3d 89b8 763d
000001b0: a97c ca3c 0e17 a9bc 6ed8 1f3d 9410 b53c
000001c0: ff5b e23c 6222 013d 098c 423d 4fca 6abc
000001d0: b13f 98ba 3c8b d23b 4bc0 203a 0a28 443d
000001e0: 83b5 2fbd 9332 24bc 37d6 0e3c b7a3 0abd
000001f0: 6d5e c53c 65aa aaba 684b 61bd 5739 59bb
00000200: 5a9d 95bc a2b1 9eb7 a7a2 9bbc 72e6 34bd
00000210: f82a f2bc 485e 61bc 670c 4f3b da75 513d
00000220: 46b8 03bc ee2b 043d 909a 6d3c 81dc 2cbd
00000230: b3fa 433c 0e56 2b3d 252f 0ebd 7505 1abd
00000240: 1a72 683d 6ed9 2c3d 2298 33bd bd8e 393d
00000250: f061 b3bb 1792 6fbd 995f a63c 04f2 bc3c
00000260: e270 92bc 79fa 963c f6c7 23bd dd25 1d3d
00000270: 96c4 3b3d b81b 083d f92a 2f3c 5e5f a93c
00000280: 3c1d 15bd 6557 5fbc 2be9 9d3b b24f c2bc
00000290: e4ac 02bd a9b9 213d 0b84 293d b170 33bd
000002a0: c439 d33c 760a df3c 88ea 533d 3e9e 013d
000002b0: 22f1 553d 942a 09bb 5248 203d 66cb 603d
000002c0: aead fdbc 5018 0ebd 4708 ea3c beef 2d3d
000002d0: 8aa0 babc 3910 a23a 87f2 c93a f15d 8d3c
000002e0: e442 04bd f6b4 023d 1687 373d f1a6 35bd
000002f0: 2c7d 853b f74c af3b a9a9 b43c dc8f 503d
00000300: 584b d13c c669 8ebb 88c9 4d3d 7b96 88bc
00000310: 7874 f7bb 0d5d 203c ca04 37bd 1a2c 5e3b
00000320: 661b 02bd d223 0e3c 3497 3b39 3b28 9d3c
00000330: 38bb 4ebd b8f7 6bbd 05ff 283d f135 423d
00000340: f7da 1cbd 97b6 bb3c 0612 16bd 8786 493c
00000350: aab0 4f3d 97e8 213d 0579 0bbd 0a82 f63c
00000360: b683 0b3d 2311 d3ba 16c3 5c3d 42f5 84bc
00000370: 4e62 8abc e0f7 cabc b190 1a3b e486 9239
00000380: 4fd9 673c fad6 90bc 53ea 93bc 3871 9d3c
00000390: 70d1 1dbd 7378 ecbb b6b8 46bb ee07 85bc
000003a0: ac97 a43c 95f0 d93a 69ed cb3c aff7 5fbb
000003b0: 882f debc f30b ec3c f10a 0b3b 6188 48bc
000003c0: 21bb 27bd 8f96 a13b f87b 50bd 83de 693c
000003d0: 06be de3c d4a2 25bd d521 04bd 718c 1fbd
000003e0: 8eac 4a3d 5f51 3d3d d00c 323b 52bd 713d
000003f0: 2944 6fbc 217c 4abd 96b4 403c b60f ea3c
-0.022198131 -0.041485183 0.0073741917 -0.024368046 0.045017183 -0.041225526 0.035280176 0.06102205
0.034033973 0.0240041 -0.04814704 0.05622116 0.0013391979 -0.038902 0.063067384 -0.007164155
0.014231039 0.05427584 -0.032438908 -0.041907046 -0.0057565873 -3.3518692e-05 0.0103126615 -0.050493702
0.012509696 -0.021979634 -0.031792365 -0.050733045 0.03272359 0.010402064 -0.0427407 0.0535234
0.01983851 0.010413685 -0.02204647 0.007120667 0.052538898 0.044996366 -0.029217137 0.049008947
0.013767343 0.03614081 0.039425604 0.048177294 -0.03425719 0.0362021 -0.041228976 -0.0007503985
-0.03807886 -0.018615551 -0.0013448762 -0.0011789222 -0.010351706 0.008226149 0.054716818 0.037727803
0.03033177 0.019349352 0.036947183 -0.00846351 -0.008380985 0.0010957556 -0.052191358 -0.06470922
-0.012915346 -0.036553 -0.020231944 -0.025462642 -0.011848404 0.027777473 -0.033906534 0.022818293
0.05567709 -0.027867638 -0.03604559 -0.036716618 -0.017024059 -0.01426297 -0.0016037133 -0.0053318506
-0.024547797 -0.014664279 -0.02050538 0.052881 -0.008516323 -0.034370434 0.023347918 0.00042447378
0.038738996 0.038528956 0.043176226 -0.036910675 0.032019787 0.036555286 -0.021500006 0.045212146
0.03287488 0.0015321812 0.017352954 -0.017071906 -0.047057804 0.023460979 0.009736593 -0.03233051
0.03644842 -0.042163283 0.049555182 0.06023458 0.024717646 -0.020640876 0.039024763 0.022102632
0.027631758 0.03152693 0.04749683 -0.014330461 -0.0011615661 0.0064252894 0.00061321695 0.047889747
-0.042897712 -0.010021823 0.008718065 -0.033847537 0.024092877 -0.0013020752 -0.055003554 -0.003314575
-0.018263508 -1.8917784e-05 -0.018998457 -0.044165082 -0.029561505 -0.013755389 0.0031593086 0.051137783
-0.00803954 0.032268457 0.014502183 -0.042202476 0.011961627 0.041830115 -0.03471293 -0.03760286
0.05674944 0.042199545 -0.043846257 0.04530214 -0.0054743215 -0.05848893 0.020309256 0.02306462
-0.017876092 0.018429982 -0.03998562 0.038366187 0.045841776 0.03322956 0.010691398 0.020675357
-0.036404833 -0.013631676 0.0048190556 -0.023719642 -0.031903163 0.0394837 0.04138569 -0.043808643
0.02578438 0.027226668 0.05173734 0.031645052 0.052231915 -0.002092992 0.03913147 0.054881476
-0.030966606 -0.034691155 0.0285684 0.042464964 -0.02278163 0.0012364454 0.0015407362 0.017256709
-0.032290354 0.03191086 0.044806562 -0.04434866 0.0040737595 0.005349751 0.022053557 0.050918445
0.025548622 -0.0043461053 0.050241023 -0.016673317 -0.007551726 0.00978781 -0.0446823 0.0033900798
-0.03176441 0.008675532 0.00017890037 0.019184222 -0.050471514 -0.05760929 0.04125883 0.047414724
-0.03829476 0.022914214 -0.036638282 0.01230014 0.05070559 0.039528456 -0.03405096 0.030091304
0.034061156 -0.001610313 0.053896986 -0.01623023 -0.016892578 -0.0247764 0.0023584778 0.0002794779
0.0141509315 -0.017680634 -0.01805607 0.019219026 -0.038529813 -0.007216507 -0.0030322499 -0.016239133
0.020091854 0.0016627485 0.02489348 -0.003417473 -0.027122274 0.028814292 0.0021216238 -0.0122395465
-0.040949944 0.004931278 -0.050899476 0.014274242 0.02719022 -0.040438488 -0.032258827 -0.038952295
0.049480967 0.04622018 0.0027168281 0.05901844 -0.014603653 -0.049434785 0.011761805 0.028571945

conv_block_1.2.bias f4 [40]
00000000: 7019 73bd 0e3c e93c bc3a aa3a faa4 a03c
00000010: 8772 19bc fc8e 473c 85b4 103c 48fe d63c
00000020: d164 473d 65fe a63c 0df7 073d 9486 8bbd
00000030: 7fca 6abc d33b bd3c 65e5 103d 9b68 98bc
00000040: f3df 20bc d0b8 303d c86c 2cbd 3935 823c
00000050: cd87 833d 9855 f6bc 6fa3 08bc faa8 d73c
00000060: 837e 803b df15 21bb b140 35bd eb23 98bb
00000070: efff 763c cabe d43c f280 6a3c 16ae 4d3d
00000080: 9ff1 e0bc a5fa 98bc 2ac6 303c 1efd 343d
00000090: c312 923c 158b 813d 0ae1 a63c 8017 793c
-0.05935043 0.02847102 0.0012987475 0.019609917 -0.009365684 0.012180086 0.008832102 0.026244298
0.04868013 0.020384977 0.03319459 -0.06812778 -0.014330505 0.023099815 0.035375018 -0.018604567
-0.009819019 0.043145 -0.04209593 0.01589452 0.06422386 -0.030070111 -0.008339747 0.026325691
0.0039213314 -0.0024579687 -0.044251148 -0.0046429536 0.015075668 0.025969882 0.0143129695 0.05021485
-0.027458964 -0.018674204 0.0107894335 0.044186704 0.017831212 0.06325356 0.020370979 0.015203357

conv_block_1.4.weight f4 [40]
00000000: 07bc 803f da21 823f 0dfb 803f bf8b 803f
00000010: deb6 7f3f bdbf 803f c5c5 803f 1130 803f
00000020: bf83 813f 5f65 813f e047 813f 5640 7f3f
00000030: d719 813f 9cfd 7e3f 3ee7 813f 5c1f 833f
00000040: a7d8 813f 14df 803f 1c0b 7f3f 71b0 803f
00000050: 9a1b 803f 1b9f 7e3f d9c6 7f3f 59c4 7e3f
00000060: 8119 7f3f 739c 803f b8ac 813f 67e0 7f3f
00000070: 5ebd 7f3f a67e 803f 45c8 813f e6f6 803f
00000080: 95c4 813f c524 803f b47b 813f 176f 7e3f
00000090: 5a6c 803f 8e0d 823f a56b 813f 4603 813f
1.0057381 1.0166581 1.0076615 1.0042647 0.9988841 1.0058514 1.0060354 1.0014669
1.0118331 1.0109061 1.010006 0.99707544 1.0086011 0.9960573 1.0148695 1.0243945
1.0144242 1.0068078 0.99626327 1.0053846 1.0008423 0.99461526 0.9991279 0.9951835
0.9964829 1.0047745 1.0130835 0.99951786 0.99898326 1.003865 1.0139242 1.0075347
1.0138117 1.0011221 1.0115876 0.9938826 1.0033066 1.0160387 1.0110976 1.0079124

conv_block_1.4.bias f4 [40]
00000000: e1a0 373a 81b8 c5bb 95d7 f83b b42c 8bbb
00000010: a2ef 8cbb 9bd6 73bb b30e 8bbc ca79 8d39
00000020: a969 88bc 457b ab3b eaff b93a 6523 23bc
00000030: b0a6 41bc 2ce4 a9bb c932 dcbb 408c 69bb
00000040: be14 f93b 72eb 3abb 4cde 0539 0ece 10ba
00000050: 6699 83bc dffb 9bba 792a 013a 6a1d 22bc
00000060: 2d31 95bb ad98 80bb 6c5d 0f3c b613 cfba
00000070: 56fa d1bb a4a9 4237 57a8 60bc 7db0 843b
00000080: 77fa 3f3c 96de e53b 570f 3c3b 6750 cdb9
00000090: 94ba d3ba e66f 7d3a e57c e03b 6c16 ecbb
0.0007004869 -0.0060339575 0.0075940588 -0.0042472724 -0.0043010274 -0.0037206772 -0.016974783 0.00026984356
-0.016651945 0.0052332007 0.0014190648 -0.009957169 -0.011819527 -0.005184671 -0.0067199212 -0.0035636574
0.0076013496 -0.0028521684 0.0001276668 -0.00055238686 -0.016064357 -0.0011900625 0.00049272884 -0.009894708
-0.0045529814 -0.0039244504 0.008750301 -0.0015798721 -0.006408016 1.1602799e-05 -0.01371201 0.0040493594
0.01171743 0.0070150597 0.0028695667 -0.0003916055 -0.0016153627 0.0009667858 0.006850826 -0.0072048213

conv_block_1.4.running_mean f4 [40]
00000000: 9a6c 83bd c492 4dbd 6a38 c83b 8165 14bd
00000010: 9003 03bc 046c 003b e2ff 8aba b097 c4bb
00000020: 3b08 0c3d 67ab 9c3b 437e 123d 0f93 e8bd
00000030: 8e4c 01bd 9761 9e3d 908c d3bc 5eb7 2bbd
00000040: d427 19ba 5053 44bc c166 debc 82bb cf3d
00000050: 22c2 d03d 04a4 f7bc 47b2 213d bb9b 113e
00000060: 107b 11bb 48ae 10bd 219b 59bd 7350 e5bc
00000070: 610b 1f3c f175 2bbd bb09 553c 8e5a af3d
00000080: 86b0 be3b a8bd 43bd 6b01 81bc ba9e c33d
00000090: 0c20 53bc 3660 15bc f5da 5dbd 70e5 bebc
-0.064171985 -0.050188795 0.0061102407 -0.036229614 -0.007996455 0.0019595632 -0.0010604823 -0.005999528
0.034187537 0.004781175 0.035764944 -0.11356174 -0.03156715 0.077334575 -0.025823861 -0.04192292
-0.00058424217 -0.011982754 -0.027148606 0.10143186 0.10193278 -0.030229576 0.03947666 0.14219563
-0.0022198595 -0.035322458 -0.053126458 -0.027992463 0.009707303 -0.041860525 0.013002808 0.08562194
0.005819383 -0.047788292 -0.015747746 0.09551759 -0.012886059 -0.009117177 -0.05416389 -0.023302764

conv_block_1.4.running_var f4 [40]
00000000: 93be f239 b787 3639 d3a9 d539 6c88 c239
00000010: 59b6 5d3a f1ac 043a c847 4339 070c 8939
00000020: f379 5d39 419c 8739 9486 683a 9531 f939
00000030: 3f21 9939 2df6 a93a 7eb4 a839 84df 0839
00000040: c38d 103a 18fa cf39 ca6a 023a fecf 413a
00000050: 81be 3d3a 3715 4039 1de4 a839 1105 7e3a
00000060: b6f4 d139 0843 073a 58cd 7539 3481 0339
00000070: d51b c339 8a83 aa39 276c 6e39 595b 0e3a
00000080: d044 173a 023b f239 2efc 9839 1861 0a3a
00000090: 6157 a739 4ec2 2639 cf52 6339 9874 0f3a
0.00046299826 0.0001740743 0.00040753055 0.00037104206 0.0008457653 0.00050611707 0.0001862339 0.00026139637
0.00021121632 0.00025865625 0.00088701514 0.00047529922 0.00029207204 0.0012967043 0.00032177934 0.00013053237
0.0005514288 0.0003966845 0.0004975019 0.0007393359 0.0007238165 0.0001831845 0.00032213415 0.0009690086
0.0004004591 0.000515983 0.00023441517 0.00012541265 0.00037214035 0.0003252293 0.00022737739 0.0005430482
0.0005770447 0.000462018 0.00029179588 0.00052787503 0.00031917825 0.00015903378 0.00021679256 0.0005472391

conv_block_2.0.weight f4 [40, 40, 3, 3]
00000000: 4945 e83b 20fa 183d 2e2c 073d 6de6 0b3d
00000010: 4d7c 3cbd d52b 38bc 84ef 9cbc 2870 36bc
00000020: 0969 033d b0f9 11bd 58a6 0bbd 2b2c c9bc
00000030: c828 163c d5bc c6bc 6562 4b3c 8120 14bd
00000040: 3764 b8bc e165 0a3d e6d6 233d 7280 53bc
00000050: bea7 e03b 4ec9 f5bb 6155 2bbd a824 55bc
00000060: 8a56 0a3d 68fe 9b3b 6b60 603d dfa9 58bd
00000070: 8d70 40bd 5ff7 64bd 2a53 2dbd 5ad7 db3a
00000080: 74cb d23c 56ec 4bbd 93b5 3dbd ca72 c0bc
00000090: 581f 063d 6ce7 ea3c ed38 d1bb e7d3 3d3d
000000a0: 250f 923c 03be 3f3d 44fb d03a 06b3 fdbc
000000b0: f070 5e3a 11a5 513c f2ce 8b3c b04f 2fbb
000000c0: 763a d3bb aed1 803b 9215 6ebc 698c 203c
000000d0: e229 15bd 8674 49bc fc85 053d c21f ad3c
000000e0: 5b64 0f3d 0e1d 1cbd cd44 96bc 4cf8 f2bc
000000f0: 5270 04bd 764c 4cbc c594 f43b 34c1 39bb
00000100: 74b0 84bb ed71 10bd d395 ecb9 69df 833c
00000110: 49b1 223d f4b7 133d 4e39 24bd e2ab fdbc
00000120: 9b1d 443d 3a33 283d 165f ef3c 1022 dcbc
00000130: 4876 3a3d 0296 56bd 22b5 33bd 9bd2 8e3b
00000140: b8bf cc3c 7870 39bd 5785 403c 223e d83b
00000150: 8d3c e4bb 53ff 25bd ad59 c2bc 2ae8 853c
00000160: f4e8 ce3c 53d8 3c3d a1e8 4dbc a377 633d
00000170: c1a5 de3c 3c9a 08bd ecc5 48bd cdd2 273d
00000180: 355b 693c b133 a33b e973 d1bb 8f68 c73c
00000190: d97a b3bc 4d89 2fbd f4d1 303d 3df4 98bc
000001a0: d096 013d f502 06bd fbc3 13bc 2c00 eebc
000001b0: 6b13 043c 78a8 81bb f281 923c a324 d0bc
000001c0: c109 09bd 8635 5f3d 1791 0cbd 96a7 bd3c
000001d0: 0bac 15bd de33 083c 0338 adba ef76 cbbc
000001e0: 9e76 e5bb 2417 293b 5919 c5ba e551 143d
000001f0: 6130 07bd 7290 b43c 3f28 4d3d cae7 1fbd
00000200: ed6b 36bd 7f74 d83c 4971 23bc ca2b 8c3b
00000210: 53f6 25bd cdc1 1f3d e880 603b 7e01 1cba
00000220: 2f42 e1bc 233d 083c f1c2 583c 058a 2fbc
00000230: 851c a73c fe80 abbc f7ec 933c 4144 60bd
00000240: 2bea 33bc 821f eabc d872 f33c b653 efbc
00000250: b2d3 433d 8d64 a63c 400e 1e3d 4b66 e9bc
00000260: 5894 14bd 0a64 5fbc 51df 12bd 50aa c0bc
00000270: 5247 323d 9b60 df3c 8454 85bc 167d 273d
00000280: 4791 dcbc 7326 bfbc e168 b63c 89b0 b23c
00000290: 955e 94bc a99a 1bbd 4d1d d73b 1d90 413d
000002a0: 62b5 493d b073 283d 79c5 2ebd b7ca 2b3d
000002b0: 47ad 863c bdc1 10bd d267 ac3b ba6b 40bd
000002c0: e3c3 7c3c ede4 c4bc 5f31 f4bc 51d2 203c
000002d0: e50e 0b3d bea4 f03c b801 11bd ec5e c53c
000002e0: e281 673c d469 2cbd 66aa 6dbc dd34 50bc
000002f0: bcfc 35bd f029 43bd b1fd 12bd ce8a 2f3d
00000300: 4f07 aabb abdc 633c 3648 11bd ab29 dcbb
00000310: 4176 b23c c473 beba 0bd0 5ebb ef4a 763a
00000320: 7a31 0f3d e0bb 2cbd 4db4 50bd ded2 58bd
00000330: d1ba aa3c 2818 fabc 9223 b3bc b738 77bb
00000340: ed89 0c3d 3495 933b 757f 2c3c 5212 4ebc
00000350: 97c5 ff3c e70f cebc 34f4 2c3d 3d88 373d
00000360: fc4d 47bd d43b b1bc a456 58bc c916 cfbc
00000370: 8d7c ab3b be06 94bc a4fe 393d ab2c 8ebb
00000380: 4d37 efbc 4610 c1bc 262f 40bd 9014 fabc
00000390: 7416 b73c c149 ed3c 35d8 46bc 26ac a73b
000003a0: 25d3 f83c 309a 163c b240 ca3b 5d8a 1dbd
000003b0: 8847 2f3d 9335 c4bb 2d68 433c 6c6b 75bb
000003c0: 17eb d43c 0c7e 2bbd 2abd 403c 6280 1abd
000003d0: 722b 2c3d 83b8 a9bc bfc8 c13c 8ae0 823c
000003e0: 4b24 abbb c977 17bc d8e2 463d 4d7e c8bc
000003f0: 6371 80bc eeb3 0a3d d66c 053d 75e6 173c
0.0070883376 0.037347913 0.033001117 0.034155298 -0.04601698 -0.011240919 -0.019157179 -0.011135139
0.03208259 -0.03563851 -0.034094185 -0.024557194 0.009164996 -0.024259964 0.012413596 -0.03616381
-0.022508724 0.033788566 0.039999865 -0.012909042 0.006855934 -0.007500804 -0.04182947 -0.013009228
0.033773936 0.004760552 0.05477945 -0.052896377 -0.046982337 -0.055899974 -0.04231564 0.0016772554
0.02573178 -0.049785934 -0.04631574 -0.023492236 0.032744735 0.028674804 -0.00638496 0.046344664
0.017829487 0.04681207 0.0015944024 -0.030969154 0.0008485457 0.012795703 0.017066453 -0.0026750378
-0.006446178 0.0039312458 -0.01453151 0.009799101 -0.036416896 -0.012295848 0.03259848 0.021133307
0.035007816 -0.038113646 -0.018343354 -0.029659413 -0.03233368 -0.012469402 0.007464024 -0.0028343918
-0.004049355 -0.035264898 -0.00045125055 0.016097741 0.039719854 0.036064103 -0.040093713 -0.03096575
0.047879796 0.04106448 0.029220145 -0.026871711 0.045522958 -0.052389152 -0.043873914 0.004358602
0.024993762 -0.045273274 0.011750541 0.0065992037 -0.006965226 -0.0405267 -0.023724401 0.016346056
0.025257565 0.04610474 -0.01256767 0.055534016 0.027178647 -0.033350214 -0.049016878 0.04097252
0.014242937 0.0049805273 -0.0063919914 0.02434185 -0.021909164 -0.04285555 0.043168977 -0.01867115
0.031637967 -0.032717664 -0.009018893 -0.029052816 0.00806127 -0.0039568506 0.017884228 -0.025408095
-0.033456568 0.054494403 -0.034318056 0.0231512 -0.036541026 0.008313147 -0.0013215545 -0.024836985
-0.0070026657 0.0025801146 -0.0015037461 0.036210913 -0.033005122 0.022041533 0.05008721 -0.03903941
-0.04453652 0.026422737 -0.00997574 0.004277681 -0.040518116 0.039003182 0.0034256522 -0.000595115
-0.02749738 0.008315357 0.013230071 -0.010714059 0.020399341 -0.020935532 0.01805733 -0.054752592
-0.010981123 -0.028579477 0.029717848 -0.029214721 0.04780931 0.020311618 0.03858781 -0.02849116
-0.036274284 -0.013634691 -0.035857502 -0.023518711 0.043525048 0.027267745 -0.016275652 0.040890776
-0.026924742 -0.023333764 0.022266807 0.021812694 -0.018111506 -0.037989292 0.006564772 0.047256578
0.049245246 0.041125953 -0.042668793 0.04194137 0.016440047 -0.035341013 0.0052614 -0.046977736
0.015427562 -0.024034942 -0.029808698 0.009815768 0.03394975 0.02937543 -0.03540203 0.024093114
0.014130088 -0.042093113 -0.014505958 -0.012707916 -0.04443048 -0.047647417 -0.03588647 0.042856984
-0.0051888595 0.013907592 -0.035469256 -0.0067188344 0.021784903 -0.001453035 -0.0033998515 0.0009395321
0.034959294 -0.04217136 -0.0509532 -0.052935474 0.020841034 -0.030529097 -0.021867547 -0.0037723014
0.034311224 0.0045038704 0.010528435 -0.01257761 0.031222148 -0.025154067 0.042225078 0.04480766
-0.048658356 -0.021634974 -0.0132042505 -0.02527942 0.0052333535 -0.018069621 0.04540886 -0.004338821
-0.029201174 -0.02356733 -0.046919964 -0.030527383 0.022349574 0.028965833 -0.012136509 0.0051169572
0.030374119 0.009192035 0.006172263 -0.03846203 0.042792827 -0.005987832 0.011926693 -0.0037448062
0.025991006 -0.041868255 0.01176385 -0.03772009 0.04203362 -0.020717865 0.023655294 0.01597621
-0.0052228323 -0.009244868 0.04855618 -0.024474287 -0.015679067 0.033863 0.032574497 0.009271254

conv_block_2.0.bias f4 [40]
00000000: 7d42 56bc b496 203b e0df 2abd 28b1 063a
00000010: a3d2 233c 0a4c 263d 3d2f c73c bcf3 c73c
00000020: 16a2 0a3d 93d3 9638 e6f4 323d f2a7 f7bb
00000030: 9b69 42bd b313 563d d394 283d af77 63b9
00000040: 0d80 283d 5042 923b ab28 e73c fd5d 42bc
00000050: 64c5 66bc ea22 1bbc bc04 bfbb aa2a 443b
00000060: 66db cf3c 5171 643c fb81 46bd 5089 8c3d
00000070: f751 31bd 407d 6ebc e683 f13b be7b 053d
00000080: 188a 40bb a7ee d3bc 718e 47bd e198 1f3d
00000090: 2b42 253d daf4 703c 4ead 14bd db9d fbbc
-0.0130773755 0.0024503889 -0.04171741 0.00051380927 0.00999895 0.04059986 0.024314517 0.024408214
0.033845983 7.191966e-05 0.043690585 -0.0075578624 -0.047463994 0.05226488 0.041157555 -0.00021692993
0.041137744 0.0044634715 0.028217634 -0.011863229 -0.0140851475 -0.009468773 -0.005829422 0.0029932656
0.025373172 0.013943032 -0.048463803 0.06862128 -0.04329106 -0.014556229 0.00737046 0.032588713
-0.0029379185 -0.025870634 -0.048719827 0.038964156 0.040346306 0.014706815 -0.03629809 -0.03071492

conv_block_2.2.weight f4 [40, 40, 3, 3]
00000000: 00c5 0b3d d1ce 9b3c 1bc6 36bd e193 4a3c
00000010: d8f1 62bd 1db4 9f3c 2f39 b5bc 30bf 43bd
00000020: 136a 0cbb a59c f3bc 165e f4bc e5f3 38bd
00000030: f954 67bd d562 a43c 1136 de3c d2d3 e33c
00000040: 3c8f 6bbd 3add 07bd 080b 5dbd 7305 69bd
00000050: 5c91 f7bc 4e89 703c c9da 1f3d f5ee 453c
00000060: 7a5c 5abd 9008 3c3d 445a 473d bd5b 583d
00000070: 85c8 35bd 579f d2bc 4f84 9fbc 7dff 4b3d
00000080: ddb1 533d ef63 be3b c2c9 373d 697d 203c
00000090: 1864 89bc dc43 8f3c f402 02bd 2d33 953c
000000a0: e56f bb3c 8e90 463d f12b 57bd 00b5 4dbc
000000b0: c10d 11bc b506 a13c 13ee 233d 4f1d 35bc
000000c0: 0ca7 0a3b 33a6 80bd de18 91bb ab95 82bc
000000d0: e2d4 0c3d c9b5 2bbb ea01 37bb a9e8 c9bc
000000e0: 5d97 d63c 6557 1ebd 3fa5 b83c a04c f43b
000000f0: ea19 f6bc bb1b 403d 422e 663c b537 99bc
00000100: 002e d83b c16b 9fbc 30b3 1bbd 12d9 003d
00000110: 8ee0 313d 9f10 d2bc e43e 733c c17a 2fbd
00000120: 48d8 ebbc 54ee 59bd b608 df3c 1381 21bd
00000130: 4eab 63bc 1e73 a93c 2c4b 26bd d195 31bd
00000140: 7a43 0d3d 5abc 13bc b3b0 20bd 7655 433b
00000150: 07f8 f53b 4b4a f5bc 13b5 d0bc 74e9 9cbc
00000160: 1293 c23b 882d 583b c9a8 1dbd 83a2 213d
00000170: 95bf a23c a504 523d 8938 3bbd cc20 af3c
00000180: 709c 5a3d fbac fbbc 8165 783d f280 24bd
00000190: 15cf ad3c 25da 0abd 970a 363b 7ec2 4abd
000001a0: 7d4c a9bc 4e5c cdbc cc75 0e3d b413 5abd
000001b0: 886f 2e3d 4cca f6bc 50eb 30bb 49b4 d8bc
000001c0: e58e 3a3d 56a1 a63b 1890 da3c f34c 813c
000001d0: 3ad5 283b 6366 053c 89ae 1fbd 4e17 cfbc
000001e0: 84bc aabc 750c 44bd fdb6 b73c 81bc 3dbd
000001f0: 59f9 1eba c823 f5bb 671c a9bc 8353 38bc
00000200: 9b4b b53b cc1e e2bc 6ba6 36bd a67b fd3c
00000210: 93ba 08bc 9183 2bbd 88ab 2ebd 0d55 8b3c
00000220: 0cb4 7dbd ee21 f7bb ed16 2c3d 6b6e 35bd
00000230: 40f9 0a3d 4206 f63c f738 cc3c 5c4d bb3c
00000240: c70e b2bc 5dfa 5f3c 7014 1dbd 9a8e 6f3d
00000250: 2475 bc3b f45e 083c d28f 123d 644b 0abd
00000260: 3d32 61bd d19f fcbc a0a5 e53c c272 133d
00000270: 3b6e bc3c b8e6 c8bc a16b 573c e180 38bd
00000280: aa1f 003c 551a 313c 897a e2bc a16f 51bd
00000290: e279 fbbc 5ced 84bc a7a6 db3a 0046 94ba
000002a0: ac94 d03c 739d fabc 1aaa c53c b778 2ebd
000002b0: 03a8 df3c 840d e5bc 51eb c23c 3e66 413b
000002c0: 1b1b c3bb ba2a 4b3d b3fe ea3c a088 34bd
000002d0: 4c2f bf3c 491f 1b3b f8d5 883c 8071 90bb
000002e0: 87d8 3d3d 8838 fd3c 4ed9 1cba 154b 20bd
000002f0: 891f 2e3d f13e 60bd a6e8 bc3c 17c5 62b9
00000300: a1a6 0a3c 8aad 1c3b f43c 52bd 05be 0cbd
00000310: 0ffc cdbc 8399 83bd 058a ee3c 0783 10bd
00000320: b7d7 f8bc df30 d4bc e0cf ae3c 513c d2bb
00000330: 6e9b c43c ce48 dc3c e788 e23a 5fd4 333d
00000340: 8ee5 d83c 749e 033d f067 583d ab95 ae3c
00000350: e770 2c3d 1de5 e83c 8d2d abbc 7f00 d73a
00000360: 5840 1ebd 5a55 093d 5e4d 123c a9e1 49bd
00000370: 8abb 233d 3468 e83c bcc7 b1ba 88bf 3cbd
00000380: 0875 12bd 39eb 70bd 7671 2bbd 31e3 403d
00000390: 11c5 53bc fe03 203d 35e8 d43c 87d2 303d
000003a0: a8ff 593c 6e11 0fbd b508 283d 5e0c 6abd
000003b0: 4aef ad3a fe3a 403c 0272 033d 1aff 24bd
000003c0: 00b8 3f3c 8c52 1dba 48cc 36bd dfb0 f13c
000003d0: ce2a 3b3c 27da 5b3d 3a03 17bd 978b 9f3c
000003e0: fe67 6b3d 76af eebc 015d 593d 6ae0 02bc
000003f0: 2e34 0b3d 1355 57bc bb2d 163d 29ea 76bd
0.03412342 0.019019516 -0.04462252 0.012364359 -0.05540642 0.019495064 -0.022121994 -0.047789752
-0.002142553 -0.02973778 -0.02983002 -0.04515447 -0.05647752 0.020066658 0.02712539 0.027810965
-0.057509646 -0.033169962 -0.0539656 -0.056889962 -0.03022068 0.0146811735 0.03902701 0.012080898
-0.05331085 0.045906603 0.04867007 0.052821863 -0.044380683 -0.025710745 -0.01947227 0.0498042
0.051683296 0.005810253 0.044870146 0.009795525 -0.016771361 0.017488413 -0.031741098 0.01821288
0.022880504 0.0484777 -0.05253214 -0.012555361 -0.008853377 0.019656518 0.040021967 -0.011054351
0.0021156697 -0.062817 -0.004428013 -0.015940508 0.03438271 -0.0026200882 -0.0027924725 -0.024647074
0.026195223 -0.038657565 0.022539733 0.0074554235 -0.030041654 0.046901446 0.014049115 -0.018703321
0.0065972805 -0.01946056 -0.038012683 0.031457014 0.043427043 -0.025642691 0.014846537 -0.042841677
-0.028789654 -0.053205803 0.027225833 -0.039429735 -0.013895823 0.020684775 -0.040599033 -0.043355767
0.03448818 -0.0090170745 -0.039231014 0.0029805577 0.007506374 -0.029942652 -0.025476968 -0.019154288
0.0059379423 0.0032986123 -0.038491044 0.039461624 0.019866744 0.05127396 -0.045708213 0.021377943
0.053371847 -0.030722132 0.060643677 -0.040162034 0.021216908 -0.033899445 0.0027777308 -0.04950189
-0.020666355 -0.025068428 0.03478031 -0.053241447 0.042586833 -0.03012576 -0.0026995726 -0.026453154
0.04554643 0.0050851507 0.026680037 0.015783763 0.0025761859 0.008142087 -0.03898481 -0.025279667
-0.020841844 -0.047863442 0.022426123 -0.04632235 -0.00060643774 -0.007481072 -0.020643426 -0.0112503795
0.0055326945 -0.027602576 -0.044592302 0.03094275 -0.008345264 -0.04187352 -0.042644054 0.017008329
-0.061939284 -0.0075418865 0.04201405 -0.044294756 0.03392911 0.03003228 0.024929507 0.022864036
-0.021735562 0.013670531 -0.03834957 0.058485605 0.005751269 0.00832342 0.03578169 -0.033763304
-0.05497955 -0.030837925 0.028033078 0.035998113 0.02300178 -0.024524078 0.013148219 -0.045044784
0.007820049 0.010809501 -0.02764632 -0.05113185 -0.030697767 -0.016226463 0.001675804 -0.0011312366
0.025461517 -0.030592656 0.024128962 -0.04259559 0.027301794 -0.027960546 0.023793848 0.0029510404
-0.005954159 0.049601294 0.028685903 -0.04407561 0.023337983 0.002366977 0.01670359 -0.0044080615
0.046349075 0.030910745 -0.00059833087 -0.039134104 0.042510543 -0.054747526 0.023060154 -0.00021626461
0.008462579 0.0023907148 -0.05132766 -0.034360904 -0.025144605 -0.064257644 0.029118547 -0.035281207
-0.030376298 -0.02590221 0.021339357 -0.0064158817 0.023999896 0.026890185 0.0017283232 0.043903705
0.026476648 0.032133535 0.052833498 0.021311602 0.04209986 0.028429562 -0.020895744 0.0016403346
-0.03863558 0.033528663 0.008929579 -0.049287472 0.039973773 0.02837 -0.0013563554 -0.046081096
-0.03575614 -0.058818076 -0.04185625 0.047091667 -0.012925402 0.039066307 0.025989631 0.043169525
0.013305582 -0.03492873 0.04102393 -0.0571407 0.0013270166 0.011732815 0.03209115 -0.040282346
0.011701584 -0.0006001375 -0.04462841 0.029503284 0.01142378 0.053674843 -0.03686831 0.019475741
0.05747222 -0.0291364 0.05306721 -0.007988075 0.03398531 -0.013142842 0.036664706 -0.060281906

conv_block_2.2.bias f4 [40]
00000000: aefd 2e3b bbee 93bc 5aa2 763d 948f 66bd
00000010: d573 37bd d80c 3e3d 11ac 893d 3f00 e4bc
00000020: e5fa 0bbd e7d7 eabb e76d b9b9 4b9c 44bd
00000030: 67a5 74bd fb45 a33b d1f9 b0bb dab3 1dbd
00000040: 6232 6a3d 9945 8a3c f8b7 1c3c 62e8 423d
00000050: 4f16 00bd c235 87bc 16e8 b4bc 42f3 333b
00000060: d18f bcbc e2e4 b9bc 5db2 73bd b8d2 28bd
00000070: 6a47 3fbd 4e6e b83c ff29 b83c 8835 4ebd
00000080: 0ed2 81bd 9405 843c fd67 04bd 69e8 5fbc
00000090: 0ead 2a3d adaa a53c 42fa e5bc 528e 8c3c
0.0026701498 -0.018058171 0.060213424 -0.05628927 -0.0447882 0.046398968 0.06722272 -0.027832149
-0.03417482 -0.007166851 -0.00035367833 -0.048000615 -0.059728052 0.0049827076 -0.005400874 -0.038501598
0.057176955 0.01687889 0.009565346 0.0475849 -0.031271275 -0.016505126 -0.022083323 0.0027458225
-0.023017796 -0.022692148 -0.059496272 -0.041216582 -0.046698965 0.022513535 0.022480963 -0.05034402
-0.06338893 0.016115941 -0.032325733 -0.013666251 0.041668944 0.020222986 -0.028073434 0.017157707

conv_block_2.4.weight f4 [40]
00000000: 6d3d 813f 1c60 823f 3895 7f3f 8ead 823f
00000010: ed90 813f fe99 803f 19a1 7f3f e00b 7e3f
00000020: ea0b 813f e49b 813f 8784 813f 8c2c 823f
00000030: c7ea 813f d719 813f b221 7f3f cb53 813f
00000040: 04e7 7e3f 1088 823f 0c98 823f de48 803f
00000050: 140b 7f3f 85a4 803f d9e5 803f 2e5a 7e3f
00000060: 356f 813f 257a 823f 963f 823f c6a5 803f
00000070: e4c0 7f3f a002 813f 77b7 813f 1528 803f
00000080: 2b02 813f 6215 7f3f 1dfb 803f 9b19 813f
00000090: 6cec 833f a513 813f c221 823f 22ba 813f
1.0096871 1.018558 0.99837065 1.0209215 1.0122353 1.0046995 0.9985519 0.9923687
1.0081761 1.0125699 1.0118569 1.0169845 1.0149773 1.0086011 0.9966079 1.0103697
0.9957125 1.0197773 1.0202651 1.0022237 0.9962628 1.0050207 1.0070144 0.99356353
1.0112063 1.0193526 1.0175655 1.005059 0.999037 1.0078926 1.0134114 1.0012232
1.0078787 0.99642 1.0076634 1.0085939 1.0306525 1.008412 1.0166552 1.0134928

conv_block_2.4.bias f4 [40]
00000000: c126 08bb 41c3 4bbc a1f9 9dbb bb01 2ebc
00000010: b9b0 c0ba e0b4 273c 9da0 96b9 7059 e8bb
00000020: 0988 213b 6335 883b afa7 3ebc 4da9 623a
00000030: 9959 63bc 1006 213b 2bc2 233c a9c2 cfba
00000040: a04b ddbb ee2e 72bb 5929 1abc 0e3d 0a3c
00000050: 9f05 d93a 9da8 f8bb 59b7 1dbc 63f2 ffbb
00000060: 1d50 213c 57b1 91bb 688f b83b 3388 d4bb
00000070: 90ae d739 0ba2 4d3a 4421 433c f6f0 2d3a
00000080: 7ed5 a3bb bc2b 88bb 0fc3 abbc 4a27 d83b
00000090: ab50 89bc f5da e13a c6bc ecba 3ace e0bb
-0.0020775052 -0.012436689 -0.004821018 -0.01062053 -0.0014701105 0.010235995 -0.00028729896 -0.00709074
0.0024647734 0.004156755 -0.011636659 0.00086464436 -0.013876342 0.0024570264 0.009995024 -0.001585086
-0.0067534 -0.0036954242 -0.009409272 0.008437408 0.0016557461 -0.0075884596 -0.009626233 -0.007810877
0.009845761 -0.0044461894 0.0056323297 -0.006485963 0.00041138055 0.00078442757 0.011909787 0.0006635332
-0.0049998155 -0.004155604 -0.020967035 0.0065964805 -0.016762098 0.0017231392 -0.001806163 -0.0068605216

conv_block_2.4.running_mean f4 [40]
00000000: e96f 613d 5498 4b3d 9337 bb3d cbef b0bd
00000010: 7762 843e 5eea 3cbc 1057 0fbd c5a5 673d
00000020: 624e 1ebe 6452 2f3e ff11 933e 2256 fabc
00000030: b308 993c 7b76 313d 8154 74bd fa35 e53c
00000040: e7d7 0f3e cc94 b23c 2c0e bebc 0eff 323e
00000050: 3325 7ebd 03ef bc3e 8a90 c93e e213 803c
00000060: 676e 5abd 319b ad3e 4c48 f8bd 069e f73e
00000070: 3233 ec3e 9fd9 323d 2909 963e 7066 e43e
00000080: 1866 e1b9 0613 bebc dceb 03bd 7dc6 34bd
00000090: bc3f cf3e a5ce 1dbe 00bf 11be 74a9 88bc
0.055038366 0.04970582 0.09141459 -0.08639487 0.25856373 -0.011530487 -0.03499514 0.056554575
-0.15459588 0.17121273 0.28724667 -0.03055865 0.018680906 0.043325882 -0.0596509 0.02797984
0.14047204 0.021799468 -0.023200117 0.17480108 -0.062047195 0.369011 0.39368087 0.01563448
-0.053327944 0.33907464 -0.121231645 0.4836275 0.4613281 0.04366457 0.29303864 0.44609404
-0.0004299141 -0.02320243 -0.032207355 -0.044134606 0.40478313 -0.1541086 -0.14233017 -0.016682364

conv_block_2.4.running_var f4 [40]
00000000: acc7 873d 9948 d33d c0a6 4e3e 13a5 003d
00000010: 7a97 403e 3e81 4b3d 5432 353d 1e87 a73d
00000020: db92 823c bf48 3d3e ebe6 d33d 69ec 613d
00000030: 7a38 8c3d f990 8d3d 8d0e 6f3d 8891 2a3d
00000040: 58df e13d b711 e53c 91f2 543d 15a1 b53d
00000050: e491 bb3c c5b7 123e 89a6 b53e da58 b53d
00000060: e289 373d 5fca 063f b3b2 c03c be98 9e3e
00000070: 52c0 a23e b5a4 233e 321c 153e f46a 853e
00000080: 94b9 f53c 1810 603d 993e 6b3d 21e4 0f3d
00000090: 6bbe 333e bffa e33c ee14 9f3c 25e7 c23c
0.06629881 0.10316581 0.20180798 0.031407427 0.18807784 0.0496838 0.04423745 0.081800684
0.015939167 0.18484782 0.103467785 0.0551571 0.068467095 0.06912417 0.058363486 0.041642696
0.110289276 0.027962549 0.05198914 0.088686146 0.022896715 0.14327915 0.3547862 0.08854838
0.04480923 0.52652544 0.02352271 0.30975908 0.31787354 0.159808 0.14561537 0.2605816
0.029995717 0.05470285 0.057432745 0.03512967 0.17553107 0.027829526 0.01941916 0.023791859

conv_block_3.0.weight f4 [40, 40, 3, 3]
00000000: 7908 143d ffa7 9eba 1599 7f3d 005e 35bd
00000010: 392a 573d 512a 47bd 8110 fe3b 2ff2 09bd
00000020: c7c2 b43c c0d6 8fbc ce09 093d 812f 603b
00000030: be34 3abd a424 683d db13 073a 7278 173d
00000040: b880 963c d501 49bd bce1 49bd 9064 16bd
00000050: d550 b03c e7f9 3d3d 1599 d7bb 7d34 d0bb
00000060: a925 4b3d 231a 52bc 9161 753d 9baa 1d3d
00000070: f60c 843d 231b 9d3c c302 e23c b64d 6c3d
00000080: ea0e 303d 2717 1ebd ea00 30ba 9416 2d3d
00000090: 4d0a 14bd 2d93 c23c c810 28bd d9f8 193d
000000a0: 0ea9 88bc 85cd 7abc 1abe 113d f99c 29bc
000000b0: 42c3 39bd 0c88 e63c 0333 46b9 65af 4d3d
000000c0: 5e37 4ebd 4131 16bd 5e6b 0a3d d696 0fbd
000000d0: 4074 a4bc 32ae 733d 6dd3 8ebc 0d0d f1bc
000000e0: 1459 903c 207e e33c 1929 51bc 3e09 fa3c
000000f0: dd1c 043c 09b0 053c d418 eebc 6872 1fbc
00000100: 2579 98bc 6f23 073d 26d4 3bba 3141 163c
00000110: 9980 b33b f987 953b c620 92bc b4df 2b3d
00000120: 390b 3d3d e1ae 193d 092b 833b 3bcd 2a3d
00000130: 8f75 01bc cc4e 14bd 0340 dcbc 64e8 dd3c
00000140: 4868 95bc 044c e83c df42 cebc 5171 0ebc
00000150: ba12 e4bc 0bb0 f1bc e65d 703d d524 033d
00000160: ce33 ec3b 7e2d 6dbc 033a 253d 38f8 5b3d
00000170: 97b8 c23c 526e 0cbd a266 aebc 10c6 493d
00000180: 92c2 43bd b63d 2a3c 850c 033d 25ff 483d
00000190: 5c63 9c3c e37d aebc adc3 363c 50c7 3abd
000001a0: 7086 84bc 7245 b4bc 120d 163d fe38 6fbd
000001b0: 96fe 273b ac45 f53c 7a88 debb e4e0 573d
000001c0: 3dc1 f2bc 226b 9e3c 81de bebc 0a3c ff3c
000001d0: 206c 18bd 84ff 27bd 97d1 903b bec9 333d
000001e0: a536 0dbd cbdf 283d f8b7 f63b aa36 4f3c
000001f0: e1a3 12ba 0197 4c3d 932e 93bb eb13 47bd
00000200: f2dd 063d 7261 a8bc 96a2 3bbd 60d5 e2bc
00000210: 3443 5dbd 6ce2 0d3d 8cfe 2c3d 3e17 6bbd
00000220: 27ff 1b3d 2c4e 33bd 6699 36bd dde5 d3bc
00000230: 7cf9 2cbc 8023 c9bb 24c8 033d 0c15 9abc
00000240: 72eb 1c3b d4c4 d7bc 1e61 933c e127 38bd
00000250: 2856 843b eb40 ca3c a589 d93c e479 f9bc
00000260: 7ca2 f1bc b4e5 143c 1739 883d 7427 c73b
00000270: 3463 21bd 6c1f 583c 7f06 b93c 4aa1 9f3c
00000280: 5de4 a8bd 1a1f 3fbc 5eb0 1fbd 64de 45bc
00000290: bf00 09bd 2396 843c cff1 9fbc 69d8 4abc
000002a0: 9245 013d a7b8 4b3d 644c 8c3c f2b2 26bd
000002b0: 0da5 1bbb 236a a03c d75f 4ebd 7974 4c3d
000002c0: 374f cf3b ecac 5cbc 3223 4e3d ab3d 2139
000002d0: be58 423c b2a9 6fbd 58cd e83c 91b0 29bd
000002e0: cb48 09bc e462 1cbc d93b e03a d396 b0bc
000002f0: 2dac bfbc f7d2 1fbc 5fa8 01bd 210d 1fbc
00000300: 1d39 3d3d 92ff 213d efd0 80bc cfab 0fbd
00000310: 63b2 4ebd 54a3 38bd f13b 2fbc e310 0a3d
00000320: f62c 53bb 9c28 44bd 40c4 603d 1a0a 933c
00000330: 74f0 593d f055 993c ad26 643d 6523 86bc
00000340: 1251 debc 462f ed3c 4b2c d23b 2dae 54bc
00000350: 1a87 e53b 3bf6 cdb9 e647 8d3c 40e9 463a
00000360: 5236 f2bc eaf8 07bd 5878 04bc dea7 863c
00000370: 9dcb d83c bf27 13bc 4cb0 0e3c e5c5 f13c
00000380: 4821 4d3d eb2b b7bc 0c5a d4bc 347e 50bc
00000390: 2772 313d 2ef5 69bd a865 1ebc 1869 1a3d
000003a0: e97b 27bd 6392 fb3b 4242 60bb bdfb 823c
000003b0: 85aa e5bc d16a 90ba 9199 6c3d 7946 103d
000003c0: c103 56bc 267d 3d3c 5191 7a3d b29e cf3b
000003d0: beb7 113d 1b5e a5ba 9f3f 6f3d a20f 7a3c
000003e0: 3908 163d 96ef aebc 0844 593d f5c4 8bba
000003f0: 832e b9bc 85f7 8b3d 2d43 e93c 2083 603d
0.036140893 -0.001210451 0.06240185 -0.0442791 0.0525305 -0.04862434 0.0077534323 -0.03367823
0.022065533 -0.017558455 0.033456616 0.0034208002 -0.045460455 0.05667557 0.00051528 0.0369801
0.018371925 -0.049074013 -0.049287543 -0.036716998 0.021522919 0.046380904 -0.006579528 -0.0063539133
0.049596462 -0.012823614 0.0599075 0.03849278 0.064477846 0.019177979 0.027589208 0.0576913
0.042982973 -0.0385963 -0.00067140034 0.04225786 -0.036142636 0.02375182 -0.04103163 0.037590835
-0.016682174 -0.015307789 0.035581686 -0.010352367 -0.045352228 0.028141044 -0.00018901755 0.050216097
-0.05034577 -0.036668066 0.0337938 -0.035055958 -0.020074964 0.059492297 -0.0174348 -0.029425168
0.0176206 0.027770102 -0.012766146 0.030521985 0.008063522 0.008159646 -0.029064573 -0.009731866
-0.018612454 0.032992776 -0.00071650965 0.009170816 0.0054779765 0.0045633283 -0.017837893 0.041961387
0.04615328 0.037520293 0.004002933 0.04169963 -0.007901563 -0.03620796 -0.026885992 0.027088352
-0.018238202 0.02835656 -0.025178371 -0.008694009 -0.02784096 -0.02950289 0.0586833 0.032017548
0.007208324 -0.014476178 0.040338527 0.053703517 0.02376966 -0.034284897 -0.021289174 0.049261153
-0.04779298 0.01039069 0.03199436 0.04907145 0.019090347 -0.021300262 0.011155051 -0.045600235
-0.016177386 -0.02200577 0.03663356 -0.05840396 0.0025633923 0.029940449 -0.0067911716 0.052704707
-0.029633159 0.019338194 -0.023299458 0.031156559 -0.03721249 -0.041015163 0.0044195163 0.04389357
-0.03447594 0.04122905 0.007529255 0.01264731 -0.0005593878 0.049948696 -0.004491636 -0.04860298
0.032926507 -0.020554278 -0.04580935 -0.027689636 -0.054019168 0.03463976 0.042234942 -0.057395212
0.03808513 -0.043775722 -0.044579886 -0.025866443 -0.010557529 -0.006138265 0.03217329 -0.018808864
0.0023944047 -0.026338972 0.017990645 -0.044959906 0.004038591 0.024689158 0.026554892 -0.03045363
-0.029496424 0.009087969 0.06651514 0.006077701 -0.039401248 0.013191085 0.022586105 0.019486088
-0.08246682 -0.01166513 -0.038986556 -0.012076948 -0.033447977 0.016184872 -0.019524483 -0.012380698
0.031560488 0.049736645 0.01712627 -0.040698 -0.00237495 0.01958186 -0.05038437 0.049915764
0.006326582 -0.013468962 0.050326534 0.0001537713 0.011861978 -0.058511443 0.028418228 -0.041428152
-0.008379172 -0.009545062 0.001710768 -0.021556294 -0.02339753 -0.009754888 -0.03165471 -0.00970772
0.046197046 0.03955037 -0.015724627 -0.03507596 -0.05046309 -0.045077637 -0.0106954435 0.03370751
-0.0032222844 -0.04789029 0.05487466 0.017949153 0.05320783 0.018717736 0.055700947 -0.0163743
-0.027138267 0.028953206 0.0064139715 -0.01298098 0.0070046308 -0.00039284103 0.017246198 0.00075878575
-0.029566918 -0.033196367 -0.008085333 0.016437467 0.026464278 -0.008981644 0.008709025 0.029513309
0.050080568 -0.022359809 -0.025921844 -0.012725402 0.043321755 -0.057118587 -0.009667791 0.03769788
-0.040889654 0.0076773628 -0.003421918 0.015989179 -0.028035412 -0.0011018162 0.05776364 0.035223458
-0.013062418 0.011565482 0.06117374 0.0063360566 0.03557562 -0.0012616547 0.058410283 0.015262516
0.036628935 -0.021354478 0.053043395 -0.0010663556 -0.022605186 0.0683432 0.028474415 0.05481255

conv_block_3.0.bias f4 [40]
00000000: 65b8 2f3d 9d43 0bbb 638a 82bb 76fc 2fbd
00000010: 9152 5cbd 7aff 343d 51ad 4c3b da9b f2bc
00000020: 65e2 2b3d b9ba 1f3d d0d9 c03c ed5b e63a
00000030: df6f 7f3d 8b6e abbb 674c 213d a29e 673d
00000040: eaf8 bb3c db5b 2e3d bee4 343b bbf9 193c
00000050: 65f2 dd3c 9d55 ccbc 53b3 623d 9c1d 12bd
00000060: 6dd4 85bd 318c 6f3d ae14 31bc 0905 2d3d
00000070: b84a afbb ba90 763c fad6 12bb c64e 4bbc
00000080: 3a46 843c acec c33c 02c6 6b3d 097f ddbb
00000090: 98f9 313d 41a6 bc39 a63e 123c c59a 27bb
0.04290046 -0.0021250017 -0.003983782 -0.042965375 -0.05378968 0.044188954 0.0031231234 -0.029615331
0.041963954 0.038996432 0.023541361 0.0017575003 0.062362548 -0.0052316836 0.039379504 0.05654777
0.02294584 0.04256807 0.0027602161 0.009397919 0.027093122 -0.024943167 0.0553468 -0.03567277
-0.065346576 0.058483306 -0.010808153 0.04224113 -0.0053494833 0.015049154 -0.0022405968 -0.012408918
0.016146768 0.023916565 0.05756188 -0.0067595285 0.04345092 0.00035982023 0.008926069 -0.0025574428
