disease_model_state.pth (torch, 981100 bytes, 50 tensors)

conv_block_1.0.weight f4 [40, 3, 3, 3]
00000000: 98c9 f03d b1a4 0a3e ed0f b0bd 88cd 333e
00000010: b3c0 19bd f3ca f63c 41ba e0bd f859 d43d
00000020: c3a0 133e d3a6 52be 45a2 f33d ae54 c6bc
00000030: d41f ec3d c432 7c3c 9eb4 953d 057c 8fbd
00000040: ee31 f93d 2d5c 2abc c02d febd 7482 9d3c
00000050: 852b 08be 56f8 2dbd 4444 bebd 6631 d53d
00000060: 6897 42be 64df f3bd 4173 c1bd b573 31be
00000070: 846d 06bd 40b6 7dbe 76de 0b3e d790 52be
00000080: 52cc da3d 6d12 9d3b 724f b8bd 7266 bd3d
00000090: 3582 073d 6a31 333e 33b4 1f3d 3aa3 fdbc
000000a0: 5570 b13d fbae 80bc 66a1 eb3d 4d0b 5e3e
000000b0: 2879 223e de04 d7bd 4e75 c53d 8d71 4c3c
000000c0: 112b b43d 3cfa 02be c558 4dbe 54ac a9bd
000000d0: da89 1bbe 3024 1f3e f155 ab3d 3922 583d
000000e0: 5b99 3bbd b23d f93c 04ed 213e 8d12 54be
000000f0: 8566 993d 7377 a6bd 8479 443d 02c6 89bd
00000100: a9b5 7a3c a8a2 10be 7382 2b3e 0656 f6bd
00000110: b7a1 38be 0a26 88bd 5163 613e 4af7 7f3d
00000120: db47 6c3e 46c8 22be 2bcd 7abe 56f7 cebd
00000130: 645f c8bd 90f7 583d 98b8 193e d2e8 6f3e
00000140: 42a3 92bd ebe5 a5bd 7948 153e 55a4 babc
00000150: eff7 323e 9efc f5bc 9c35 083e dc81 f8bd
00000160: 5454 debd 485c 663d 11ea a33d 56dc 54bc
00000170: 0c73 253e 58ac 333e 55d8 02be 9f98 aebd
00000180: 85fb 403e 3841 a9bd 3d2d 9fbd 9f06 1ebe
00000190: 2804 b1bd 9642 b23d b2c1 d63b 770e 1bbe
000001a0: be41 a53a 2063 06be 1536 55be 27b3 0abe
000001b0: cc9e 8ebe 58c4 7fbe 9806 c53d 211c 96bd
000001c0: bc56 acbd b36e 92be 9e45 4ebe 7e58 2dbe
000001d0: 9f66 1fbd 9033 18be 6a5b a6bd f136 c2bd
000001e0: d00d 223c 000a b8bd c64e c7bb 4d59 b7bd
000001f0: 3284 f7bd bbb1 99bd 4da2 b2bc 6c06 fcbd
00000200: 6ea2 593e de28 a23a c3d3 3c3e 1f21 df3d
00000210: d6a2 aabd c44a 403e bf10 ff3c bc9d f1bd
00000220: fc13 5dbe 829c 82be 20b5 753d 26a7 46bd
00000230: 9b4b 583d 89c2 18be 4791 213e 818f 10be
00000240: 75ac 04bd 4037 1f3d 1855 bc3d 9a84 463e
00000250: 40cb 583e 9cf1 fabd dfaa b73d f402 04bd
00000260: f51d 993c 9052 32be dfd9 163e 1175 31be
00000270: b0a8 db3d f76c 903d 37f6 6b3d e3d7 d4bd
00000280: 7028 403e 1394 433d 09f9 b93d 6d38 d9bd
00000290: a715 163e 32ec 9cbb 5773 cfbd fcd5 1a3e
000002a0: af11 113d b599 1cbe b380 1bbe e393 9c3d
000002b0: fc23 363e 6dbe 723c bdd7 93bd 70f0 a8bd
000002c0: dd3c 32be ac5d 983d a003 cb3d c044 7cbe
000002d0: 720f 733d 68b2 e83d 345b 533d 6538 96bd
000002e0: a457 8c3d 1e6c 913d b23a 653d 6e88 9dbd
000002f0: 4b2c ccbd 0d98 803d ac0b 3bbc a82f f3bd
00000300: 2c7f 343e 5f22 523e dcde 8cbd a45a 53bd
00000310: 2146 b1bc 8f48 dbbd 2042 9e3d cdaa 943d
00000320: 9fa9 57be c244 d1bc 9d63 4f3e 34fa 4c3d
00000330: a222 46bc 767a ffbd 9d6f 3cbe d8c3 11be
00000340: c4cb 2cbd c27e 0d3d 3d3c 2f3e 2ee0 093e
00000350: 3fa7 41be 8cbc dbbd 0496 cabc f827 123e
00000360: 9a10 2e3d 008a 5cbd bf77 9a3d abfc 9dbd
00000370: 2256 26be b88d e63d b774 d2bd 1eab 9abd
00000380: 56e2 5ebe 6dbc 453e 0166 4a3e b215 f93d
00000390: abcd b0bd b9b2 26be cad0 fdbd 0cff 323e
000003a0: 8b02 e83d 23dc 443e bdd0 ed3d 0865 3f3d
000003b0: 129b f43a d7d9 18be 5456 47be 0eee 47be
000003c0: 24dd 7e3d 234b febd eb23 63bd ac42 26be
000003d0: 7d26 e8bd b57d 69be 76bc 11be 1e12 cb3c
000003e0: bfad e2bd 6833 103e cb41 2cbd 5ec6 06be
000003f0: 3dcf 4b3c c52a 45bd 7848 92bc e75b f8bd
0.11757201 0.13539387 -0.085967876 0.17558873 -0.037537288 0.03012607 -0.10973025 0.10368723
0.14416794 -0.20571451 0.11896185 -0.0242103 0.11529508 0.015392963 0.073098406 -0.07006077
0.121677265 -0.010397953 -0.1241107 0.019227244 -0.13297851 -0.04247316 -0.092903644 0.10409813
-0.1900307 -0.11907843 -0.09445811 -0.17329295 -0.032819286 -0.24776554 0.13659081 -0.20563065
0.10683502 0.0047934563 -0.08999528 0.092480555 0.03308316 0.17499319 0.03899021 -0.030961622
0.08664004 -0.015708437 0.11505394 0.21683998 0.1586653 -0.10498975 0.09641515 0.0124782445
0.08797277 -0.1279077 -0.20053394 -0.08284822 -0.15189305 0.15541148 0.083660014 0.052767012
-0.045800548 0.030424926 0.1581307 -0.20710202 0.07490257 -0.08128252 0.04796745 -0.0672722
0.0153021 -0.14124548 0.16748981 -0.120281264 -0.1803044 -0.066478804 0.22010542 0.062491693
0.23074286 -0.15896711 -0.24492328 -0.10105769 -0.09783819 0.05297047 0.15011823 0.23428658
-0.07160045 -0.08100494 0.14578427 -0.022783438 0.17477392 -0.030027684 0.133017 -0.12134144
-0.10855928 0.05624035 0.08003629 -0.012991985 0.16157168 0.17546213 -0.12777837 -0.08525204
0.18845947 -0.082643926 -0.077723004 -0.15432213 -0.08643371 0.087041065 0.006553852 -0.15142237
0.0012608094 -0.1312375 -0.20821412 -0.13544904 -0.27855527 -0.24977243 0.09620398 -0.07329584
-0.08414981 -0.28600082 -0.20143744 -0.16928288 -0.038916226 -0.1486342 -0.081229046 -0.094831355
0.0098909885 -0.08986282 -0.0060823886 -0.0895258 -0.12085761 -0.075046025 -0.021805907 -0.123059124
0.21253368 0.0012371799 0.18440156 0.10894989 -0.0833184 0.18778521 0.031135915 -0.117976636
-0.21589655 -0.2551003 0.059987187 -0.04849925 0.052806478 -0.1491796 0.15778075 -0.14117242
-0.03239103 0.03887105 0.09195918 0.19386521 0.21171284 -0.122531146 0.08968138 -0.03222938
0.018691042 -0.17414308 0.14731549 -0.17329814 0.10725534 0.070520334 0.057607856 -0.103927396
0.18765426 0.047748636 0.09080703 -0.106064655 0.14656697 -0.004788899 -0.10129421 0.15120691
0.035417255 -0.1529301 -0.15185814 0.07645395 0.17787164 0.014815909 -0.07218883 -0.08248985
-0.1740603 0.074397415 0.09912801 -0.24635601 0.0593409 0.11362153 0.05160065 -0.07334975
0.068526536 0.071007 0.05596418 -0.076920375 -0.09969386 0.062790014 -0.011416357 -0.11874324
0.17626637 0.20520924 -0.068784446 -0.051600114 -0.021639885 -0.10707199 0.07727456 0.0725914
-0.21060799 -0.025545482 0.20252843 0.0500433 -0.012093218 -0.124745294 -0.18401952 -0.14234865
-0.042186514 0.034544714 0.17112823 0.13464424 -0.18911456 -0.10729322 -0.024729736 0.1427306
0.0424963 -0.053842545 0.07542371 -0.07714208 -0.16243795 0.112574995 -0.10276168 -0.07552169
-0.21766028 0.1931016 0.19765474 0.12162341 -0.08632978 -0.16279115 -0.12393339 0.17480105
0.1132861 0.192246 0.11612079 0.04672721 0.0018661937 -0.1492685 -0.19466525 -0.19524404
0.062222615 -0.12416675 -0.055454176 -0.16236371 -0.11335466 -0.2280186 -0.14232048 0.024788912
-0.11068296 0.1408211 -0.042054933 -0.13161609 0.012439546 -0.04813649 -0.017856821 -0.12126904

conv_block_1.0.bias f4 [40]
00000000: fcb4 27be 44c8 90bd 168c 03bd dce2 60be
00000010: 9eab 70bd 55e7 6a3d 60f8 c13d c9ae e83d
00000020: 3ba3 87bd 6761 65be 8152 aebd f340 e13d
00000030: 3873 e0bd 46ed 453e adce 373e 8ead 90bd
00000040: b2c4 9cbd bf19 963e 56e8 493d 3d7d 233e
00000050: a3c8 edbd a845 2e3e 075e dcbd 2250 133e
00000060: fd1d 9fbd 63d6 953d f513 313d 7b78 ff3c
00000070: 21a2 143c 76df 353e 7da6 99bd bbf5 46be
00000080: 3811 ecbd c205 163e bfbb 86bd 7cf1 47bd
00000090: e02f 60bd 94b5 1b3d 0c6e 303e d9f9 c53d
-0.16377634 -0.07069448 -0.03211602 -0.2196154 -0.058757417 0.05734952 0.09471202 0.113614626
-0.066229306 -0.22400437 -0.0851183 0.10998716 -0.10959476 0.19328794 0.17949934 -0.07064353
-0.07654704 0.29316518 0.04929384 0.15965743 -0.11610534 0.17018759 -0.10760122 0.14386037
-0.07769392 0.07316282 0.043231923 0.03118538 0.009071858 0.17761025 -0.07502458 -0.19429676
-0.11526722 0.14650634 -0.065787785 -0.04881428 -0.054733157 0.038014963 0.1722948 0.09666795

conv_block_1.2.weight f4 [40, 40, 3, 3]
00000000: 8211 4bbd a82f 94bd 1651 00bd 40dd 46bd
00000010: 577a 8abc 58fc cebd b4a6 41bb 7f52 d63c
00000020: a01f f6bb 9d18 c53c d251 7dbd 72f6 5b3d
00000030: fa9b ecbc 255d a7bd 8a94 173d 3bdb 5abd
00000040: 8fa5 05bd 712e 5a3c 2443 11bd e4d5 c13d
00000050: e9c4 c9bc 28cd efbc dc78 053e 041e 09bd
00000060: 6b21 2fbd 8b4d 303d 07b7 6bbd baf0 9cbd
00000070: 613f 4f3b 1333 653d 1b46 95bd 9ec0 b8bb
00000080: cdea 533d 5fd8 97bc 0df3 84bd 4150 cf3c
00000090: 53c7 883d 418c a33d fac2 1a3d 9bda 9e3d
000000a0: 3d0c 7f3d 435b 023e a465 913d 4e22 c33d
000000b0: 7a06 583d f634 3b3d 0d7c 163d 2171 9cbd
000000c0: e836 93bd fbbe b63c c5fe 83bd dca7 c7ba
000000d0: 55f6 9f3d faed 433b f333 17bc c972 473d
000000e0: 9d0e 013d b638 4c3c 554f 8f3d 48c7 eebb
000000f0: 4f1b 3a3b 494e 103d b0f5 7ebd 899e 8fbd
00000100: c15a 9e3d 8999 2cbe 26d6 77bc 4c87 f03d
00000110: ba1b e6bd dd2a 493d 6200 113e ab5e 193d
00000120: 0e3b cd3c d0f7 fabc d22c f53c f74c 67bd
00000130: a8d3 f4bc b36d 9e3c ab7b b4bc 0162 f7bc
00000140: 39ae 99bc dd43 1fbc fff8 893d 24d2 9d3d
00000150: de77 68bd 5da3 4d3d 1356 403d 9ce8 1dba
00000160: bd73 0e3e 75e7 ae3d 69f0 b1b9 1c53 9cbd
00000170: 2831 ea3c 5925 25ba debd 21bd 638f 6a3d
00000180: 7577 59bb 65b0 e7bc 8959 c43c 8f19 e4bb
00000190: 7d22 c5bd a88e 613c fbfc 0a3d f752 81bd
000001a0: 3f2f 0a3d e915 7dbc 07fd 1e3d 97b4 a83d
000001b0: 94f9 183e cdbc fd3d 15ab 513e 688d 233e
000001c0: f039 3e3e cba9 5a3e ea8a 273e 2cc0 f53d
000001d0: 7ae6 233e a050 81bd 2551 b9bd 6447 c6bb
000001e0: f3b9 7cbd dded 84bd b4d9 2cbd ac1e 61bd
000001f0: 7672 e8bc 28c8 6cbd 8701 aebd 352c babd
00000200: 3dc9 2dbd 8ff3 b3bb 9176 0dbe 8168 87bd
00000210: f696 d73c 429c 96bd b645 3bbb a1eb 603d
00000220: 0679 4e3d 02cf b03d cf26 023d e54c 0c3d
00000230: 136d c03d 885e 5e3d 3bf4 8f3c c679 073c
00000240: 6903 a13d ff77 023e 9e49 63bd ca8e bb3c
00000250: 2f2b 133d fdac 9bbd 362f 48bb c173 663d
00000260: 1129 3ebd 2fbd d2ba 0cd2 20bd e1cf cc3c
00000270: 314a 2a3d dcf3 de3c e9d0 8cba d185 bd3b
00000280: 2897 4fbd bc28 1bbd 7702 3ebc 205f c9bd
00000290: 2f83 0cbd c6d1 503d 9dab fdbc de5c 9ebd
000002a0: a95e 703c 4136 50bd 4932 07bc c906 103d
000002b0: ede6 85bc 32bf aabc 5cc1 ea3b 66e7 1abd
000002c0: 1cf2 61bd aa20 80bd 8490 65bd 5417 b33c
000002d0: 254e c9bb d351 973d b4fc fbbc 4d23 fc3c
000002e0: 9cb2 f93b 9c87 13bd 7913 803d d96c 9dbc
000002f0: 5c8e 3fbd 5f26 9c3c 9118 f03d 23fb c43d
00000300: ec77 8d3d dfa6 243e 9587 453e fb59 823d
00000310: 9f7d 243e 64a4 0f3e 7625 4ebd 1024 5c3d
00000320: 260a 00bd 5f03 15bd cfe4 983c 051c c93c
00000330: f4ec e9bc 3ff0 97bc 0c0d b13d 7cfe ab3d
00000340: f1f5 ad3c 8c5f d33d 0d35 cd3c 9cdc cf3d
00000350: 8806 2c3e 6196 bb3d f89c 413d 3570 0e3e
00000360: 84ad e73c 7b61 31bb bda6 443d 43ce 28bd
00000370: 60b3 22bd 1bc6 c2bc 1db7 e73a fadb 39bd
00000380: 055c 16bc c136 d23a b052 5c3d c142 063d
00000390: 227f 75ba af8e bb3d b349 123d c6bd 9f3c
000003a0: 82db d93d cf46 cd3c 7560 2e3c dda9 163d
000003b0: c90f 75bd f431 673d e0ed 103d 0a37 7ebd
000003c0: 5149 adbc 0061 573d b7c0 8fbd 703d 903c
000003d0: 1386 003d aaa3 59bd 6650 f7bc 3b8b 59bd
000003e0: 6ff7 813c c547 4f3d db9f c73a 5acd 0a3d
000003f0: d2db bcbc 4942 513d 4b84 ea3b 7fe7 2f3d
-0.049577244 -0.07235652 -0.03132733 -0.048550844 -0.01690404 -0.101067245 -0.0029548826 0.026162384
-0.007511094 0.024059588 -0.061845608 0.053701825 -0.02888297 -0.08172063 0.037006892 -0.05343173
-0.032628592 0.013316737 -0.03546442 0.094646245 -0.024630027 -0.02927263 0.13034385 -0.03347589
-0.04275648 0.0430427 -0.057547595 -0.076631024 0.003162347 0.05595691 -0.07288762 -0.005638196
0.051737595 -0.018535791 -0.06491671 0.025306823 0.06678643 0.07985736 0.0377836 0.077565394
0.06226753 0.12730126 0.070994645 0.095280275 0.05274055 0.045704804 0.036739398 -0.07638765
-0.07188207 0.022307863 -0.06445078 -0.0015232521 0.07810656 0.0029896484 -0.009228694 0.048693452
0.031508077 0.012464693 0.06997553 -0.00728694 0.0028397625 0.03523091 -0.062246025 -0.0701266
0.07732154 -0.16855444 -0.015126741 0.11744556 -0.11235757 0.049113143 0.14160302 0.037443798
0.025052574 -0.030635744 0.029928599 -0.056469884 -0.029886082 0.019339418 -0.022031626 -0.0301981
-0.018759834 -0.00972077 0.06736945 0.07706097 -0.05675494 0.050204623 0.046957087 -0.0006023736
0.13911338 0.08540241 -0.0003393919 -0.07633039 0.028587893 -0.0006299816 -0.039487712 0.05726565
-0.0033182774 -0.028282354 0.023968475 -0.0069610546 -0.09625719 0.013766922 0.033932667 -0.063146524
0.033736464 -0.015447118 0.038815524 0.0823757 0.14938956 0.123895265 0.20475419 0.15971911
0.18576789 0.21353833 0.16361585 0.119995445 0.16005889 -0.06314206 -0.0904868 -0.006050991
-0.061700772 -0.06490681 -0.042199805 -0.05496089 -0.028374892 -0.05780807 -0.08496385 -0.09090463
-0.042428244 -0.005491681 -0.1381476 -0.066117294 0.026317101 -0.073540226 -0.0028575487 0.054912213
0.050408386 0.086332336 0.031775292 0.03425302 0.09395804 0.05428937 0.017572513 0.008268779
0.078619786 0.12741087 -0.05549013 0.022895236 0.035929855 -0.07601354 -0.0030545718 0.056262735
-0.046425883 -0.001607811 -0.039262816 0.025001468 0.04157466 0.02721589 -0.0010743412 0.0057837744
-0.050681263 -0.037880644 -0.011597267 -0.09832597 -0.034304794 0.050981306 -0.03096562 -0.07732557
0.014671006 -0.05083299 -0.008251735 0.03516272 -0.016345466 -0.020843122 0.0071641635 -0.037818335
-0.055162534 -0.0625623 -0.056046024 0.02186171 -0.0061433488 0.073886536 -0.030760147 0.030778551
0.007620169 -0.036018 0.06253714 -0.019216942 -0.046766624 0.019061266 0.11723436 0.09618213
0.06907639 0.16079281 0.19290002 0.06364819 0.16063546 0.14027554 -0.050328694 0.05374533
-0.03125968 -0.036380168 0.018663792 0.024549494 -0.02855537 -0.018547175 0.086450666 0.083981484
0.021235438 0.103209585 0.02504971 0.101495 0.16799366 0.09159542 0.047268838 0.13909991
0.02828098 -0.002706616 0.048010577 -0.04121233 -0.039721847 -0.023776105 0.0017678473 -0.0453758
-0.009177213 0.0016038046 0.053789794 0.032778505 -0.00093649526 0.09158074 0.035714816 0.01949967
0.10637571 0.025058178 0.010643114 0.036783088 -0.059829507 0.056444123 0.035383105 -0.062064208
-0.021153124 0.05258274 -0.07019179 0.01760742 0.031377863 -0.053134598 -0.030189704 -0.053111296
0.015865056 0.050605554 0.0015230136 0.033887245 -0.023054037 0.051088605 0.007156884 0.04294538

conv_block_1.2.bias f4 [40]
00000000: 9ec6 02be 3e1c ef3d f715 b8bd 2607 653d
00000010: 20b2 133e 276f 74bc 045e 1e3b 6fa1 21bd
00000020: 2d98 903d c27c 7a3d 777f 4c3c 29ce 473c
00000030: b9b7 63bd 0c4d 1e3e 7ecd 0c3e fb17 a03c
00000040: 5e87 1fbd 8a79 c6bd 580f d43d 2026 43bd
00000050: 6453 a73c 6a13 863e c01c 623e 5372 903e
00000060: 9879 253d a89d 233d 1b0c 3ebe ac4f 143e
00000070: 8c78 b3bd f41a 10bc cb42 abbd e6e4 4e3e
00000080: 5e8d 01be 78d3 bfbd e549 d23c 7f48 d0bc
00000090: e850 d0bc cea0 2d3e 8ebd 7f3b d23d 6bbd
-0.12771079 0.11675309 -0.089885645 0.05591502 0.14423418 -0.014919079 0.0024164924 -0.039460596
0.07060275 0.061154135 0.012481562 0.0121951485 -0.055595133 0.15459079 0.13750264 0.019542685
-0.038947456 -0.096911505 0.10354489 -0.04764378 0.020425506 0.26186687 0.2208128 0.28212222
0.040399164 0.039945275 -0.18559305 0.14483517 -0.08763227 -0.008795489 -0.08362349 0.20204505
-0.12651584 -0.09366506 0.025670001 -0.025425194 -0.025429204 0.16955873 0.0039022896 -0.057432003

conv_block_1.4.weight f4 [40]
00000000: b7b7 863f d71e 7a3f 42a3 733f 902b 6f3f
00000010: e22e 783f c846 7a3f 7608 7f3f 9794 683f
00000020: 7a82 913f 6e96 593f 6244 773f 03a2 7b3f
00000030: da37 643f 8697 633f 8dc3 843f a9ed 693f
00000040: 8e7c 743f 94e2 883f 4577 823f da92 623f
00000050: 4af4 783f 6c63 733f 5938 783f ba58 6e3f
00000060: 481f 723f 07e0 713f 9db5 933f a70f 7f3f
00000070: a64d 6a3f c293 783f cba5 813f 4842 713f
00000080: 9d4f 893f 1bed 813f 4699 883f 39f5 723f
00000090: 2d09 733f d4b2 623f f07f 713f 4b0c 843f
1.0524815 0.9770331 0.95170987 0.93425846 0.9694654 0.97764254 0.99622285 0.9085173
1.1367943 0.8499516 0.9658872 0.98294085 0.8914772 0.8890308 1.0372177 0.91378266
0.95502555 1.0694146 1.0192648 0.8850533 0.97247756 0.9507358 0.9696098 0.93104136
0.9457898 0.94482464 1.1539799 0.9963326 0.9152473 0.9710046 1.0128721 0.9424176
1.0727421 1.0150484 1.0671775 0.9490543 0.94935876 0.8855412 0.9433584 1.0316252

conv_block_1.4.bias f4 [40]
00000000: 5dd1 e33d 94c1 ef3b e094 8a3b 3517 bbbc
00000010: 4d0a 633b b6f8 7fbd 5efb e23c 56c2 f5bc
00000020: 0e02 3bbd 79b9 5bbd e8ad b33c e4c9 833d
00000030: 9bcd 263d 7bd1 01be fd15 72bb e202 dcbb
00000040: 80a6 de3c fca5 173d 0a72 973c aaae 2f3d
00000050: fc8c 523d 87d2 2b3d 6257 803c 408d a6bc
00000060: d63a bd3d 48b9 ab3d 73c8 003d be1d 443d
00000070: 32f5 5ebc d4b7 c43d 5e74 d73d 17c3 8abc
00000080: ece9 553b 5fee c03d e0bd 0e3d 7de8 d2bc
00000090: c03b 7fbc 4e29 b1bb 8372 b83d 8227 f83d
0.11123917 0.0073167775 0.004229173 -0.022838214 0.003464359 -0.06249305 0.027707752 -0.029999893
-0.045656256 -0.053643677 0.02193351 0.06434992 0.040723424 -0.12677567 -0.0036939376 -0.006714211
0.027179003 0.03702353 0.018486995 0.042891182 0.051403984 0.04194882 0.015666667 -0.020331025
0.09239738 0.08384949 0.031441163 0.047879927 -0.013608264 0.09605375 0.10520242 -0.01693873
0.003264065 0.09420466 0.034849048 -0.025745625 -0.01557821 -0.005406535 0.090062164 0.121169105

conv_block_1.4.running_mean f4 [40]
00000000: 7750 87be fc7a 4c3e 5c82 a1bd 80f6 433e
00000010: 2151 2b3f 26c9 b7bb aa23 c53e fcdb 29bd
00000020: e2cf 4e3d 3d24 1f3e d155 86bc b0e1 d1bd
00000030: d525 863e 451a 9d3e f691 41bc f4cc 26be
00000040: 9f6d 16be 3cfd 95bd 4908 bd3e 487b 383d
00000050: 8738 d8bd b521 4a3f b13a 173f ad4a 523f
00000060: a241 e8bd f57a 97bd 72d7 5bbe 6822 413e
00000070: 872f 9bbd b264 6ebe 1af6 73be 5765 903e
00000080: 717e 79be 5ae1 75be 8278 feba 5d84 f7bd
00000090: 61fd 11be 1e26 0d3f 7910 f2bd ce7c 5fbe
-0.26428577 0.1996879 -0.07886192 0.19137001 0.6692067 -0.0056086956 0.38503772 -0.04146956
0.05049122 0.15541168 -0.016398342 -0.102481246 0.2620074 0.30684105 -0.011814585 -0.16289121
-0.14690255 -0.07323691 0.36920384 0.045039445 -0.10557657 0.7895768 0.5907393 0.82145196
-0.113406435 -0.07396499 -0.21468905 0.18860781 -0.075774245 -0.232806 -0.23824349 0.28202316
-0.2436464 -0.24011746 -0.0019414576 -0.12085793 -0.14256813 0.5513629 -0.11819548 -0.21824953

conv_block_1.4.running_var f4 [40]
00000000: f800 a73a 4bc0 143d 415a f03c fe81 a53c
00000010: e3c8 4b3d bf15 bb3c 2201 523d 65ee 013d
00000020: 4cb2 163c d9ce 213d 2b13 f33c cb98 fa3b
00000030: da38 2b3d fd5b f73c 227d f43b 43d4 953b
00000040: 792f a63b 9cc8 bd3c d072 2e3d d5aa 673d
00000050: 56d6 1e3c 5cb8 593d e00b 2c3d ede5 6d3d
00000060: 6dc4 2d3c 38fb 203c e9ee 683b 4b6e 573c
00000070: 0888 013d c3c6 643b b1be 153b 8f7e 3b3d
00000080: c6d1 323b 92d4 1a3b 5598 703c 72d6 233c
00000090: 2da8 6f3b 6023 163d 7e06 b73b 42b0 4f3b
0.0012741378 0.036316197 0.029339911 0.020203587 0.049752127 0.022837518 0.05127061 0.03172149
0.009197783 0.039503906 0.029672226 0.007647609 0.041802265 0.03019523 0.007461206 0.0045724227
0.005071577 0.023166947 0.042589962 0.056559402 0.009694656 0.053154334 0.042003512 0.058080602
0.010605914 0.00982552 0.0035542792 0.0131488545 0.03162387 0.003490851 0.0022849257 0.045774993
0.002728568 0.0023625237 0.014684756 0.009999858 0.0036568746 0.03665483 0.0055854907 0.0031690751

conv_block_2.0.weight f4 [40, 40, 3, 3]
00000000: 3296 25bd edaa 18bd e3cb 59bd 3298 c6bc
00000010: a151 14be 981f 02be 2614 b0bd 6dfd 05be
00000020: 58cd d7bd 7443 9abd 511f 1abd 350d ebbc
00000030: 3036 2fbc ef07 02bd 8498 c1bb 2518 7bbd
00000040: 7695 37bd 1ea5 c13b 9d2f 5fbc 80b9 79bd
00000050: 56e2 1bbd ce1c 2bbd 9682 88bd 197d 2abd
00000060: 3e28 fb3b 7aa5 21bc 7ad5 153d 1e0a 9bbd
00000070: bb7b 9dbd 9300 a7bd 6c5a 9abd 5f19 c6bc
00000080: 435b 8c3c 1f82 59bd d89b fdbc de8f 703c
00000090: 5891 423d efaa 543d 94d5 d63c d797 923d
000000a0: 7c80 5a3d 1d1d c33d 8ebb e33c 523c bd3b
000000b0: c89e 523d 845e a8bc 69ab 4dbc 8b1e b9bc
000000c0: 370f 0bbd 9dd2 5cbc e86a d0bc 9412 ee3a
000000d0: e261 11bd 1f9d 2e39 7b81 e83c 54b2 3e3d
000000e0: 156e 783d 5088 eebb 9689 833c 621e 06ba
000000f0: 6c8f d3bc 7eaf c93a 2b51 4c3c 4466 6fbd
00000100: ffe3 69bd a908 a6bd e4ff 3dbd 78b8 c8bc
00000110: 14c8 553a 70a2 b13b 38bb 69bd db3f 40bd
00000120: bd2a 05bd ab2d 5ebd 0f30 b3bd 432b eabd
00000130: 0810 10bd 583f 0fbe d301 babd f948 e9bc
00000140: 16c1 5dbc 8b97 c4bd 4193 dabc b5d2 e6bc
00000150: 3b25 0fbd 1871 60bd 9f84 1cbd f0fc aeba
00000160: f468 c73c dbb7 273d d7a7 7dbd 88e8 4e3c
00000170: 1285 2bbc f99c 73bd 6399 88bd 7858 7a3c
00000180: 932e 5a3b f8b9 ac3b e9ff a5bc ca41 693c
00000190: c834 b6bd ee49 febd b366 b7bc abcc 12be
000001a0: f9ff c5bd 577a e0bd b513 2abe 145d 3cbe
000001b0: e7e9 2abd 7446 e3bc 30a5 9f3b 8767 61bd
000001c0: 256a 37bd 614c 3a3d bca1 1cbd a16e ff3c
000001d0: dbb5 e0bc e9f3 15bd d006 0ebd 26bf 4abd
000001e0: 408f 1bbd 76b6 42bc 3a33 3eba fe1c b83c
000001f0: 3193 b7bc 308d 4d3d 9c58 1f3d 1333 bbbc
00000200: 3df2 30bd 07e2 1e3d 2594 d2bc 8470 1bbd
00000210: efbd 81bd a7ca 13bd 93ed c2bd 5bbf 27bd
00000220: 0711 8abd 7242 07bd 3dbd 32bd 0468 9abd
00000230: 8d23 21bd b3e7 83bd 4b84 38bd 0662 efbd
00000240: fd78 19bd 9d7d 9fbd 4cb5 17bd 487b 8fbd
00000250: 18f8 b7bc 8d13 9ebd a19f a0bc 2970 f6bd
00000260: 5486 1cbe 02f0 66bd 0b2a 84bd f5f4 5abd
00000270: 4c33 013c 3550 bdba db6b 81bd 8a4a 543c
00000280: e18d 8cbd 332f a3bd 2911 54bb 4bea 37bd
00000290: 022f b2bd ca89 babd 22fa 90bd 94c6 dcbc
000002a0: ce9a e53c 415d 323c 59fc 8fbd 8bf7 1dbc
000002b0: 05af dabc 577c 98bd de72 eebc f883 8fbd
000002c0: 2cc1 d7bb a3f8 31bd 3638 09bd 6ee5 8a3b
000002d0: 1e7c b1bc 8b75 70bd 1180 08be 1340 48bd
000002e0: b568 b5bd b363 16be b8f7 cabd d893 ffbd
000002f0: 69c3 18be 0bf6 67bd 8151 20bd d7b9 723d
00000300: 4094 26bb 3cb5 113d a762 c7bb 1353 e93c
00000310: cc8e a23d a3ee 6e3d 30a0 00bd e761 eebc
00000320: 4e1d aa3c f6f5 4dbd eaa7 53bd fe6e 37bd
00000330: 6b5d 6c3d 13b8 b23c 3751 0b3d 5c0e 44bc
00000340: 14b1 7b3d fb62 2f3d f117 183d dc50 fe3c
00000350: 56b9 a73d 26bc 78bb 1f4f ae3d f8f7 c23d
00000360: c83f acbd 0640 afbd c504 bcbd c19a b4bd
00000370: 0dc8 cabd 1b9c 09be 0e7a 48bc 69f0 e5bd
00000380: 30dc 1bbe 13d1 97bc ffca 84bd 8875 9dbd
00000390: cedf 66bb d567 2bbd a699 e0bd 1f80 6dbd
000003a0: 671c b2bd be2d 07be 166b a53a 3bfd 83bd
000003b0: 22a8 17bc df0f 6dbd 0d88 afbd d339 f1bd
000003c0: e083 afbd 8f20 49be eb31 13be 7827 10bd
000003d0: 858d 283c 25df 8abd f106 333b c45e 1fbd
000003e0: f56b cabd f146 89bb 0920 053d a011 cfbd
000003f0: 1e29 9ebd 2423 83bc 8f63 8bbc 3a38 10bd
-0.04042644 -0.037272383 -0.053172957 -0.024242494 -0.14484264 -0.12707365 -0.08597593 -0.13084956
-0.10537213 -0.07532397 -0.037627522 -0.028692821 -0.010694072 -0.031745847 -0.005908074 -0.061302323
-0.04482027 0.005909576 -0.013622192 -0.060967922 -0.038057648 -0.041775517 -0.06665532 -0.04162321
0.0076647094 -0.009866113 0.03658054 -0.07570289 -0.07689615 -0.081544064 -0.07536778 -0.02418202
0.01713336 -0.05310261 -0.030958101 0.014682738 0.04750189 0.051920827 0.026224889 0.071578674
0.05334519 0.09527037 0.027799394 0.005775013 0.051420957 -0.020552881 -0.012553074 -0.022597572
-0.033950057 -0.0134779485 -0.025441602 0.0018163496 -0.03549374 0.00016652465 0.028382054 0.046556786
0.060651857 -0.0072794333 0.016056817 -0.0005116222 -0.025825225 0.0015387384 0.012470524 -0.058447137
-0.0571022 -0.081071205 -0.046386614 -0.024502024 0.0008155119 0.0054209754 -0.05706331 -0.046935897
-0.03251146 -0.05424277 -0.08749401 -0.11434033 -0.03517154 -0.13989007 -0.09082379 -0.028477179
-0.013534805 -0.09599217 -0.026681544 -0.028176645 -0.034947615 -0.054795355 -0.038212415 -0.0013350528
0.024342038 0.040946823 -0.061927643 0.012628682 -0.010468738 -0.059475873 -0.06669881 0.015279882
0.003329192 0.0052711926 -0.020263629 0.014236877 -0.08896786 -0.12416445 -0.022387838 -0.14335887
-0.096679635 -0.109608345 -0.1660908 -0.18394881 -0.041726973 -0.027743556 0.004871987 -0.055030372
-0.04477896 0.045482997 -0.03824018 0.031180682 -0.027430465 -0.036609564 -0.034674466 -0.0494987
-0.03797841 -0.011884322 -0.0007255558 0.022474762 -0.022409054 0.050183475 0.038902864 -0.022851503
-0.043199766 0.038789775 -0.025705406 -0.0379491 -0.06335055 -0.036081936 -0.0951797 -0.040953975
-0.06741529 -0.03302235 -0.043637503 -0.07539371 -0.039340544 -0.064406775 -0.04504804 -0.11688618
-0.0374689 -0.07787631 -0.037038133 -0.07005936 -0.022457168 -0.07718573 -0.019607367 -0.120331116
-0.15285617 -0.056381233 -0.064533316 -0.053456265 0.007885765 -0.0014443459 -0.063194 0.012957225
-0.06862999 -0.07967987 -0.003235886 -0.044901174 -0.08700372 -0.091083124 -0.07078959 -0.026950158
0.028027918 0.010886491 -0.07030553 -0.009641538 -0.026694784 -0.07445591 -0.029107507 -0.07007593
-0.006584307 -0.04345001 -0.033500873 0.004238776 -0.021665629 -0.058705848 -0.13330103 -0.04888923
-0.08857862 -0.1468647 -0.0991053 -0.12479371 -0.14918293 -0.05663113 -0.03914023 0.059259262
-0.0025417954 0.03557323 -0.0060847583 0.028481996 0.079373926 0.05833305 -0.031402767 -0.029099418
0.020765927 -0.050283395 -0.051673807 -0.044783585 0.057706278 0.021816289 0.034013 -0.011966314
0.06144817 0.042819005 0.037132207 0.031044416 0.08189647 -0.0037953942 0.08511185 0.095199525
-0.08410603 -0.085571334 -0.09180597 -0.088185795 -0.09901438 -0.13438456 -0.012236131 -0.11227495
-0.15220714 -0.018532312 -0.06484031 -0.07688433 -0.0035228613 -0.04184707 -0.10966806 -0.057983514
-0.086968236 -0.13201043 0.0012620415 -0.06444784 -0.009256395 -0.057876464 -0.085708715 -0.11778607
-0.08570075 -0.19641326 -0.14374511 -0.03519389 0.010287647 -0.06780843 0.002731737 -0.038908735
-0.098838724 -0.004189365 0.032501254 -0.101107836 -0.07722686 -0.016007967 -0.017015247 -0.03520987

conv_block_2.0.bias f4 [40]
00000000: c9ec 393c db1b c03d ad5a 1b3c e768 0b3e
00000010: 3206 8cbc 95fc 27bc 6a00 09bc 24c4 603c
00000020: 30a9 8a3d e0fe 7dbd 3842 603c 3e9d 0f3d
00000030: 4914 f1bd c37f 5f3d b77f 8b3d b5b4 9dbd
00000040: 68ef 803e af2d 86bc 187c 28bc 800f c1bd
00000050: a27e f0bc bb2b e9bd 0925 46bd 52a4 013d
00000060: 55f2 b33d 4871 ef3d b75b 1ebe 6c71 a43d
00000070: 73b2 f7bd e387 d1bd f99b 003d 8314 e33d
00000080: bfec 7bbc 43d5 be3c f7cc ff3c cd49 803d
00000090: 2b3d 15bd f1b2 31be 4d8b 113e 6fbf 0dbd
0.011347958 0.09380313 0.009482068 0.13614236 -0.017092798 -0.010253091 -0.008361915 0.013718639
0.06770551 -0.062010646 0.013687663 0.035062067 -0.11771447 0.054565202 0.06811469 -0.07700483
0.25182652 -0.016379206 -0.0102834925 -0.094267845 -0.029357258 -0.11385294 -0.048375163 0.03165085
0.087864555 0.116915286 -0.15464674 0.08029446 -0.12094583 -0.102309965 0.031398747 0.11087897
-0.015376269 0.02329505 0.031225665 0.062640764 -0.036435287 -0.17353417 0.14213295 -0.034606393

conv_block_2.2.weight f4 [40, 40, 3, 3]
00000000: 0bc8 b43d 2dc2 7e3d 0084 f2ba 47c4 523d
00000010: f99f 85bc 4ea4 6c3d 4881 e93b 0412 a8bc
00000020: e49f 0d3d be3f a4bd e6f5 cfbd 07f5 46bd
00000030: ce44 ebbd f8c7 58bd a47c 063d e893 f93b
00000040: 9824 9cbd 86b8 d0bb e7eb d1bd 8d60 b8bd
00000050: 1806 c8bc d603 b13c 5de9 d13c 8b16 223d
00000060: 2fc7 b0bc 4800 4b3d 26d7 683d e5d0 d53c
00000070: 9369 8ebd 2f9e 02bd b82f 223d 6ea8 ad3d
00000080: 749f aa3d 6933 ab3d a582 c43d 5b73 053d
00000090: cfbc 96bc 9dd4 e53a 92fe 73bd a412 db3c
000000a0: 40c3 913c a441 9d3c 7adf 1dbd be5b ca3a
000000b0: 8570 70bc b0e8 183e f4d7 b03d 62fb 26bc
000000c0: f9eb ef3d 6828 a2bc 930e 41bc 190f 6d3d
000000d0: 6630 553d dadd b6bc 9bf8 363d 0383 cf3c
000000e0: 102d 863d 013d 023c fc24 8c3d 4766 193d
000000f0: 28dd edb8 87fa 993d e85c bb3c d35e a8bd
00000100: 047d 95bd 7af2 81bd 8a8f b8bd e7d8 23bd
00000110: ba3a 873c 9bf2 82bd 78d8 debc 1e5f 22bd
00000120: 4113 e2bc d83e 5dbd b344 493d cf2e 1fbd
00000130: 967d a8bc 0d90 793d 9378 bbbc e49b f9bc
00000140: 0f76 ab3d f15f 093b aaeb eabc b4f3 8c3c
00000150: b418 d83c aad8 b8bb f4d4 a0b5 f22b efba
00000160: 2221 9f3c bc90 ea3c 6424 98bd a1e2 1f3d
00000170: c1c1 9e3b d26c 403d 3f00 16bd dc3d 1d3b
00000180: bfa3 573d eb89 05bd 3162 b43b 39c4 84bd
00000190: fe23 9abc 9d28 d0bc 7b5b 00bd 616f aebd
000001a0: 8b09 843c e162 2fbd 75c7 3a3d a93e 2d3c
000001b0: 38b7 18bd 669d dabd b392 47bd c82e fdbd
000001c0: 6b7e 3ebd 3f15 86bd db05 24bd 7a96 41bd
000001d0: 220a 67bd fc8e 253d 4d1a 15bd 3beb babc
000001e0: 22ba 133b 8085 64bd 29a3 bb3c 6044 b0bc
000001f0: a40d 77ba 6c85 8a3b 1fee aabd 8c58 a2bd
00000200: 01fb fbba 1d31 5dbd 6bbc 9dbd 9683 873d
00000210: 699c 8c39 632f 05bd f4fe 3abb fb49 b83d
00000220: a582 113d 9ceb d73d 6514 203e 0dbf c13d
00000230: 81ca 313e 3973 0d3e 04e7 203e e526 0c3e
00000240: 081f 35bd 4544 b7ba f2e4 00bd bbd7 b83d
00000250: 9ef2 9d3c 0eec cf3c ff7d d93d 2e1c 613c
00000260: 7cbf d9bc 6336 9a3c c2f2 c73d 14d4 ba3d
00000270: 65a1 f83c 4bf9 693c fa21 453d 0a5f abbd
00000280: 33ea 53bb c331 8e3c dc6d c9bd 9a44 dabd
00000290: a38a b3bd 92c6 acbb 92b4 1b3d 5c58 bd3c
000002a0: 17e6 b43d 9580 553d 3ec7 633d a334 bbbc
000002b0: 8d1b 293d fa14 0a3c 8e0f 053d dc32 953c
000002c0: 17a7 c33c 5c95 993d a2aa 563d f486 8bbc
000002d0: f31c b7bc fe85 2cbb c413 763d f5cf 71bd
000002e0: fe86 2b3d 54c2 9d3d 40eb e6bc 9375 dabc
000002f0: d287 9b3d f065 a1bd d1a3 05bb 47ed 8dba
00000300: f546 10bd 4534 8dbc 428f 0fbd b233 b0bd
00000310: 9a74 2abd 8446 54bd 9f25 efbc 143d 93bd
00000320: a530 80bc e15a bdbd f164 8dbc cad7 e53c
00000330: 1d36 f3bc 9a26 403c 532e 153d 46c2 a63d
00000340: 3898 a63d 4ce9 9d3d 26b8 a63d 1392 833d
00000350: 83f2 863d afb1 b93c 53cf 3cbc 9802 463c
00000360: 3820 2cbc 172e cb3d 49c9 973d 15ab 423d
00000370: ffcd 223e fcd4 d93d 456f c23d 5baf 483d
00000380: 4d26 703c 24e0 9fbd 8a44 21bd 49ab b93d
00000390: 3fb3 b6bb f62a a03d 0c3a bd3d 4887 9b3d
000003a0: e532 833d f91c b63c 051c 383e 7c4f e93d
000003b0: a557 ad3d 8797 0d3e b2d5 2f3e 9aa3 4f3c
000003c0: 66dc 843d 4471 4b3d ae42 17bd 1d59 ebbc
000003d0: 68c7 93bd 5d2b 28bd 9ed4 e0bd ad54 99bd
000003e0: 593e c6bc fb96 9ebd a8f2 1bbc 15ad 60bd
000003f0: b23e bb3d e0fb bc3d 7dd6 a43d 2565 9dba
0.08827218 0.0621969 -0.0018502474 0.051456716 -0.016311632 0.05777388 0.007126007 -0.020516403
0.03457631 -0.0801997 -0.10154323 -0.04857352 -0.11487733 -0.05292508 0.03283371 0.0076165088
-0.07624167 -0.006369653 -0.10250073 -0.090027906 -0.024416968 0.021608274 0.025623972 0.03957228
-0.021579353 0.049560815 0.056845807 0.026100585 -0.069537304 -0.031889137 0.03959629 0.08479391
0.083311945 0.08359415 0.09595231 0.032580715 -0.018400578 0.0017534677 -0.05956895 0.026742287
0.017793298 0.019196339 -0.038543202 0.0015438718 -0.014675264 0.14932513 0.0863494 -0.01019177
0.1171493 -0.019794658 -0.01178326 0.057875726 0.05204811 -0.022322584 0.044670682 0.025331026
0.06551564 0.007949115 0.06842992 0.037451055 -0.00011342234 0.075184874 0.02287145 -0.08221211
-0.072992355 -0.06345077 -0.09011753 -0.040001776 0.016507495 -0.063939296 -0.02720283 -0.039641492
-0.027597072 -0.05401501 0.049137782 -0.038863 -0.020567697 0.060928393 -0.022884643 -0.030469842
0.08372127 0.0020961727 -0.028676827 0.01720605 0.026378967 -0.0056410627 -1.1982906e-06 -0.001824735
0.019424979 0.028633468 -0.07428816 0.03903449 0.0048448746 0.04697878 -0.03662133 0.002399317
0.052646395 -0.032602232 0.0055048694 -0.06482739 -0.01881599 -0.02540999 -0.031337243 -0.085173376
0.016117832 -0.042818908 0.045600373 0.010574021 -0.037284106 -0.106745526 -0.048723888 -0.123624384
-0.04650728 -0.06547021 -0.040044647 -0.047262646 -0.056406148 0.040419564 -0.036402036 -0.022817245
0.0022541364 -0.055791378 0.02290495 -0.021516979 -0.0009424335 0.004227331 -0.08346199 -0.07927045
-0.0019224585 -0.054001916 -0.077019535 0.06616895 0.00026819416 -0.032515895 -0.0028533312 0.08998486
0.035524983 0.10542986 0.1563278 0.09460268 0.17362405 0.13813485 0.15713125 0.13686712
-0.044219047 -0.0013982138 -0.03146834 0.09025522 0.019280728 0.025381114 0.10619735 0.013739629
-0.026580565 0.018824762 0.09763099 0.09122482 0.030350396 0.0142806275 0.048128106 -0.08367737
-0.0032335639 0.017357713 -0.09835407 -0.10657616 -0.08766677 -0.005272695 0.038014002 0.023113422
0.08832949 0.05212458 0.055609934 -0.022852248 0.04128604 0.008427853 0.032485537 0.018212728
0.023883386 0.07499191 0.052408822 -0.017032124 -0.022352671 -0.0026324983 0.060077444 -0.059036214
0.041876785 0.07703081 -0.028188348 -0.026667392 0.07594265 -0.07880771 -0.0020391832 -0.001082816
-0.03522392 -0.017236838 -0.03504873 -0.0860361 -0.041615106 -0.05182506 -0.029192744 -0.07189384
-0.015648196 -0.092458494 -0.017260047 0.028056998 -0.02968889 0.011727953 0.03642113 0.081425235
0.08134502 0.077105135 0.08140592 0.06424346 0.06589224 0.022667734 -0.011524039 0.012085579
-0.010505728 0.099209 0.07411439 0.047526438 0.15898894 0.10636327 0.09493879 0.048995357
0.014657569 -0.07806423 -0.039372005 0.09065873 -0.005575567 0.07820694 0.09239587 0.07594162
0.06406192 0.022230612 0.17979439 0.113921136 0.084639825 0.13827334 0.17171362 0.012673283
0.0648735 0.049668565 -0.036928825 -0.028729016 -0.07215768 -0.04105698 -0.109780535 -0.07486854
-0.024199652 -0.07743641 -0.009518303 -0.054852564 0.091428176 0.09227729 0.08048723 -0.0012008293

conv_block_2.2.bias f4 [40]
00000000: 3004 0ebb 06ee 2a3c 0bb7 e13d b86a 243d
00000010: d874 453d 02de 823d 1506 653d dced 9cbc
00000020: 9000 12bc 7e97 603c df9f 8a3d 384e aebd
00000030: 842b 9d3c e31f ff3b 1411 81bc 1a76 ab3c
00000040: e4b6 f13d 7f0a d03d ca7d 923d 89ea ca3c
00000050: 5b33 6bbd eabb 93bd f8eb 4c3d 84ce 393d
00000060: b102 523d 1e1d b0bd ec93 ea3b adc3 573d
00000070: 5f12 1ebd 2294 913d de8c 30bd deac 413d
00000080: 00ef acbd 4c02 f63d 542e 58bd 4323 39bd
00000090: 04ef 123d 6966 cf3d 0428 b03c 052e 9a3d
-0.0021669976 0.010432726 0.11021241 0.040140837 0.048207134 0.06390001 0.055914003 -0.019156389
-0.008911267 0.013707994 0.06768774 -0.08511013 0.019185789 0.0077857836 -0.015755214 0.020930339
0.11802462 0.10158252 0.071528986 0.024770038 -0.057422023 -0.07213576 0.050029725 0.045362964
0.051272098 -0.08599304 0.007158747 0.052676845 -0.03859174 0.07108332 -0.04310309 0.047284
-0.08444023 0.12012157 -0.052778557 -0.045199644 0.035872474 0.10126955 0.021503456 0.07528309

conv_block_2.4.weight f4 [40]
00000000: 123e 7c3f 859d 863f 57d3 8a3f 8070 823f
00000010: e1e4 7a3f 0b24 773f 9f86 833f 5c0b 763f
00000020: ebe1 853f 4b15 823f 4daf 7f3f f14c 803f
00000030: 86f1 6f3f ad5d 5f3f 49ac 823f 7760 693f
00000040: 27e4 7d3f d3f6 7c3f dda6 663f 08f4 683f
00000050: a2fe 7e3f d2c1 803f 41ef 753f d64d 663f
00000060: 431a 683f 2145 7a3f 222b 943f 8e88 533f
00000070: 9c96 763f babe 6d3f 53bc 713f d053 673f
00000080: 561f 513f 2f1e 6a3f d6eb 8c3f 3b7f 6e3f
00000090: 7659 8d3f 253f 7c3f 71d9 813f 52e0 763f
0.9853221 1.0516821 1.0845746 1.0190582 0.9800549 0.9653937 1.0275458 0.96111083
1.045957 1.0162748 0.9987686 1.0023481 0.9372791 0.8725231 1.0208827 0.9116282
0.9917626 0.98814124 0.90098363 0.9099736 0.9960729 1.0059149 0.960682 0.8996252
0.9066507 0.9776173 1.1575663 0.8263024 0.9632356 0.9286915 0.94427985 0.9036226
0.8168844 0.91452307 1.1009471 0.9316289 1.1042926 0.9853385 1.0144483 0.96436036

conv_block_2.4.bias f4 [40]
00000000: 020c 84bd b9e1 f6bb 8615 e6bd e59c 57ba
00000010: 082a 393d c3e0 3bbd 4dad 88bd d504 e6bb
00000020: d59b 81bd 4267 56bd 6292 94bd d23f c2bc
00000030: dde8 303d 38e2 cb3d 5dac 87bc ce4c b43b
00000040: 572a 393d 221b b73c fb32 b33d 6fe6 653d
00000050: 758f c7bd adea 04bc 5211 423b cf8d 01bc
00000060: 9394 943d 612b 6fbd e7a1 323d c974 093e
00000070: 1b8e 3cbd fca5 853d be9e 72bd c597 903d
00000080: af37 a7ba b4d3 0f3e 34a8 dcbc 0f3b e5bc
00000090: 9da2 abbc 65c3 15bd 82b6 8bbc 26b0 c53d
-0.06447603 -0.0075342325 -0.11234574 -0.0008224978 0.0452061 -0.045868646 -0.066736795 -0.007019619
-0.06328551 -0.052344568 -0.07254483 -0.023712073 0.043190826 0.09955257 -0.016561681 0.00550232
0.045206394 0.022351805 0.08749958 0.05612796 -0.09744159 -0.008112592 0.0029612374 -0.007907345
0.07254901 -0.05839098 0.043611433 0.13423456 -0.04603396 0.065258 -0.05923342 0.07060198
-0.0012757684 0.14045602 -0.026935674 -0.027982263 -0.020951563 -0.036563296 -0.0170548 0.09652738

conv_block_2.4.running_mean f4 [40]
00000000: 837d 0d41 880c 6d3f 9c90 6540 0bad 2341
00000010: 570b c340 d624 3641 40b4 1741 2b8c 6a41
00000020: c2fe 3041 cd4a 5741 e4e4 6840 d120 1e41
00000030: c207 0141 1180 0441 b065 603f 87eb c03f
00000040: 6d65 0741 4c3c ce40 321d 0241 6f47 9f40
00000050: f9c5 2b40 ef0b c83e 3bd0 1641 4a72 043f
00000060: 65a5 7740 50a1 a140 f302 c93e 587b e740
00000070: 65c5 4b41 2153 6b41 e3b5 2441 dcd2 b440
00000080: 0a81 c840 5b34 1141 89c4 fb3e 0123 df40
00000090: 00c6 e33f f7f4 ea3f 730f 1641 a5ae 8640
8.8431425 0.92597246 3.5869513 10.229747 6.0951343 11.383993 9.481506 14.659221
11.062197 13.455762 3.6389704 9.883012 8.064394 8.281266 0.8765516 1.5071877
8.462262 6.4448605 8.132128 4.97747 2.6839583 0.39071605 9.4258375 0.5173689
3.86947 5.0509415 0.39260063 7.2338066 12.735692 14.707795 10.294406 5.6507397
6.265752 9.075282 0.49173382 6.973023 1.77948 1.8356007 9.378772 4.208819

conv_block_2.4.running_var f4 [40]
00000000: 6644 0b43 f4e9 5b41 e3c7 4942 65dd f142
00000010: 8d37 9c42 6ebf 5c43 0565 f342 1121 a743
00000020: cf0a 1d43 348c 8e43 825a 0342 d695 0243
00000030: 4062 be42 b881 0c43 4f66 4c41 cf84 3241
00000040: ed0f 0043 076e be42 9c74 f442 a48f 6742
00000050: 67b0 0642 e009 6340 b446 1a43 d1ea 8340
00000060: 6f89 1542 9a80 4242 833f 8a40 5f74 ca42
00000070: 1a16 3943 f1a5 8b43 dfc4 1243 44ea 8742
00000080: d1c8 8e42 d5a8 1943 137d b740 6bc1 ed42
00000090: f138 9d41 d392 5541 843c 0e43 7789 8e42
139.26718 13.744617 50.4452 120.93241 78.1085 220.74777 121.6973 334.25833
157.04222 285.09534 32.838387 130.5853 95.191895 140.50671 12.774978 11.157424
128.06221 95.2149 122.22775 57.890274 33.672268 3.5474777 154.27618 4.122414
37.384212 48.625587 4.320253 101.22729 185.08633 279.29642 146.76903 67.95755
71.39222 153.6595 5.734018 118.87777 19.652803 13.348346 142.23639 71.268486

conv_block_3.0.weight f4 [40, 40, 3, 3]
00000000: 424e a53d 25d1 d43c a27a 9d3d 91d9 15bd
00000010: b137 ae3d 15cb 3dbd 3e49 b1bb 36da 2ebd
00000020: a7e3 1dbd 99a4 0bbd 1a0c 1ebc 735f 663b
00000030: 2c30 a53c 0842 083d d2d3 9dbc ac46 7a3d
00000040: 5554 aa3b 51b6 0ebe 6895 2fbe daf9 52be
00000050: 2c09 a2bd 6e7a a43c dae9 82bd b44b 36bc
00000060: acea c03d 93af 583d d2a1 cf3d b98c 6c3d
00000070: 0a27 ab3d 7bfb 133d d68f 10bd 8547 e3bc
00000080: a574 44bd e71b 0cbe 86c0 0cbe 83ac 8bbd
00000090: 49a1 a8bc 5254 edbc 22c3 88bd f97d 183e
000000a0: 2afd ab3d d2f7 80bd 8a67 4f3a b0e9 6cbc
000000b0: a12b 25be 0e96 36bd 9979 cdbd 232a 51bd
000000c0: d19a 93bd 9520 92bd 9bc7 843c 5d17 4bbc
000000d0: aeee 213d 9558 043e a447 513c 362c 1e3d
000000e0: fcde 9e3d d9fa 73bd a0f4 cfbd c56f 19bd
000000f0: 0061 ccbd 37d4 dcbd 3be1 eebd 11bc 8cbd
00000100: 6c79 f5bd 3143 49bd c13f a23a 3f79 b1bc
00000110: 72b8 05bd a3c3 833d 8424 6c3d c5d5 893d
00000120: 9695 b13d 97f5 c63d 2be6 8d3d 2d4c 10bd
00000130: a395 bebd 9ca6 bcbd d474 dbbd 19c3 85bd
00000140: ab75 a1bd 2b48 afbc a415 e6bd 961b b9bd
00000150: 3cf5 2bbd f441 8cbd 4a6e 0a3d 5676 6c3d
00000160: 79f3 713d d8d4 ff3c 8d91 343d 188f c83c
00000170: d804 f4bc 50d7 03bd 2f7e 953d f3cb 883d
00000180: 33dc b5bd 834b c93b 30ac 31bd 6333 cc3d
00000190: 11f5 ff3d 040f c03d 92a6 30bd 639b 15be
000001a0: 2f90 43bd 88cd 27bd 7d95 d03b a370 43bd
000001b0: 36df 1bbd c4d0 bdbd 8345 e5bd bdc9 fe3d
000001c0: 3a60 a83d cc71 fe3c 603e 2bbd f82b c73d
000001d0: c88e 84bc 2668 8abd 8700 68bd 2c5b 6ebc
000001e0: 3a26 bb3b 6992 ad3d bc4f b23c 282a 9d3d
000001f0: e04d b33d 8500 bf3d 3477 ae3c ad8a 42bd
00000200: e527 0c3d cee4 5e3c 18cc 8cbd 1bdc 543a
00000210: e62a 453c 88d3 163e 83c4 f43d d571 13bd
00000220: 9312 bb3d 2259 98bc 9aa2 89bd 0c28 92bd
00000230: bdb3 3abd f68b 413b 2009 cf3c 10f9 df3b
00000240: 4534 563d fe92 c0bb 9044 ebbb 6eb2 66bc
00000250: a960 d83d 194e 963c e7e5 efbc 35b8 14bd
00000260: 04b7 a6bd 80ef 343d 03dc b73d e862 d83b
00000270: 0b79 dfba 025b 173e f0af 883d fb81 0e3c
00000280: 48ef 30bd 03e4 03bd 76b7 f3bc 29b8 93bc
00000290: 2faf d3bc b823 963c f9ab 483c 8e47 d73c
000002a0: 4665 ec3c 578c 963d f333 f13c 5ece c6bb
000002b0: a9e6 ec3c 9373 8c3d 6f70 46bd 677b 263d
000002c0: 272c 3c3c 1fe9 0cbc 83a1 a03d 1910 f23c
000002d0: 4927 0d3e d00d 323d d553 f8bc dee9 08bd
000002e0: 128c ad3d 31c1 d4bc 5273 85bd b4dc dcbc
000002f0: 91cf 02bd ec96 4d3c 8424 3f3d daa7 dc3d
00000300: a7b3 813d afba 003d 2972 29bc 598e c3bc
00000310: 7077 1dbd 8050 bdbc 28f5 0ebd f089 70bd
00000320: b201 d6bd 4bed a6bc 235b dd3d 7620 c33b
00000330: 61de 433d 303e 9d3d d5bc 4f3d b719 7fba
00000340: 6f9f 363d 6fe3 833d 6aab 52bd 0c4b b8bd
00000350: 1394 9ebd b258 d3bc cb90 21bd 6225 a8bd
00000360: 14ad 29bd b580 b63b 8e79 253d f4b8 75bc
00000370: 2da1 43bd 76c7 94bd 88ab ef3b d95f c5bc
00000380: e192 e6bb bf6a 2e3d d299 b43d 028f c53d
00000390: 5243 23bd 6a64 0dbe 7c77 b5bc 0076 91bb
000003a0: f35e bdbd bade ed3c 05c3 b73c c99b b23d
000003b0: cf34 32bd ee64 29bd fb37 ca3d eeb2 4fbd
000003c0: 0998 debd 7594 f8bd 24b1 cbbd fe1d dbb9
000003d0: 6813 8abc cca0 66bd e082 e13d 5311 ef3d
000003e0: c298 9c3d 6503 9bbb 746f 063e 38cf 593c
000003f0: 7580 343d 18da 343e 07ad 0d3e 628e f2bb
0.08071567 0.025978634 0.07689406 -0.03658444 0.08506716 -0.046336252 -0.0054103425 -0.04268857
-0.038547184 -0.03409252 -0.00964644 0.0035152107 0.020164572 0.033266097 -0.019266043 0.061102554
0.0051980414 -0.13936736 -0.17146838 -0.20603123 -0.07911906 0.02007791 -0.0639226 -0.0111264475
0.0941976 0.052901816 0.10138287 0.05775139 0.083570555 0.036128502 -0.035293423 -0.027744064
-0.047962803 -0.13682519 -0.13745317 -0.068200134 -0.02058472 -0.028970871 -0.06677844 0.14891805
0.083978966 -0.06297268 0.0007911852 -0.014460012 -0.16129924 -0.044576697 -0.100329585 -0.051065575
-0.07207263 -0.07135121 0.01620846 -0.012395707 0.039534263 0.12924416 0.012773428 0.03861638
0.07757375 -0.0595654 -0.101540804 -0.037460107 -0.09979439 -0.10782664 -0.11664053 -0.06871808
-0.1198605 -0.049136344 0.0012378619 -0.02166426 -0.032646604 0.06433799 0.05765201 0.067302264
0.086711094 0.09714811 0.06928667 -0.035228897 -0.09305885 -0.09211466 -0.107156426 -0.065313525
-0.078837715 -0.021396717 -0.11234596 -0.09038465 -0.04198192 -0.06848517 0.033796586 0.05773004
0.059070084 0.031229421 0.04408412 0.024482295 -0.029787466 -0.03218776 0.07299458 0.06679525
-0.0887989 0.006143035 -0.0433771 0.09970739 0.124979146 0.09377864 -0.043127604 -0.14610057
-0.047744926 -0.040967494 0.0063654766 -0.04771484 -0.038054667 -0.092683345 -0.11194899 0.12440822
0.08221479 0.031060122 -0.041807532 0.09725183 -0.016181365 -0.06758146 -0.056641128 -0.014548104
0.005711344 0.08475191 0.021766536 0.07674056 0.08755088 0.09326271 0.021297075 -0.047495533
0.034217734 0.013604356 -0.06874865 0.00081199565 0.012034154 0.1472913 0.11951544 -0.03599723
0.09134402 -0.01859719 -0.06720467 -0.071365446 -0.045581568 0.0029532886 0.025272906 0.0068351105
0.05229594 -0.005876898 -0.007179804 -0.014080627 0.105653115 0.018347787 -0.02928443 -0.036308486
-0.08140376 0.044173717 0.08977511 0.0066035874 -0.0017049623 0.1478081 0.066741824 0.008697982
-0.043196946 -0.03219987 -0.029750567 -0.01803215 -0.02584037 0.018327579 0.012248033 0.026279237
0.028856885 0.073509865 0.029443717 -0.0060670814 0.028918581 0.068579815 -0.04844707 0.04064503
0.011485136 -0.008600502 0.07843306 0.029548692 0.13784517 0.043470204 -0.030313412 -0.033426158
0.08473982 -0.025971027 -0.06516136 -0.026960708 -0.031936232 0.01254819 0.046665683 0.10774203
0.06333094 0.031428035 -0.010342159 -0.023871588 -0.038443983 -0.023109674 -0.034901768 -0.058725297
-0.10449542 -0.020376822 0.108083986 0.0059547974 0.0478195 0.07677877 0.050717194 -0.000973131
0.04458564 0.06439864 -0.051433004 -0.08998689 -0.07743087 -0.02579913 -0.039444726 -0.08210255
-0.041424826 0.0055695423 0.040399127 -0.01499771 -0.04776113 -0.07264607 0.0073141493 -0.024093555
-0.0070365523 0.04258227 0.088184014 0.09646417 -0.039859124 -0.13807836 -0.022151701 -0.0044391155
-0.09246626 0.029036868 0.02243186 0.0872112 -0.043507393 -0.04135602 0.09873959 -0.05070775
-0.10868842 -0.12137691 -0.09945896 -0.0004179328 -0.016854957 -0.05630569 0.110112906 0.11673226
0.07646324 -0.0047306293 0.13128453 0.013294034 0.04406782 0.17661321 0.13835536 -0.0074022273

conv_block_3.0.bias f4 [40]
00000000: 3bc0 593e 9b6c 203e 6386 9c3d 60c5 9f3d
00000010: df81 08be 29cb 99ba ddc0 ac3d a185 c43a
00000020: a6d9 d93d 2d1b 453c a602 c03d d24b 923d
00000030: 37af af3d 9155 fd3d bb85 cebc 6f20 8d3d
00000040: 9cc6 c6bd 91e9 653e 50d5 c4bd ddcd 9d3d
00000050: 77a5 fb3c fef6 a03d 8123 7b3d 87fd 59bd
00000060: b7c5 8bbd 34ba 7e3e 4877 ebbb b2a2 183e
00000070: c426 e5bd 015f 603c b1e8 4ebd 1265 863c
00000080: d85f d13d 7f0c 8fbd 7ac1 c2bc 42e0 debc
00000090: e7ed 893d 3f6d 61bd 0e19 85bd 3717 46bd
0.21264736 0.1566643 0.0764282 0.07801318 -0.13330792 -0.001173352 0.08435223 0.0014993438
0.10637216 0.012030405 0.09375505 0.07143368 0.085783415 0.12369836 -0.025210252 0.06890952
-0.097058505 0.2245238 -0.09610999 0.07705281 0.030718548 0.0785961 0.061313156 -0.0532203
-0.068248205 0.24875718 -0.0071858503 0.14905813 -0.111890346 0.013694526 -0.05051488 0.016405616
0.10223359 -0.06984805 -0.023773897 -0.027206544 0.067348294 -0.055035826 -0.064989194 -0.048361983
